models/MATD3/MATD3_trained_agent.pt (torch, 528618 bytes, 232 tensors)

current_noise f4 [8, 3]
000000 00 1c 26 b9 5f c6 a2 bc 7e 48 47 3d 9d 23 18 be
       -0.00015841424 -0.019869981 0.04865312 -0.14857335
000010 8d 8e f8 3c 22 c5 1f 3b 6d 95 f6 bc 3f 44 63 bd
       0.030341411 0.0024378975 -0.030100549 -0.055485006
000020 20 ed 79 ba e8 f6 38 bd 44 74 30 bc 49 a8 1b bc
       -0.00095339306 -0.045157343 -0.010769907 -0.0095005715
000030 a5 a0 72 3d 39 f9 8c 3d 64 39 25 3b 2c af 17 bb
       0.059235234 0.06883473 0.002521121 -0.0023145182
000040 e6 55 0f bc 79 c3 00 3d c6 24 9a b9 aa 83 19 bd
       -0.008748507 0.031436417 -0.00029400567 -0.03747908
000050 3c 4b 03 bd 5a 53 0a bd 4d dc 88 3d 5b ec b4 bd
       -0.03205417 -0.033770896 0.06682644 -0.08834144

current_noise f4 [8, 5]
000000 8d b6 84 3d b4 84 f6 bc b1 8c b1 3c d8 91 0d 3d
       0.06480131 -0.030092575 0.021673532 0.034562916
000010 70 96 b7 3b f4 e4 ae 3c 45 c1 0e 3d b0 9a ae 3c
       0.0056026503 0.021349408 0.034852285 0.021313995
000020 f3 2c 29 3d 9a 87 86 bd ea 7e 08 bd d0 7b 96 bb
       0.041302633 -0.06568833 -0.03332416 -0.0045923963
000030 52 9a e7 3c 6e 29 ef 3b 75 df 49 bd 95 f0 2a 3d
       0.028271828 0.00729864 -0.04928537 0.041733343
000040 09 09 91 bd 79 b1 e4 3c a3 87 43 3d 51 9f 35 bd
       -0.070818014 0.027916657 0.047736775 -0.04434139
000050 f2 f2 01 3d de 32 60 bb 4e 85 74 3c ca 07 88 bd
       0.03172583 -0.0034210007 0.01492436 -0.06642111
000060 8e ec 8f bd 7e bd 10 3c 78 73 01 bd 60 72 0e bd
       -0.07027541 0.008834241 -0.03160426 -0.034777045
000070 91 49 dc 3c e2 53 9f bc 55 4e 5d 3d be 35 d5 3d
       0.026890548 -0.019449178 0.05402978 0.10410641
000080 71 e3 b9 bc 8a fc 6e 3c f2 5d 18 3a 31 51 1f 3d
       -0.02269146 0.014586577 0.0005812339 0.03889579
000090 41 39 f0 3c d1 58 74 bd 4b d3 8e bc 90 58 25 bc
       0.029324176 -0.059655014 -0.017434737 -0.010091916

expl_noise f4 [8, 3]
000000 cd cc cc 3d cd cc cc 3d cd cc cc 3d cd cc cc 3d
       0.1 0.1 0.1 0.1
000010 cd cc cc 3d cd cc cc 3d cd cc cc 3d cd cc cc 3d
       0.1 0.1 0.1 0.1
000020 cd cc cc 3d cd cc cc 3d cd cc cc 3d cd cc cc 3d
       0.1 0.1 0.1 0.1
000030 cd cc cc 3d cd cc cc 3d cd cc cc 3d cd cc cc 3d
       0.1 0.1 0.1 0.1
000040 cd cc cc 3d cd cc cc 3d cd cc cc 3d cd cc cc 3d
       0.1 0.1 0.1 0.1
000050 cd cc cc 3d cd cc cc 3d cd cc cc 3d cd cc cc 3d
       0.1 0.1 0.1 0.1

expl_noise f4 [8, 5]
000000 cd cc cc 3d cd cc cc 3d cd cc cc 3d cd cc cc 3d
       0.1 0.1 0.1 0.1
000010 cd cc cc 3d cd cc cc 3d cd cc cc 3d cd cc cc 3d
       0.1 0.1 0.1 0.1
000020 cd cc cc 3d cd cc cc 3d cd cc cc 3d cd cc cc 3d
       0.1 0.1 0.1 0.1
000030 cd cc cc 3d cd cc cc 3d cd cc cc 3d cd cc cc 3d
       0.1 0.1 0.1 0.1
000040 cd cc cc 3d cd cc cc 3d cd cc cc 3d cd cc cc 3d
       0.1 0.1 0.1 0.1
000050 cd cc cc 3d cd cc cc 3d cd cc cc 3d cd cc cc 3d
       0.1 0.1 0.1 0.1
000060 cd cc cc 3d cd cc cc 3d cd cc cc 3d cd cc cc 3d
       0.1 0.1 0.1 0.1
000070 cd cc cc 3d cd cc cc 3d cd cc cc 3d cd cc cc 3d
       0.1 0.1 0.1 0.1
000080 cd cc cc 3d cd cc cc 3d cd cc cc 3d cd cc cc 3d
       0.1 0.1 0.1 0.1
000090 cd cc cc 3d cd cc cc 3d cd cc cc 3d cd cc cc 3d
       0.1 0.1 0.1 0.1

mean_noise f4 [8, 3]
000000 00 00 00 00 00 00 00 00 00 00 00 00 00 00 00 00
       0.0 0.0 0.0 0.0
000010 00 00 00 00 00 00 00 00 00 00 00 00 00 00 00 00
       0.0 0.0 0.0 0.0
000020 00 00 00 00 00 00 00 00 00 00 00 00 00 00 00 00
       0.0 0.0 0.0 0.0
000030 00 00 00 00 00 00 00 00 00 00 00 00 00 00 00 00
       0.0 0.0 0.0 0.0
000040 00 00 00 00 00 00 00 00 00 00 00 00 00 00 00 00
       0.0 0.0 0.0 0.0
000050 00 00 00 00 00 00 00 00 00 00 00 00 00 00 00 00
       0.0 0.0 0.0 0.0

mean_noise f4 [8, 5]
000000 00 00 00 00 00 00 00 00 00 00 00 00 00 00 00 00
       0.0 0.0 0.0 0.0
000010 00 00 00 00 00 00 00 00 00 00 00 00 00 00 00 00
       0.0 0.0 0.0 0.0
000020 00 00 00 00 00 00 00 00 00 00 00 00 00 00 00 00
       0.0 0.0 0.0 0.0
000030 00 00 00 00 00 00 00 00 00 00 00 00 00 00 00 00
       0.0 0.0 0.0 0.0
000040 00 00 00 00 00 00 00 00 00 00 00 00 00 00 00 00
       0.0 0.0 0.0 0.0
000050 00 00 00 00 00 00 00 00 00 00 00 00 00 00 00 00
       0.0 0.0 0.0 0.0
000060 00 00 00 00 00 00 00 00 00 00 00 00 00 00 00 00
       0.0 0.0 0.0 0.0
000070 00 00 00 00 00 00 00 00 00 00 00 00 00 00 00 00
       0.0 0.0 0.0 0.0
000080 00 00 00 00 00 00 00 00 00 00 00 00 00 00 00 00
       0.0 0.0 0.0 0.0
000090 00 00 00 00 00 00 00 00 00 00 00 00 00 00 00 00
       0.0 0.0 0.0 0.0

sample_gaussian f4 [8, 3]
000000 7b 9d 84 bf f6 3c ba 3d 32 08 a7 3f 9b 52 ee bf
       -1.0360559 0.090936586 1.3049376 -1.8618959
000010 c2 bb e9 bf cb c0 43 3f 2d 2e b2 3f 15 05 4e 3f
       -1.8260424 0.76466054 1.3920342 0.80476505
000020 31 d2 29 3f 30 db dd bf 74 41 59 bf 92 cd 11 3f
       0.6633635 -1.7332516 -0.848655 0.569543
000030 f4 06 75 3f 7a 72 12 bf c1 7f 5e bf 9a d3 e5 3e
       0.95713735 -0.5720593 -0.86913687 0.44888002
000040 a5 cb a7 3e 12 80 98 bf 78 7f 2a 3d 76 1a b3 bf
       0.32772556 -1.1914084 0.04162547 -1.399245
000050 94 46 c1 be 1a 3a 21 be 7b 33 6c 3f 34 13 e8 bf
       -0.3774916 -0.1574482 0.9226605 -1.813086

sample_gaussian f4 [8, 5]
000000 69 9e 99 3e 75 ef cb 3e e5 01 9b 3d 62 06 0e bf
       0.3000367 0.3983113 0.07568721 -0.5547849
000010 46 a9 50 bf 80 93 44 c0 61 e7 db bf f9 a3 3a 3f
       -0.8150829 -3.0715027 -1.7179986 0.7290645
000020 e2 2e 0d 3f ba 69 09 be be b1 bf be d8 82 30 3f
       0.5514966 -0.13419238 -0.37440294 0.6894965
000030 c4 ae 56 3f e3 eb e6 3f 53 aa af bf 4f 4c 07 bf
       0.8386042 1.8040737 -1.3723854 -0.5285081
000040 e3 e9 c1 be ee 25 98 be 67 7c 41 3f 8a df 88 3f
       -0.37873754 -0.29716438 0.7558045 1.0693219
000050 b7 f9 1a 3f 9f 78 d0 3e 45 35 33 3e 8f 39 22 be
       0.60537285 0.40717027 0.1750079 -0.1584227
000060 ab a7 80 bf b3 62 cb be bd 15 32 bf ff ff 90 3f
       -1.0051168 -0.3972374 -0.6956442 1.1328124
000070 d3 a0 e3 3f da 33 31 bf 88 96 f5 be 53 29 15 bf
       1.7783455 -0.69219744 -0.4796641 -0.5826618
000080 39 75 95 be aa a5 95 3c 17 e4 25 be 8a 7f 09 3e
       -0.29190996 0.018267471 -0.1620029 0.13427559
000090 06 e0 10 3f 03 7d 31 be 14 da a1 bf d4 85 db bf
       0.5659183 -0.17332844 -1.2644677 -1.7150216

feature_net.linear_layer_0.weight f4 [80, 3]
000000 e8 ca 98 3e b2 fd 5c 3e a1 08 66 3d 7d 6f 74 3e
       0.29842305 0.21581152 0.056160573 0.23870654
000010 11 a7 99 bd f4 b2 0f 3e 2c ea 4e 3e 02 a9 e5 be
       -0.075025685 0.14033109 0.20206517 -0.44855505
000020 c7 26 cc bd 21 24 42 be 92 31 57 be 01 97 1c be
       -0.09968334 -0.18959095 -0.21015003 -0.15291978
000030 b7 d6 49 3d f1 df e7 3c 12 ba 5a 3d dd 77 c1 3d
       0.049277034 0.028305026 0.053400107 0.0944669
000040 42 fa 21 be 66 ad f7 3c db fd 20 bf a3 75 b5 bd
       -0.15818122 0.03023405 -0.6288735 -0.08860328
000050 d7 04 0d 3f ae 76 25 bf 81 48 a3 3d c9 e2 a0 be
       0.5508551 -0.64634216 0.079728134 -0.31423023
000060 89 b4 cf 3d d6 84 9e 3e c6 4c 90 3e 6c f3 92 bc
       0.10141856 0.3096072 0.28183573 -0.017938338
000070 90 81 94 be 9d cb 14 bc 1d bd 75 be 6c 9c 14 be
       -0.29005098 -0.009081748 -0.23997922 -0.14512795
000080 45 d2 b7 be 40 3e c4 3e fd d6 e3 bd 3b 09 89 bd
       -0.3590261 0.38328743 -0.1112499 -0.06691214
000090 5e 93 3c 3e 96 54 86 be b2 c6 95 bd 38 3e 8e 3e
       0.18415591 -0.2623641 -0.07313289 0.27781844
0000a0 b2 a2 ab 3e 29 b3 b1 bd f5 fc 92 bd de ff 1a bf
       0.33522564 -0.0867675 -0.07177154 -0.6054667
0000b0 4d ec 0d 3f 84 ff 1e be 03 7c 75 3e 33 4e 71 3e
       0.5543869 -0.15527159 0.23973088 0.23564987
0000c0 a5 fd 88 3d 63 fe e6 3b a9 c4 05 be 6b ed 6f be
       0.06689004 0.007049368 -0.13063301 -0.23430412
0000d0 5e 19 24 bf 7c c5 1d bd a1 d2 6e be eb 65 99 be
       -0.6410121 -0.038518414 -0.23322536 -0.2996057
0000e0 8b 37 98 bc 02 f2 a8 3c 8d c8 0a bd bf 49 2c 3e
       -0.018581172 0.02062321 -0.033882666 0.16825007
0000f0 4f 02 21 3e 24 53 15 be 7e cd 13 be d8 87 20 3e
       0.15723537 -0.14582497 -0.14433858 0.1567682
000100 b4 42 2c 3e 97 df b6 3e 11 48 db 3e d1 f8 2c 3e
       0.1682232 0.3571746 0.4282842 0.16891791
000110 9c 05 a7 bd 31 e1 41 be 1c 4f c2 3e 80 24 80 3e
       -0.08155367 -0.1893356 0.3795098 0.25027847
000120 ad 0d 2e 3e 9d 92 84 be 58 e0 c0 be 55 7c 93 3e
       0.16997404 -0.25893107 -0.3767116 0.28805795
000130 9d 75 cd 3d 3d e2 b2 3e 6d 05 27 3e ec 41 46 bb
       0.100321986 0.3493823 0.16310664 -0.0030251695
000140 f4 e6 83 3e 7f 61 0b 3e 61 8c f4 3d 49 52 8d 3e
       0.2576214 0.1361141 0.11940838 0.2760184
000150 cd d8 0f 3e 05 a5 37 3d d8 ff cd 3e 6f 39 2c be
       0.14047547 0.04483511 0.40234256 -0.16818784
000160 b0 01 df 3c 1f 66 46 3e 5b 92 40 be 6f 33 ae bd
       0.027222484 0.19374894 -0.1880583 -0.08505904
000170 4d 82 20 be 48 e7 98 be 7d 10 ff 3e 24 86 50 be
       -0.15674706 -0.29863954 0.49817267 -0.2036367
000180 75 18 f1 bc f2 65 4b 3e 90 e3 0a be 50 fe a9 3d
       -0.029430607 0.19863108 -0.1356337 0.083004594
000190 29 58 09 be dd dd 51 3e 43 3b 9d 3d 3f 8b 90 bd
       -0.13412537 0.2049479 0.07677319 -0.07057809
0001a0 04 40 50 3e 77 02 ec bd 9a 8e 8a 3d 06 f3 f4 3d
       0.2033692 -0.11523908 0.0676548 0.119604155
0001b0 0b 0e 11 be de b6 3e 3e 17 5b 9c be ec 47 33 be
       -0.14165513 0.18624446 -0.30538246 -0.17507905
0001c0 be 6b 85 bd c1 f9 70 be b1 57 eb bd 89 96 ba bd
       -0.06514691 -0.23532774 -0.11491335 -0.091107436
0001d0 17 73 12 be 59 2c 03 3e dd ad 1f be 45 2b b9 3d
       -0.14301716 0.12809886 -0.15593667 0.09041456
0001e0 0c e2 9f 3e a0 98 1b 3d c4 d2 4f 3e a6 63 3b 3e
       0.31227148 0.03798735 0.20295244 0.18299732
0001f0 12 0c c1 3e 28 d7 67 bd 30 9b 1b 3e 38 39 47 3c
       0.3770452 -0.056601673 0.15195918 0.012159638
000200 1c 71 c4 3d 9b d3 82 bd 2b d6 9d 3d 34 e7 c0 3e
       0.095918864 -0.06388017 0.07706865 0.37676394
000210 f9 74 23 3e 7f 15 d1 bd 63 2d 19 be a4 7e 80 be
       0.1596259 -0.10209178 -0.1495872 -0.2509662
000220 93 ef 97 3d a7 c2 bf bd 1a 3c 2e bd 17 01 55 3d
       0.07418742 -0.09363299 -0.042537786 0.052002992
000230 e7 b9 c7 3d 04 4e df bc f1 14 84 be 19 14 94 be
       0.09752255 -0.02725888 -0.25797227 -0.28921583
000240 f5 f6 98 be a4 ed 50 3e 42 01 0e be 03 38 b4 bc
       -0.29875913 0.20403153 -0.13867667 -0.021999365
000250 89 6c 0e 3e f1 b4 42 be 15 12 8d 3d af 55 4e 3d
       0.1390859 -0.19014336 0.068882145 0.050374683
000260 00 eb b9 3d b0 cb c9 3c 3b b0 3b 3e 52 de 15 bd
       0.09078026 0.024633259 0.18328945 -0.036588974
000270 ff fe 9e bd fa c9 60 3d 64 18 21 be 50 4c 55 be
       -0.077634804 0.05488012 -0.1573196 -0.20829892
000280 5f 53 47 be 12 47 30 3e 88 c4 fe bd e3 5a 46 3e
       -0.19465397 0.17214611 -0.12439829 0.19370608
000290 c9 94 f2 3c 58 f2 8f bd 3b 7d 60 3d ff 23 54 bb
       0.029611962 -0.07028645 0.05480693 -0.0032370088
0002a0 93 4d 5a be 34 b8 06 be 34 1f 7f 3d 7d 6c 50 bd
       -0.21318655 -0.13156205 0.062285617 -0.050884712
0002b0 cc fd 5a be e8 a1 aa 3d 7e 65 01 be 71 44 0e 3e
       -0.21385878 0.083316624 -0.12636372 0.13893296
0002c0 51 f1 69 3d b0 90 48 3e 09 68 74 be db 39 60 bd
       0.057114903 0.19586444 -0.23867811 -0.054742675
0002d0 a1 05 6d 3e 21 e4 4d be 0b 8b f8 3d 09 4f 24 3e
       0.23146679 -0.20106556 0.12135895 0.16045775
0002e0 77 62 4a be 3b c8 8a be cd cf 65 be fe fa 62 be
       -0.19764124 -0.2710589 -0.22442551 -0.22166058
0002f0 62 ab e4 3d d1 2a 3d bd ff 88 b8 bd 8f 5d 33 3e
       0.11165501 -0.04618341 -0.09010505 0.17516159
000300 24 39 0a 3e d9 29 a1 3c 6b 0c 6f be e8 ae 91 be
       0.1349836 0.019673275 -0.23344581 -0.28453755
000310 00 62 ea bd 92 c1 88 bd b5 db 8c bd a2 07 34 3e
       -0.11444473 -0.066775456 -0.06877843 0.17581037
000320 7b ca 33 3e 7f 73 4f 3e 4e 07 88 3d ac 52 7b 3e
       0.17557709 0.20258902 0.06642018 0.24543256
000330 be 28 2f bf 27 0c 65 3e 67 04 19 bd 73 ec 22 3e
       -0.6842154 0.22367917 -0.037357714 0.1591051
000340 ec 1e 06 3d 79 c4 f4 3d ad 0c 4d bd 83 d7 94 3b
       0.032744333 0.11951537 -0.050060917 0.0045422926
000350 44 6f 70 be be cf 88 3e bd 88 cb 3d a2 59 29 3e
       -0.23479944 0.26720995 0.0993819 0.16538098
000360 c6 a9 67 bd 11 66 55 bc 7d 85 1f be f0 e3 32 3e
       -0.056558393 -0.013024823 -0.15578265 0.17469764
000370 87 1f 95 3e 81 28 4e 3d af ff 41 be ec 9b b2 3d
       0.29125616 0.050331596 -0.18945192 0.08721146
000380 2b 8d 9e 3c c9 e8 04 3e a2 ef 6f bb 02 27 fa bd
       0.019354424 0.12979425 -0.0036611338 -0.122144714
000390 05 cf d7 be dd d1 70 be 3b f7 72 bd 9a 19 e3 3d
       -0.4215013 -0.23517556 -0.05931781 0.110888675
0003a0 f8 c9 99 3d 0e c8 61 3e 23 24 91 3d 60 54 85 3c
       0.075092256 0.22048971 0.07086971 0.016275585
0003b0 1b 90 77 bd 22 0b 18 be 7d 26 d9 be 02 a7 82 be
       -0.060440164 -0.14847997 -0.42412177 -0.25518042

feature_net.linear_layer_0.bias f4 [80]
000000 46 85 d6 3b dc e5 a2 3c 88 3a 3a 3c b9 da 8d bd
       0.006546649 0.019884996 0.011366494 -0.06926484
000010 0a bf aa 3c 03 33 9d bc 00 90 0f bc aa 3e 90 bd
       0.020843048 -0.019189363 -0.00876236 -0.07043202
000020 22 e3 61 bd b0 e5 8a bd 43 73 8f bd d6 7c 74 bd
       -0.05514825 -0.06782091 -0.07004406 -0.059689365
000030 21 95 cc bc d1 0e 2c 3d 80 83 2b bd 2c 84 3e bd
       -0.024973454 0.042006318 -0.041873455 -0.046512768
000040 82 cb b8 bc 64 01 91 bd d5 04 8e bd df 34 25 bb
       -0.022557978 -0.07080343 -0.069345154 -0.0025208516
000050 2a 4b 3c bc a0 cf 58 3b 07 35 cf 3c 7e a1 cc bc
       -0.01149253 0.0033082739 0.02529384 -0.02497935
000060 1b e2 91 bd 9c f3 9d 3c a6 5d 68 bb eb 33 30 3d
       -0.07123204 0.019281201 -0.003545621 0.043018263
000070 49 96 87 bd 45 da 03 bd 9d 95 8c bd 20 b4 86 3d
       -0.066204615 -0.03219058 -0.06864474 0.06577325
000080 8d f5 43 3c 4c 66 38 3d 9e 16 bc 3c ad 7d 63 3d
       0.011960399 0.045019433 0.022960003 0.055539776
000090 ab c5 31 bd 21 14 6f bd 91 fa 6b bd b4 d2 87 bc
       -0.0434014 -0.058368806 -0.057612006 -0.016579963
0000a0 3f 2f a9 b9 fc 7e 5e 3d ac e2 32 3d fe 79 33 bd
       -0.00032269393 0.05432032 0.043673202 -0.043817513
0000b0 1c 37 19 3d 00 78 75 bd 27 8a 8c 3a f1 b5 70 bd
       0.037406072 -0.059928894 0.0010722325 -0.058767263
0000c0 ed 98 3c bc 98 08 81 3c 1f c6 97 bb 22 bc f7 3c
       -0.01151107 0.015751168 -0.004631772 0.030241076
0000d0 5d b8 6d bd 43 ac 05 bd e3 ff 10 3d e0 8c e8 3b
       -0.05803715 -0.032634985 0.035400283 0.0070968717
0000e0 80 1e 25 bd 8e 91 5f bd d2 ca 9b 3b a5 9b 61 bd
       -0.04031229 -0.05458217 0.0047544027 -0.055080075
0000f0 fc f8 04 3c c8 3d 3a bd fa 4a 76 bd 7c ba 95 3c
       0.008116003 -0.045469075 -0.060130097 0.0182774
000100 b6 d5 f5 3c 7a 7f 6f bd 9b df 13 3c a7 f3 74 3d
       0.030009132 -0.05847118 0.00902548 0.059802677
000110 22 5f 22 3c f0 01 58 3d 4b 17 69 bd 53 d0 7c 3d
       0.009910377 0.052736223 -0.05690698 0.06172211
000120 7a 47 67 bd d2 e9 08 bd bb 7c f9 3b 2c 89 f4 3b
       -0.05646465 -0.033426113 0.007613746 0.007462641
000130 3e e8 73 bd de c0 6a 3d e4 ec 45 bc 3d 36 75 bd
       -0.059547655 0.05731284 -0.012080405 -0.05986618

feature_net.layer_norm_0.weight f4 [80]
000000 c5 67 7c 3f 4e b3 79 3f 69 ab 80 3f 00 00 80 3f
       0.9859584 0.9753922 1.005231 1.0
000010 30 26 80 3f 31 93 7a 3f 13 d9 77 3f 00 00 80 3f
       1.0011654 0.97880846 0.96815604 1.0
000020 d7 55 77 3f 00 00 80 3f 00 00 80 3f 4e aa 78 3f
       0.96615356 1.0 1.0 0.97134864
000030 a1 37 7d 3f bc dd 80 3f f1 3e 75 3f 85 57 7c 3f
       0.9891301 1.0067668 0.95799166 0.98571044
000040 70 02 78 3f 00 00 80 3f 00 00 80 3f b9 43 83 3f
       0.9687872 1.0 1.0 1.0255042
000050 2f d2 83 3f f8 fb 80 3f 9e 34 77 3f a4 24 7f 3f
       1.0298518 1.0076895 0.9656466 0.99665284
000060 00 f3 7b 3f a9 cf 7b 3f 30 81 82 3f d2 12 84 3f
       0.98417664 0.9836374 1.0195675 1.0318244
000070 43 bf 75 3f 6a 78 7c 3f 00 00 80 3f f7 b6 84 3f
       0.9599497 0.9862124 1.0 1.0368336
000080 60 1d 81 3f d4 64 84 3f fc 5b 80 3f 4e ba 84 3f
       1.008709 1.034327 1.0028071 1.0369356
000090 ba d9 7b 3f 00 00 80 3f 00 00 80 3f 09 3a 81 3f
       0.983791 1.0 1.0 1.0095836
0000a0 be 30 83 3f 9a 5a 84 3f b7 71 85 3f 2e 3b 7b 3f
       1.024925 1.0340149 1.0425328 0.98137176
0000b0 49 b1 84 3f 00 00 80 3f fb 34 76 3f 00 00 80 3f
       1.0366603 1.0 0.9617459 1.0
0000c0 47 dd 81 3f 9a 68 85 3f db 5e 80 3f b1 10 85 3f
       1.0145653 1.0422547 1.0028948 1.0395719
0000d0 8a 23 7f 3f a9 bc 77 3f 8b 8e 83 3f a7 7e 81 3f
       0.99663603 0.9677225 1.0277876 1.0116776
0000e0 35 f9 7e 3f 29 f8 7d 3f 43 30 7c 3f cf 3f 78 3f
       0.9959901 0.9920679 0.9851114 0.96972364
0000f0 13 1a 80 3f b7 7d 7b 3f b9 e1 7e 3f 4f be 82 3f
       1.0007957 0.982387 0.99563175 1.0214328
000100 dc 54 83 3f 00 00 80 3f 92 05 82 3f dd 0e 85 3f
       1.0260272 1.0 1.015795 1.0395161
000110 fc 17 83 3f 41 69 84 3f 00 00 80 3f 51 0a 85 3f
       1.0241694 1.0344621 1.0 1.0393773
000120 00 00 80 3f 21 f6 77 3f 07 20 80 3f 9a 0b 85 3f
       1.0 0.9685994 1.0009774 1.0394166
000130 00 00 80 3f db 05 85 3f 52 43 79 3f 00 00 80 3f
       1.0 1.0392412 0.9736835 1.0

feature_net.layer_norm_0.bias f4 [80]
000000 a3 57 1e 3c 28 8d 18 3c b3 7c 98 3b 00 00 00 00
       0.009664449 0.009310998 0.004653537 0.0
000010 2c f6 6a 3b 06 03 9d bc c1 93 02 bd 00 00 00 00
       0.0035852296 -0.01916648 -0.03187919 0.0
000020 5d e4 6d bc 00 00 00 00 00 00 00 00 4c 52 ea bc
       -0.014519778 0.0 0.0 -0.028603695
000030 00 0a 36 bc 86 a8 b8 3c 44 aa 2c bd 5e c8 63 bc
       -0.011110783 0.022541296 -0.042154565 -0.013902752
000040 7e c9 fa bc 00 00 00 00 00 00 00 00 d5 1c 6c 3c
       -0.030613657 0.0 0.0 0.014411171
000050 7e d2 f5 3c 53 57 75 3c ce b1 15 3c d2 11 58 3b
       0.030007597 0.014974433 0.00913663 0.0032969606
000060 17 ae 8e bc 8e f4 6c bb f8 c8 b3 3b 35 74 f5 3c
       -0.017416997 -0.0036156508 0.005486604 0.029962638
000070 ff 15 06 bd d7 c3 78 bc 00 00 00 00 1b b3 16 3d
       -0.03273582 -0.015183411 0.0 0.036791902
000080 b6 b6 07 3c ee 96 da 3c 8a 4e dc 3a 51 43 15 3d
       0.008283308 0.026683297 0.0016808074 0.03644115
000090 db e1 85 bc 00 00 00 00 00 00 00 00 9e 4e 1c 3c
       -0.016343048 0.0 0.0 0.009540228
0000a0 49 e7 64 3c 7c 5d 26 3d 21 b2 2b 3d 7e 5b 95 bc
       0.013971158 0.040616497 0.041917924 -0.018232103
0000b0 27 10 16 3d 00 00 00 00 1d 55 d9 bb 00 00 00 00
       0.036636498 0.0 -0.0066324607 0.0
0000c0 3a 56 72 3c 47 ca 2d 3d b2 b6 03 3c e0 4f 73 3c
       0.014791066 0.042429235 0.008039163 0.014850587
0000d0 0b 77 69 bb 4f 97 05 bd 53 6d 87 3c 36 9c f9 3b
       -0.0035623934 -0.032615002 0.016531622 0.0076174987
0000e0 a2 29 96 bb a9 89 0c bc 26 1e 46 bb 92 78 fa bc
       -0.0045825997 -0.008577743 -0.0030230372 -0.03057507
0000f0 6b c6 0c 3b ce 66 92 bc fe 27 a9 bb 2d ff 21 3c
       0.002148057 -0.017871287 -0.005162238 0.009887499
000100 27 21 88 3c 00 00 00 00 58 6f 87 3c f7 fc 20 3d
       0.01661737 0.0 0.016532585 0.039303746
000110 7d ce c7 3c 41 13 07 3d 00 00 00 00 07 7b 23 3d
       0.024390453 0.032977346 0.0 0.03991225
000120 00 00 00 00 b1 e0 f4 bc ed 57 41 3c 76 97 ad 3c
       0.0 -0.029892297 0.011800748 0.021190386
000130 00 00 00 00 af 08 1e 3d 81 ef a1 bc 00 00 00 00
       0.0 0.0385825 -0.019767525 0.0

feature_net.linear_layer_1.weight f4 [32, 80]
000000 e9 4c 95 be 5f 48 70 be 7b 26 96 3e bb d4 a0 bd
       -0.2916024 -0.23465107 0.29326233 -0.07853075
000010 ac 78 b8 3d 06 ed d6 be f8 8f 68 bd bb 39 1a bc
       0.09007391 -0.4197771 -0.056777924 -0.009413178
000020 a8 e6 93 3e f4 7b bb be 83 ee c9 be 1c df 40 bd
       0.28886914 -0.36618006 -0.39439783 -0.047087774
000030 9d c0 17 be 61 41 9a 3e 20 a4 37 3e 11 21 72 3e
       -0.1481957 0.30128005 0.17933702 0.23645426
000040 90 51 d1 be 26 d7 e1 be 44 7d 91 bd cb 43 53 bc
       -0.4088254 -0.44109458 -0.07103971 -0.012894581
000050 a3 0a 46 3d c3 28 c8 be 42 44 7a 3e 93 61 80 be
       0.048349988 -0.390936 0.24440101 -0.25074443
000060 ef 54 51 be cc 0e a2 be 11 cd ac bc 76 f2 77 3d
       -0.20442556 -0.31651914 -0.021093877 0.060533963
000070 8b 1d 48 be 13 8d e9 3c 67 c6 dd bd 35 4f 37 be
       -0.1954252 0.028509652 -0.10828858 -0.17901309
000080 87 3f 13 bd bc b2 08 3d 25 be 2d 3e 37 96 59 3e
       -0.035949256 0.03337358 0.16967066 0.21248709
000090 9d 6c 11 be 4d 74 5d be 6b 84 2d be 13 b9 9e 3d
       -0.14201589 -0.21626396 -0.16945045 0.07750144
0000a0 cb 67 d0 3d ed a9 73 3c 0e 0e a4 3d 5c d8 4c bd
       0.10176047 0.014872056 0.08010493 -0.050011024
0000b0 5f 7e c1 bd f7 fd b1 bd e8 41 c2 bd 19 d8 ed 3d
       -0.094479315 -0.08691018 -0.09485227 0.11613483
0000c0 78 45 ad bd 01 4d e2 bd ce d0 95 3e d7 40 7e bd
       -0.08460516 -0.110498436 0.29260868 -0.062073555
0000d0 60 12 9a bd 86 26 1f bd ba 3b 7b be 4b 76 01 be
       -0.07523036 -0.0388551 -0.24534503 -0.12642781
0000e0 15 d8 36 3e df 7a 8b 3d 52 83 5f 3e 26 85 72 be
       0.17855866 0.06810545 0.21827438 -0.23683605
0000f0 f9 39 80 3d a1 8a 14 3c 20 b7 0e bd 90 82 64 3e
       0.062610574 0.009066255 -0.03484261 0.2231543
000100 d9 41 14 bd 20 79 f3 bd d8 3e a9 bd 1c 1f 0a be
       -0.03619561 -0.11888337 -0.082639396 -0.1348843
000110 b9 54 24 be 33 41 59 bd 83 db 23 3d bb 60 e8 be
       -0.16047944 -0.053040694 0.040004265 -0.453863
000120 9d 01 c8 3d 60 bc c0 bd 2d 29 a1 bd b4 6a c5 3d
       0.09765933 -0.0941093 -0.07869182 0.09639493
000130 af 1b 4a bd 95 8a cd bb 25 b9 4e bd 6e 9d 69 bd
       -0.049342807 -0.006272624 -0.050469536 -0.057034902
000140 1f bc c1 3e 8a 40 e8 3b d6 05 86 3d b5 ed 48 3b
       0.37838838 0.007087772 0.06544082 0.0030659263
000150 ea 74 e3 be a5 52 0e be 0c ce 5f be 00 e8 fe bc
       -0.44425136 -0.13898714 -0.21855944 -0.031116486
000160 fe 43 fe bc 00 c4 49 3e ff 3d a8 3d b0 24 9d be
       -0.03103828 0.19703674 0.0821495 -0.30692053
000170 2e 9c fe bd 03 72 af 3e a4 97 ce 3e 6a 7b 75 be
       -0.12432133 0.34266672 0.40350068 -0.2397286
000180 bc 0c b0 bd 78 53 1e 3f 33 46 a6 3c 95 ee 82 3e
       -0.08596179 0.61846113 0.020297145 0.2557265
000190 5c d9 31 3d 9b f2 0b bf a1 0e c0 bd 84 2b 7f be
       0.04342018 -0.5466706 -0.0937779 -0.24918944
0001a0 8c ec f2 3d 4c 57 c8 be a7 92 13 bd e3 b8 8c 3e
       0.11861524 -0.39129102 -0.03602853 0.27484807
0001b0 53 ee 52 be a1 74 85 3d c8 d0 51 be 5f 83 6d 3e
       -0.20598726 0.06516386 -0.204898 0.23194645
0001c0 8f ed c1 bd 62 3a ee 3d b2 11 7b bd a6 00 3e 3e
       -0.09469139 0.116322294 -0.061296172 0.18554935
0001d0 6b 8e 3d 3d aa 5e 01 3e 60 78 61 be aa 42 76 bd
       0.0462784 0.12633768 -0.22018576 -0.06012217
0001e0 66 c9 af 3d 94 6a f9 3d c5 0b 6a 3d e4 58 23 be
       0.085833356 0.12178531 0.05714013 -0.15951878
0001f0 b3 70 2f 3c 18 21 ee 3d 97 c1 7b bd e4 67 d4 3c
       0.010708022 0.11627406 -0.06146392 0.025928445
000200 de c2 14 bd 1b 17 8c bd 1b 10 cf bf f5 8b 83 be
       -0.036318652 -0.068403445 -1.617679 -0.25692716
000210 59 c9 b1 3d d5 ea 22 3e a7 b7 90 bd 8d c5 31 3e
       0.08680982 0.15909894 -0.07066279 0.17360516
000220 04 a3 6c bd 19 e3 ea 3d 17 47 6b be 52 cb cb 3d
       -0.05777265 0.11469097 -0.22976337 0.0995089
000230 d8 f1 4f be fd 4b 28 3d 30 f4 4c 3d e3 bd af bd
       -0.203071 0.041088093 0.050037563 -0.0858114
000240 d1 49 f3 bd a3 14 c1 bc bb 9a 57 be 0e 65 09 3d
       -0.11879314 -0.02356941 -0.21055119 0.03354364
000250 ad d3 17 3e 9a 65 28 3e de 03 5d 3e c8 fe 26 3e
       0.14826842 0.16445008 0.21583506 0.16308129
000260 f3 e9 2f 3d 0d 4c 15 bf c8 fe 8c bd 2f f7 3a 3d
       0.04294772 -0.5831917 -0.06884533 0.04564589
000270 cd c4 b1 bd 6a 6c 87 3e c6 b4 10 be 5a 1e 5f be
       -0.08680115 0.264499 -0.1413146 -0.21788922
000280 a5 5c 87 bb be 99 e2 3d 7b 51 af be 30 3c 17 bd
       -0.004130917 0.1106448 -0.34241852 -0.036922634
000290 34 b1 c4 3e 60 3f 13 3c 8c 45 93 39 37 74 de be
       0.38416445 0.008987278 0.0002808984 -0.4344804
0002a0 5d cb b6 3d 43 52 5c 3e 87 49 ed be 2d 82 1d bd
       0.08925507 0.21515755 -0.4634516 -0.038454223
0002b0 88 a7 e1 be b2 39 76 3d 37 75 2e bd 4b c4 0c 40
       -0.4407313 0.060113616 -0.042592254 2.1994808
0002c0 12 ef 4f 3e fa 36 8e 3e 6b 60 22 be b1 59 37 be
       0.20306042 0.2777632 -0.15857093 -0.17905308
0002d0 7b a2 d6 bc 7d 46 02 bf 5e 64 8c bd f8 d9 43 3e
       -0.026200524 -0.50888807 -0.06855081 0.19126117
0002e0 29 b7 82 3e ce c7 e8 3d ca f8 c8 3d 16 25 cb bd
       0.25530365 0.11366235 0.09813078 -0.09919183
0002f0 1e 37 03 3e ee c3 0a 3e 98 54 d9 bd 3b 57 fe be
       0.12813994 0.13551304 -0.10611838 -0.49675927
000300 fa dd 07 3d 76 de 48 3c c7 f9 12 be 3b 0e 3f be
       0.033170678 0.01226007 -0.14353095 -0.18657772
000310 0a e0 48 be 2a e1 df bd b0 53 7c bc 08 3f 37 be
       -0.19616714 -0.109316185 -0.015400812 -0.17895138
000320 3c f4 fe 3b e9 5a b6 3e 41 73 b3 bd 77 a0 31 3d
       0.00778058 0.35616234 -0.08762217 0.04336592
000330 ac 40 50 be 14 6f 78 3d 80 12 48 3e e2 21 1d bd
       -0.2033717 0.060652807 0.19538307 -0.03836239
000340 06 ba 89 3e 19 1a 49 3c d5 e0 42 be 3c a8 9c 3d
       0.26899737 0.012274289 -0.19031079 0.07649276
000350 e7 96 61 3d ee 3e 09 3d 4a 35 b8 be 93 a6 ea 3d
       0.055075552 0.03350728 -0.35978156 0.11457553
000360 f3 8d a9 3e a0 fa 2e be b0 60 05 be bf e4 b1 bd
       0.3311611 -0.17087793 -0.13025165 -0.08686208
000370 19 93 d8 bd aa 7f a0 bd ff d3 30 be e9 b0 9e 3c
       -0.10574932 -0.0783685 -0.1726837 0.019371467
000380 95 31 89 3e 9a 5b 17 3e ae 91 65 be 2e 41 89 bd
       0.2679564 0.14781037 -0.22418854 -0.06701885
000390 9c 29 80 3d 1e bb 9b bd 24 fc 3d bd fb da 96 bd
       0.06257936 -0.07604049 -0.04638304 -0.07365986
0003a0 59 9c 4e be 53 a4 8a be 20 99 2d 3d 54 7c fa bd
       -0.2017683 -0.27078494 0.04238236 -0.12230745
0003b0 23 be f7 bd 7a 61 2c be a7 aa 1b 3d e7 fe aa bd
       -0.120968126 -0.1683406 0.038004544 -0.083494
0003c0 83 b5 a2 3d 2f 44 bb be f8 4e 20 3e 70 45 ed bd
       0.07944777 -0.36575457 0.15655124 -0.1158551
0003d0 5a 77 82 be 2a 2d 1a 3e 5d 78 e3 3d ea 91 97 3e
       -0.25481683 0.15056291 0.11106942 0.2960351
0003e0 c1 fc 72 3d 75 a2 77 3b 7b 2a 75 be 70 28 f8 3e
       0.059323076 0.003778604 -0.23941986 0.4846835
0003f0 6e ff 93 3e 2e b2 e1 3d 7d fe b3 ba 9f d2 60 3d
       0.28905815 0.11020313 -0.001373246 0.054888364

feature_net.linear_layer_1.bias f4 [32]
000000 72 bd 9e 3c 1f bb 8e 3a ee d1 85 bd 3b 21 1a bc
       0.019377444 0.0010889507 -0.065341815 -0.009407337
000010 08 4f 36 bc ae df 0a bd b4 0d 46 3c f2 ee 7d b8
       -0.011127241 -0.033904724 0.012088228 -6.0542436e-05
000020 95 2a 48 3d ca bc 0b 3c e4 06 5e bd 22 d6 ef bb
       0.048868734 0.008528898 -0.05420579 -0.007319228
000030 a5 56 49 3d 69 d3 3c 3d 6b 59 5f bd 46 f9 25 3c
       0.049154896 0.046100054 -0.054528635 0.010130232
000040 20 f3 06 bd d6 2e 06 3d 83 ab 88 3d da 61 0a bd
       -0.032946706 0.03275951 0.06673338 -0.033784725
000050 76 f7 b2 3b be 13 c7 bc 2e 20 3d 3d d7 3d 1c bd
       0.0054616285 -0.024301406 0.046173267 -0.038144913
000060 c3 32 6a 3c e6 a0 65 bd 7a d7 47 3b d0 d6 a8 b8
       0.014294329 -0.056061648 0.0030493424 -8.050876e-05
000070 08 5b f0 3b b6 c9 00 3d db 21 08 3d a6 d4 fb bb
       0.0073350705 0.031442367 0.033235412 -0.007685262

feature_net.layer_norm_1.weight f4 [32]
000000 00 00 80 3f 97 d2 7e 3f 61 ee 81 3f 3f 1f 7e 3f
       1.0 0.99540085 1.0150872 0.9926643
000010 cd 55 7b 3f 78 39 7b 3f ed 6b 87 3f f1 e3 87 3f
       0.98177797 0.98134565 1.0579811 1.0616437
000020 fa c2 89 3f 00 00 80 3f 97 46 81 3f 89 2c 89 3f
       1.0762627 1.0 1.0099667 1.0716716
000030 57 d7 87 3f 32 3e 87 3f 56 a8 79 3f 00 00 80 3f
       1.0612592 1.0565856 0.97522485 1.0
000040 fc 3c 85 3f 63 06 8a 3f 6f 7c 89 3f e3 cb 81 3f
       1.0409236 1.0783199 1.0741099 1.0140346
000050 ac f2 83 3f 47 c1 7f 3f 04 1d 89 3f a5 80 7f 3f
       1.0308433 0.9990429 1.071198 0.9980567
000060 09 34 87 3f 61 a3 76 3f 78 36 86 3f 20 42 7f 3f
       1.0562755 0.96343046 1.0485373 0.99710274
000070 49 72 88 3f 00 00 80 3f b9 17 88 3f cd e0 7e 3f
       1.0659877 1.0 1.063224 0.9956177

feature_net.layer_norm_1.bias f4 [32]
000000 00 00 00 00 32 c2 6e bb 3f d2 6c 3c de 89 02 bc
       0.0 -0.0036431667 0.014454423 -0.00796744
000010 92 01 a4 bc 98 ea 9d bc 07 66 6c 3d 83 f0 7c 3d
       -0.02002028 -0.019276902 0.05771449 0.061752807
000020 be 82 9b 3d 00 00 00 00 75 83 42 3c e7 26 94 3d
       0.075932965 0.0 0.011872162 0.072339825
000030 f9 c9 7d 3d d4 c3 68 3d 91 0f d3 bc 00 00 00 00
       0.061960194 0.05682738 -0.025764259 0.0
000040 7f 9b 0e 3d 18 59 a0 3d b8 69 98 3d 1b b3 a8 3c
       0.03481626 0.07829493 0.07442039 0.020593217
000050 c7 e4 20 3d 57 b0 7e 3a 21 de 91 3d 33 95 91 bb
       0.03928068 0.0009715608 0.07122446 -0.0044428348
000060 01 61 6a 3d ca f6 11 bd 12 e7 3f 3d 0f ae 42 bb
       0.057221416 -0.035635747 0.046851225 -0.0029705798
000070 fe 8c 87 3d 00 00 00 00 29 41 82 3d 90 f1 9f bb
       0.06618689 0.0 0.063600846 -0.0048810914

feature_net.linear_layer_output.weight f4 [3, 32]
000000 36 89 39 3b e0 bd b5 3c 0d 61 29 bd c2 74 9f 3a
       0.0028310544 0.022185266 -0.04135232 0.0012165534
000010 d6 42 82 3c 0e 9e 2a 3b cc be a8 bd 07 2e 94 bd
       0.01590101 0.002603415 -0.082395166 -0.072353415
000020 30 b3 c5 bd 7a 80 5a bb 82 c8 a6 bc 64 f0 a5 bd
       -0.09653318 -0.0033340738 -0.020359281 -0.081024915
000030 12 70 b1 bd 93 f5 b0 bd 55 bd 08 bc d5 41 71 bc
       -0.08663954 -0.086405896 -0.0083459215 -0.014725168
000040 96 e5 85 bd a2 82 02 be 8b 2b 05 be d6 ad 55 bd
       -0.06537931 -0.12745145 -0.13004892 -0.052167736
000050 5a e0 86 bd d3 dd c5 3b 3b f9 c6 bd 28 48 8e bb
       -0.065857604 0.0060384064 -0.09715506 -0.004342098
000060 4a f8 b7 bd 9e 01 23 3c 79 de 7a bd ac 4c 05 3d
       -0.08982904 0.009949116 -0.061247323 0.032543823
000070 6e f4 af bd 21 03 44 3c 44 bf c4 bd 9c d8 91 bb
       -0.08591543 0.011963637 -0.096067935 -0.0044508707
000080 fd ac f2 bb 01 a4 78 bd 93 73 88 3c 87 4b a8 bb
       -0.0074058757 -0.06070328 0.016656673 -0.0051359567
000090 78 92 d0 bc 51 bd 3b 3c 18 74 0d 3d 02 92 a9 3c
       -0.025460467 0.011458711 0.034534544 0.020699505
0000a0 3c b2 21 3d 87 88 36 bc b3 1b da bb 24 73 16 3d
       0.03947662 -0.011140949 -0.006656134 0.0367309
0000b0 fe 64 d0 3c c2 86 5d 3d 3b 2a a0 3c 46 d9 40 3d
       0.025438782 0.054083593 0.019551387 0.047082208
0000c0 0e 88 98 3c 20 c5 fa 39 a1 1b 17 3d 72 fd 57 bd
       0.018619563 0.00047830585 0.036891583 -0.05273194
0000d0 b1 56 33 bd e1 96 31 bd ce 7f 44 3d cf 32 35 bd
       -0.043783847 -0.04335678 0.047973447 -0.044237908
0000e0 2f 0f fa 3c a8 c6 ed 3b 09 19 6c 3d 0e 49 10 3d
       0.030524818 0.0072563477 0.057641063 0.03522592
0000f0 e2 a2 9a bc 57 dd 66 3c 72 38 e7 3b 3f 77 ee 3c
       -0.018876497 0.0140908575 0.0070562894 0.029109595
000100 48 a0 5e bc b6 5c 16 bd ac 93 da bc a7 0b 82 bd
       -0.013588019 -0.03670951 -0.026681744 -0.06349879
000110 1d 46 07 3d 05 6d b2 3c 12 ba 1d bd c2 d5 7a bd
       0.03302585 0.0217805 -0.03850753 -0.06123901
000120 4d 00 c7 bc 4b 14 c0 3b 82 c8 01 3c e0 76 ce bc
       -0.024292136 0.005861794 0.00792134 -0.025203168
000130 1b 4b 7d bd 39 18 96 bd 6c a8 24 3d 98 48 a3 3b
       -0.061839204 -0.07328839 0.040199682 0.004983019
000140 45 84 8d 3c ed dc 16 bd e5 6b 7d bd 98 78 84 3a
       0.017274985 -0.036831785 -0.061870474 0.001010674
000150 83 4e 73 3c e5 3f 0d 3d da 47 50 bd 13 00 1c 3d
       0.014850262 0.034484763 -0.050849773 0.03808601
000160 1e 61 88 bb 15 b7 e6 bc e4 4f 73 bd be 06 4a bc
       -0.004161968 -0.028163472 -0.05940236 -0.012330709
000170 45 47 24 bd 58 b0 9f bc 2a 57 68 bd 56 8f 9c 3c
       -0.04010703 -0.019493267 -0.05672375 0.019111317

feature_net.linear_layer_output.bias f4 [3]
000000 54 db 9b bd 41 bf b6 3c 29 9e 0a bd
       -0.07610193 0.022307994 -0.03384224

feature_net.linear_layer_0.weight f4 [32, 11]
000000 b3 5c 3f 3e 50 d5 fb 3d a7 04 80 3e fd ef d9 3d
       0.18687706 0.122965455 0.2500355 0.10641477
000010 a5 13 9b bd 4c de 3d be 3f 72 81 3c 08 70 dc bc
       -0.07572106 -0.18541831 0.015801547 -0.02690889
000020 53 4c a7 be af 9f a4 be 63 2d a8 bd 4f 70 11 be
       -0.32675418 -0.3215308 -0.08211782 -0.14202999
000030 68 3d 52 be d3 e0 8c 3d e4 4a 3f be ad 28 be 3e
       -0.20531237 0.06878819 -0.18680912 0.37140408
000040 37 99 d3 be f8 f3 ed bd ce b8 24 be 45 4b 54 bc
       -0.4132783 -0.11618799 -0.16086122 -0.012957399
000050 7e a0 2c 3c 55 6f fd be 66 cb 61 3e 4c 59 32 c0
       0.010536311 -0.49499002 0.22050247 -2.7867002
000060 03 61 06 bf b2 4c 98 bd dc b3 05 be dc b3 9d 3e
       -0.5249178 -0.074365035 -0.13056892 0.30801284
000070 a4 bb 6e bd 02 5a 0e 3f 3b e0 0b be be b1 20 bf
       -0.058284417 0.5560609 -0.13659756 -0.62771213
000080 e9 0a ae be ea 16 73 be 1e 77 1f 3e 3e 07 03 bf
       -0.339927 -0.2373921 0.15572783 -0.51182926
000090 f9 35 13 be ab b7 eb 3d c9 0e d5 be 2b 96 2f be
       -0.14376058 0.11509641 -0.41612843 -0.17147128
0000a0 b5 eb 49 3e c1 65 9b bd 74 b6 16 be 47 32 d0 3e
       0.19718821 -0.075877674 -0.14718038 0.4066336
0000b0 e2 6c 52 3c b1 3e 54 be c6 fb e9 bd bd 35 89 be
       0.0128433425 -0.2072704 -0.11424975 -0.26798812
0000c0 23 04 34 3e 80 68 8e be fa fc 97 3e 41 f9 ae be
       0.17579703 -0.27814102 0.29685193 -0.3417454
0000d0 e3 a4 2e 3e 0a 7e 40 c0 14 e5 4a 3e fb 84 b6 3b
       0.17055087 -3.0076928 0.19813949 0.0055700517
0000e0 40 3f b5 bd 4e fc b3 be da 6f 9e 3e 58 de 05 3d
       -0.088499546 -0.3515343 0.3094471 0.032682747
0000f0 09 2e 33 3e bc b6 91 3e 73 8a 77 3c d8 60 61 3f
       0.1749803 0.28459728 0.015108692 0.88038397
000100 22 d2 81 3e 16 c7 4f 3e f2 5c 36 bc ad 1c 9e 3d
       0.2535563 0.20290789 -0.011130558 0.07720313
000110 cd dc ca 3e 67 0f 67 3e 27 ee 29 bb 39 6a a1 be
       0.39621583 0.2256447 -0.0025929303 -0.31526354
000120 ce 55 bf bd b5 f6 05 3f 6c c6 0f be c1 c3 46 3e
       -0.09342538 0.5232957 -0.14040536 0.19410612
000130 47 ed dc 3e 08 41 20 be 1a 87 13 bc 00 e0 63 3d
       0.43149778 -0.15649807 -0.009004379 0.055633545
000140 c4 e2 e8 3e 80 de 3d 3e bf 3d dc bd 9a bb b7 3e
       0.45485508 0.18541908 -0.10753965 0.35885316
000150 02 5a 5f 3d d7 46 65 be 27 aa 00 3e e0 ff 06 3e
       0.054529198 -0.22390305 0.12564908 0.13183546
000160 8d 3c 63 3e 9a fe 9a be f8 e8 39 bd e2 82 96 3e
       0.22191067 -0.3027237 -0.045388192 0.2939673
000170 49 38 a9 3c d2 bd 0d 3e 0b 57 88 be 76 ba 9d bd
       0.020656722 0.13841942 -0.2662891 -0.0770158
000180 be 34 65 3c ed 15 94 be 5d 17 96 3e 45 1c 3f 3b
       0.0139896255 -0.28922978 0.293147 0.0029161137
000190 67 bd d1 be b1 35 0a be 20 a8 dc be 8d dc 75 be
       -0.40964815 -0.13497044 -0.4309702 -0.24009915
0001a0 ab 53 ab be 20 69 a6 3e 89 ff a3 3d d8 9b e9 3c
       -0.3346227 0.3250208 0.08007724 0.028516695
0001b0 75 45 67 3e dd ee fc 3e 70 30 42 3e e6 96 80 be
       0.2258509 0.49400988 0.1896379 -0.25115126
0001c0 e4 0f 3f 3e f3 8e 05 bd ba dd 22 3e 29 96 fc be
       0.18658406 -0.03260703 0.15904894 -0.49333313
0001d0 85 f0 39 3e 11 7e 85 3e a1 66 ff 3e 56 46 6c 3e
       0.18158157 0.26072744 0.49882987 0.23073706
0001e0 44 31 7c 3e 52 2f 7b be 42 11 ce bc e2 30 17 3e
       0.24628168 -0.2452977 -0.025154714 0.14764741
0001f0 64 9d ad bd 0e 96 d2 be 9d ec 26 3f c9 fa 97 bd
       -0.084772855 -0.41130108 0.65204793 -0.0742088
000200 4c d0 b9 be 9a 33 07 3d 0f 98 9c 3d 9a 11 06 3e
       -0.3629173 0.033008195 0.076461904 0.13092652
000210 c5 e6 ce 3d 3e 6d a6 3e 90 b6 a3 be 61 20 d8 be
       0.101026095 0.3250522 -0.31975222 -0.42212203
000220 72 fb 17 be b9 d6 55 bd df 3a 8d be 53 6d 42 3d
       -0.14842013 -0.05220673 -0.27583978 0.04746754
000230 0e 21 c0 3d 69 26 71 3c 9c 74 30 3e d2 58 99 be
       0.09381305 0.01471863 0.17231983 -0.29950577
000240 fa 53 22 be d6 7d 28 be 5c a8 aa bd cd 98 10 be
       -0.15852347 -0.16454253 -0.08332893 -0.14120789
000250 36 b5 6b bd 94 97 54 3b 03 1c 34 be cb 04 3d 3e
       -0.057545863 0.003243898 -0.1758881 0.1845886
000260 88 c5 ce be b5 9d 0a be cf 71 4e 3e d0 53 28 3c
       -0.4038508 -0.13536723 0.20160602 0.010273889
000270 ee 51 37 bd 9a cf 26 be a0 d2 89 3e 80 9c 7f 3d
       -0.04475587 -0.16290131 0.26918507 0.06240511
000280 4a 3c dd 3e 99 1e 00 bf 82 4c 1c be 4e 42 dc 3e
       0.4321006 -0.5004669 -0.1526356 0.43019336
000290 84 ac 11 be 6d 06 ad 3e 78 d7 cf be 9d d3 d5 3e
       -0.14225966 0.33793965 -0.40594077 0.4176301
0002a0 16 d4 ce 3d a0 f5 e5 be 7f 87 b4 3e f1 28 4c be
       0.10099046 -0.4491396 0.35259625 -0.19937493
0002b0 9f 42 98 bd 11 09 93 3e 90 5c 86 3e 9f 5e 7c bc
       -0.07434582 0.28717855 0.26242495 -0.015403419
0002c0 c1 82 04 3e 13 28 c7 3e e8 1a 2e bc 86 7b 5f 3d
       0.12940504 0.38897762 -0.010626532 0.05456116
0002d0 3e 88 ec 3d 1c 16 40 3e cf f7 33 3d be 1b a0 bd
       0.11549424 0.18758434 0.0439375 -0.078177914
0002e0 c9 27 93 3e c4 d3 e5 be b9 8b aa 3e 4b f8 ca be
       0.2874129 -0.44888127 0.33309725 -0.39642558
0002f0 55 44 c7 3d 51 5e 2e be 0b 42 f3 3e 07 9b e0 be
       0.0972983 -0.17028166 0.47511324 -0.43868276
000300 bc 17 0d be 98 ae 29 3e 39 0f aa 3d a6 db 9f bd
       -0.13778585 0.16570508 0.08303685 -0.078055665
000310 c6 a3 18 be 73 0d 29 be 37 e9 f8 bd 3b a1 51 be
       -0.14906225 -0.16509037 -0.12153857 -0.20471661
000320 9a da 31 be 74 87 8a bb 27 e4 09 be fc 8a d8 be
       -0.17368546 -0.004227573 -0.1346594 -0.42293537
000330 a0 82 a7 3d e2 e8 1d be 98 c6 40 be 49 af 36 be
       0.081792116 -0.15420869 -0.18825758 -0.17840303
000340 5a f6 9a be 3d 24 85 be c1 9f 55 be f6 53 97 3e
       -0.30266076 -0.2600421 -0.20861723 0.29556245
000350 f3 ad 64 3e 79 f6 61 3e 3b 12 e8 bd 99 5e ef be
       0.22331981 0.22066678 -0.11331602 -0.4675186
000360 e7 a2 00 bf 99 4f 08 40 22 3f ca be dc 14 10 3e
       -0.5024857 2.1298583 -0.39501292 0.14070457
000370 ea 24 91 3e 88 f4 80 3e 47 9c b6 3e fb d7 98 be
       0.28348476 0.25186563 0.35666105 -0.2985228
000380 57 88 d7 3d ff 2a a2 be 28 d8 ae bd 27 8b 90 3e
       0.10524052 -0.31673428 -0.08537322 0.28231165
000390 2b 6e c3 bd ed 82 ee bd 55 aa 28 be 6a c7 cd 3e
       -0.09542497 -0.11646066 -0.16471227 0.40191203
0003a0 2a 6b 51 be 4e a7 54 be 2c 79 7c 3e 01 9e 65 3d
       -0.20451036 -0.20766947 0.24655598 0.056058887
0003b0 c6 24 87 bd ce a9 cb 3e a1 32 7c be c1 c1 00 3f
       -0.06598811 0.39777988 -0.24628688 0.50295645
0003c0 f1 18 19 be de a0 ee 3c 19 81 18 3e a6 f4 92 3d
       -0.1495092 0.029129442 0.14892997 0.07175569
0003d0 8f 51 1e 3e 55 eb 59 3d d2 27 02 3f 41 64 b4 3e
       0.154608 0.053202946 0.5084201 0.35232738
0003e0 fb d2 96 3e 58 2d d9 3e 6a 36 da 3d 92 11 58 be
       0.2945784 0.42417407 0.1065491 -0.21100453
0003f0 cb 2c 20 bd a1 8d 96 3e f9 66 f9 bc fa 5a ff 3e
       -0.039105218 0.2940493 -0.030444609 0.49874097

feature_net.linear_layer_0.bias f4 [32]
000000 36 45 4c bd ab cd 94 3d db 03 e7 bc 24 5d 24 3d
       -0.049870692 0.072657906 -0.02820008 0.04012789
000010 9c d8 97 3c 81 9c 87 bd 0f 99 9a 3d be c1 91 3d
       0.018535905 -0.066216476 0.07548725 0.071170315
000020 35 fd 97 bd 96 35 74 3c bd ee 26 3d a1 5f 31 3d
       -0.07421342 0.014905354 0.040755022 0.04330409
000030 09 e4 92 bd 85 e6 3c bd ea f5 84 bc 9c f5 dd 3c
       -0.071724005 -0.046118278 -0.016230542 0.027094655
000040 b4 30 cd ba 84 0c ae bc d6 63 55 bd e2 88 d0 bc
       -0.0015654773 -0.021246202 -0.052097164 -0.025455896
000050 35 6f 2d 3d b3 62 21 bd 40 fd 49 3c c5 7c 69 bd
       0.042342383 -0.039400768 0.012328446 -0.057003755
000060 49 c2 78 bc 87 94 23 bd df ff 68 3d 2e a1 b7 bc
       -0.01518304 -0.03993657 0.056884643 -0.022415724
000070 82 12 49 bd 71 a0 68 bd b4 36 98 3d cd e8 65 bd
       -0.049089916 -0.056793634 0.07432309 -0.05613022

feature_net.layer_norm_0.weight f4 [32]
000000 7d fe 7a 3f e6 20 89 3f 12 a1 82 3f e8 1f 85 3f
       0.9804457 1.0713165 1.0205405 1.0400362
000010 a3 cf 82 3f fb 73 6e 3f c1 a8 89 3f ad 9e 88 3f
       1.0219616 0.9314572 1.0754625 1.0673424
000020 aa a2 6d 3f 9a ae 82 3f f4 8e 82 3f 97 46 84 3f
       0.9282633 1.0209534 1.0199876 1.0334042
000030 53 ec 6c 3f 09 38 7e 3f b0 1d 7a 3f bb 2e 85 3f
       0.925481 0.9930425 0.9770155 1.0404886
000040 45 96 81 3f 3c f6 7d 3f be f0 7a 3f df 5a 76 3f
       1.0123984 0.9920385 0.98023593 0.9623241
000050 8a e8 85 3f ea 3d 76 3f 94 fe 80 3f 88 a2 81 3f
       1.046159 0.96188223 1.0077691 1.0127726
000060 7a c5 81 3f b6 26 79 3f ac 5d 87 3f 6e f2 7c 3f
       1.013839 0.97324693 1.0575461 0.9880742
000070 02 46 74 3f 6c 8c 7b 3f ba 1f 89 3f 9c f4 6f 3f
       0.95419323 0.9826114 1.0712807 0.9373262

feature_net.layer_norm_0.bias f4 [32]
000000 48 2c 9c bc d1 50 99 3d ec 1a 8f 3c 15 91 2e 3d
       -0.019064084 0.07486118 0.017468892 0.04261883
000010 47 cd 2b 3d 2f 76 8f bd 0d 14 9c 3d d6 bb 97 3d
       0.041943815 -0.070049636 0.07621012 0.07408874
000020 a7 b7 94 bd 54 94 8a 3c a3 f2 55 3d 16 85 3b 3d
       -0.072615914 0.016916431 0.05223335 0.045781218
000030 23 d4 8d bd e3 86 79 bc d8 1e 4a 3c 17 c9 13 3d
       -0.069252275 -0.015229913 0.012336455 0.036080446
000040 4d b5 ec 3b 26 d7 71 bb d4 fc 9e bc 1f 48 c6 bc
       0.007223761 -0.003690192 -0.019407667 -0.024204312
000050 75 ce 40 3d cd 4b fa bc 40 c3 b8 3c f1 50 e4 3c
       0.047071893 -0.030553723 0.02255404 0.027870627
000060 ac 10 08 3b 5c e7 8c bb 9c 01 6a 3d 7f 04 e7 ba
       0.002076189 -0.004300041 0.05713044 -0.0017625241
000070 3e c8 42 bd cd 4b 84 bc b5 bf 99 3d 9a 5f 5a bd
       -0.047554247 -0.016149426 0.07507268 -0.05331383

feature_net.linear_layer_1.weight f4 [96, 32]
000000 7d 7f 37 be 79 d6 72 be f0 bb 9f be ee 7a bc 3e
       -0.17919727 -0.23714627 -0.31198072 0.36812538
000010 0f 47 4f 3e b8 15 83 3e 58 75 a4 bd bd db dc 3c
       0.2024195 0.25602508 -0.08030194 0.026960248
000020 a4 11 0a 3e 26 2f 00 3f ee 67 14 be a8 34 85 3d
       0.13483292 0.5007194 -0.14492771 0.06504184
000030 8c 2e 2b be eb dc 67 be 0a a1 a5 3e 34 01 84 3e
       -0.16716975 -0.22642867 0.32349426 0.25782168
000040 f7 a5 f9 bc 00 1e 12 be f6 63 7d be 6c 51 d4 bc
       -0.030474646 -0.14269257 -0.24745163 -0.025917731
000050 dd e2 18 3e ae db 9f 3e c4 58 a2 be c8 93 dd 3e
       0.14930291 0.3122229 -0.31708348 0.4327681
000060 fb 53 8a 3e fc a8 86 be e7 92 a3 be 50 e6 f6 bd
       0.27017197 -0.263008 -0.31948015 -0.120556474
000070 5c 51 a4 3e 00 86 a7 be ae f7 38 3e be b4 86 be
       0.32093322 -0.3271942 0.18063232 -0.2630977
000080 85 fe a5 bd 6e d3 a8 bb 75 af 39 be a9 eb 67 be
       -0.081051864 -0.0051521575 -0.18133338 -0.22648491
000090 c4 f9 b7 be 6d ae 0d 3f 4a 82 a0 3d d2 cb d3 3d
       -0.35932744 0.5534428 0.07837351 0.1034161
0000a0 59 cc 89 3d 67 ce f7 3b 7b a7 9e 3e f7 0f 97 3d
       0.06728429 0.007562447 0.30987152 0.07376092
0000b0 4b a9 25 bf 20 db 3b bc 7d 07 0b be dc 82 2a be
       -0.64711446 -0.011465818 -0.13577075 -0.16651481
0000c0 0d 5c ba 3d 30 66 7e be bb 0f d6 3e ab 66 e1 3d
       0.090995885 -0.24843669 0.41808876 0.110059105
0000d0 d7 e7 de bd 39 9d fb bd da 7b e1 be 9e f6 93 bd
       -0.10884064 -0.12285847 -0.44039804 -0.07224773
0000e0 54 a0 7e 3e 97 46 8b 3e de 60 4a be 11 83 31 be
       0.24865848 0.27202293 -0.19763514 -0.17335154
0000f0 ca 42 d2 be 35 f1 15 bd 9b 43 1f 3e b2 ad 5c 3e
       -0.4106658 -0.036606986 0.15553133 0.21550635
000100 32 73 96 3e 60 d9 ab 3d 2d da f0 3d a6 c8 48 be
       0.29384762 0.0839107 0.11760364 -0.19607791
000110 00 b3 10 bf e4 59 81 be 9a cc cf bd aa 21 6b be
       -0.5652313 -0.25263894 -0.101464465 -0.2296206
000120 97 2a 41 3e 3d 7e 01 3d d5 99 bf bd c7 aa 73 3e
       0.18863903 0.03161453 -0.09355513 0.23795615
000130 37 89 68 be f1 47 2e be e6 a2 12 be c9 ba 8e 3e
       -0.22708593 -0.17019631 -0.14319953 0.2787688
000140 06 10 85 3e c3 2c d1 be a6 71 29 3e d5 c4 0b 3e
       0.25988787 -0.40854463 0.1654726 0.13649304
000150 8c d6 07 be 02 0d d5 3e 1b d5 4a bd 22 5c 5c be
       -0.13265437 0.41611487 -0.04951964 -0.21519521
000160 80 48 a0 bd 6a 22 4a be cf dc 9c 3d 90 76 4f be
       -0.07826328 -0.1973969 0.076593034 -0.20260072
000170 be b5 59 3e 41 0c 07 be b9 b0 9d be 3e 54 f6 be
       0.21260735 -0.13188268 -0.3079889 -0.48111147
000180 78 09 be be 13 c9 a8 be d9 ae ac be 7c fc 19 bd
       -0.371166 -0.32965907 -0.33727148 -0.037594303
000190 ef e2 64 3d 8b 6e 1a be f0 35 56 bd 44 51 61 be
       0.055880483 -0.15081231 -0.052297533 -0.22003657
0001a0 ed ed ad be f3 3d 26 be 59 43 b5 3e 21 87 82 bd
       -0.33970585 -0.16234569 0.35402945 -0.0637343
0001b0 c0 b8 80 be 7c e6 1a 3e 46 f8 56 be eb a5 83 be
       -0.25140953 0.15126985 -0.20993146 -0.25712523
0001c0 2a f3 39 3c ae 97 cb ba a0 3f 95 3e 05 4e 20 bf
       0.011349479 -0.0015532875 0.29150105 -0.6261905
0001d0 db 08 da 3d a6 c2 82 3e 47 25 2a 3e 4a 91 05 be
       0.1064622 0.2553913 0.16615783 -0.13043705
0001e0 d2 4d b1 3e ee 8b ae bd 90 9b cb 3e 50 aa 70 be
       0.34629685 -0.08522783 0.39767122 -0.23502469
0001f0 29 ca b4 3e 38 48 2f 3e a8 b4 b5 ba 03 72 8e be
       0.35310486 0.17117393 -0.0013863044 -0.2782136
000200 cf ab b9 be 11 9a d9 3e e3 ac f1 3d a7 9c d3 3d
       -0.36263892 0.42500356 0.11800554 0.103326134
000210 ef 9e 5b 3d 98 8c 3d be 79 15 af 3e 13 ad 43 3e
       0.053618368 -0.18510664 0.3419607 0.19108991
000220 20 aa a7 3e 46 15 e2 bc d2 3c f8 3b ca dd 0d 3e
       0.32746983 -0.027598035 0.0075756097 0.13854137
000230 5d 46 a0 bc 0b 21 39 be 52 44 6f 3e b5 9b 2d bf
       -0.019564802 -0.18079011 0.23365906 -0.67815715
000240 f9 05 08 3f 22 b5 42 be 9b e9 09 be 4a 06 b3 3e
       0.53134114 -0.19014409 -0.1346802 0.34965736
000250 60 1f 0f bd c3 9b 0a 3e f0 3c 2f 3e 1f 36 2f 3c
       -0.03494203 0.13535981 0.1711309 0.010694056
000260 11 a9 56 3e 4e f4 8f 3d 49 24 dd bd 40 c9 97 3e
       0.20962931 0.07029019 -0.107979365 0.2964573
000270 20 c5 b0 3e 91 6c bc 3e 25 f8 c7 3d cb 1a 1c be
       0.34525394 0.3680158 0.09764127 -0.15244596
000280 ad 5f 2b bf 29 c0 1a be e7 ef 5c 3e 44 ec 70 bd
       -0.66942865 -0.15112366 0.2157589 -0.05881907
000290 d3 17 f0 be 43 e8 91 bc 33 d3 11 be 65 c7 8e be
       -0.46893176 -0.017810946 -0.14240722 -0.278865
0002a0 ab 72 e1 be 91 90 0d 3c 0c 2a 41 be c6 25 83 be
       -0.44032797 0.008640424 -0.18863696 -0.25614756
0002b0 e9 b8 98 bd cc 85 a6 be 0a 45 aa 3e dd 84 09 bd
       -0.07457144 -0.32523954 0.33255798 -0.033573974
0002c0 23 75 06 be 9f 65 d1 3f 15 b2 b8 bd 50 09 42 bd
       -0.13130622 1.6359137 -0.090183415 -0.047372162
0002d0 af 08 fd be e8 b5 18 be ba ce c2 3d 6d 2d 50 3e
       -0.49420688 -0.14913142 0.09512086 0.20329829
0002e0 87 20 2d 3e b5 2f 09 bc b3 d2 27 3e 27 e4 85 3d
       0.1690694 -0.008373191 0.16388969 0.06537657
0002f0 95 f3 08 be b3 dd 93 be ab ce 4d be 92 2c 92 3e
       -0.13374169 -0.2888008 -0.20098369 0.2854963
000300 88 9a 82 be c6 14 05 be 0e 94 d1 bc c7 02 b0 3d
       -0.25508523 -0.12996206 -0.025583293 0.0859428
000310 22 d4 7e 3d 7d 1a 68 be 04 de 85 be 3b d0 7e 3d
       0.062214024 -0.22666354 -0.26145947 0.062210303
000320 52 cd 85 3e 2a 27 ab 3e 2d db 45 3e d0 34 5f be
       0.2613321 0.33428317 0.1932189 -0.2179749
000330 97 66 18 be 0e de 52 be da 9c e5 bd 35 54 08 be
       -0.14882885 -0.2059252 -0.11211558 -0.13313372
000340 d1 2e 5c be 85 67 dd bc 36 f0 c7 3e 94 40 84 be
       -0.21502234 -0.027026901 0.39050454 -0.2583052
000350 20 d6 9f 3e 6e dd c6 bb 8e dd 6c 3e 28 2c 5b be
       0.31218052 -0.006068877 0.23131391 -0.21403563
000360 6f 10 27 be a1 e5 46 3e 8a 6b 0f bf 84 1d c7 3e
       -0.16314863 0.19423534 -0.56023467 0.38889706
000370 2d 07 8c be 7d eb 31 be 74 c9 d2 be 19 ad 28 be
       -0.27349225 -0.17374988 -0.41169322 -0.16472282
000380 7d 6a 15 3e 43 6c e3 3e 6c f5 fa be d3 8a ac bd
       0.14591403 0.44418535 -0.49015367 -0.08424916
000390 cd b2 80 3e c3 73 a0 be 18 5d 26 3e 0b 8c 2b be
       0.25136414 -0.3133832 0.1624645 -0.16752641
0003a0 dd e7 a1 be e0 2c bd 3d 36 2c 96 3e e8 d5 71 bd
       -0.3162221 0.09237075 0.29330605 -0.059041888
0003b0 03 3b 85 bd ac 56 99 bc 3d 36 91 be da d6 c6 3d
       -0.06505396 -0.018718086 -0.28361693 0.097089484
0003c0 23 02 1f 3e 92 cb 4c 3e 11 04 85 be d6 6f 3a 3e
       0.15528159 0.19999531 -0.25979665 0.18206725
0003d0 58 06 55 be 9b 80 88 3e 2d ff 45 be 28 17 1e 3d
       -0.20803201 0.26660618 -0.19335623 0.038596302
0003e0 27 72 21 3d b3 dc 16 3f 57 7b 9f 3d 24 0e e5 3e
       0.039415505 0.5893051 0.07787197 0.4473735
0003f0 d6 9c d0 3d 92 27 fa be b5 83 30 3e 06 fc f0 3c
       0.10186164 -0.48858315 0.17237742 0.02941705
