models/MADDPG/MADDPG_trained_agent.pt (torch, 340118 bytes, 160 tensors)

current_noise f4 [8, 3]
-0.0122018345 -0.014331179 0.08176927 0.0070180194 0.0010183037 0.06009542 -0.039786987 0.060087424
-0.16223043 -0.040941887 0.03222745 -0.007896536 -0.05803503 0.023645692 0.010887969 0.03459633
0.017668422 -0.012702351 -0.059809133 -0.113337 -0.025256505 0.036956258 -0.06850449 -0.07188134
00000000: 34ea 47bc 52cd 6abc a676 a73d 6af7 e53b
00000010: 9a78 853a 9d26 763d aef7 22bd 3b1e 763d
00000020: bc1f 26be aeb2 27bd ee00 043d 7960 01bc
00000030: 24b6 6dbd 9cb4 c13c 7463 323c e2b4 0d3d
00000040: 5ebd 903c 861d 50bc 6cfa 74bd 3b1d e8bd
00000050: bbe6 cebc 725f 173d 154c 8cbd 8636 93bd

current_noise f4 [8, 5]
0.011067614 0.04790359 0.052797616 0.0049411384 -0.023747493 0.060530547 0.03327237 0.054594055
0.013422944 0.0702312 0.031569302 0.019795744 0.06349238 -0.067166865 0.06340653 0.09356151
0.020209435 0.011826534 -0.013158002 -0.012558853 -0.06085316 0.0034704162 -0.03777705 -0.024547402
-0.011586989 0.02026828 -0.03672082 -0.0167327 0.07490651 -0.041497603 0.053559616 -0.0010154042
-0.08648805 -0.06169014 0.012053415 -0.011913453 -0.00317322 0.018848667 -0.072107725 0.0034387363
00000000: f054 353c 8e36 443d 5042 583d 46e9 a13b
00000010: 1a8a c2bc e1ee 773d 9c48 083d 049e 5f3d
00000020: e8eb 5b3c 60d5 8f3d d04e 013d af2a a23c
00000030: 4b08 823d c88e 89bd 48db 813d 2d9d bf3d
00000040: 428e a53c 14c4 413c a994 57bc a6c3 4dbc
00000050: 2a41 79bd ec6f 633b 1cbc 1abd a217 c9bc
00000060: 5bd7 3dbc aa09 a63c 9268 16bd 0413 89bc
00000070: 9668 993d 64f9 29bd 5461 5b3d 5017 85ba
00000080: a620 b1bd cdae 7cbd b07b 453c a530 43bc
00000090: ccf5 4fbb 8568 9a3c 37ad 93bd 6c5c 613b

expl_noise f4 [8, 3]
0.1 0.1 0.1 0.1 0.1 0.1 0.1 0.1
0.1 0.1 0.1 0.1 0.1 0.1 0.1 0.1
0.1 0.1 0.1 0.1 0.1 0.1 0.1 0.1
00000000: cdcc cc3d cdcc cc3d cdcc cc3d cdcc cc3d
00000010: cdcc cc3d cdcc cc3d cdcc cc3d cdcc cc3d
00000020: cdcc cc3d cdcc cc3d cdcc cc3d cdcc cc3d
00000030: cdcc cc3d cdcc cc3d cdcc cc3d cdcc cc3d
00000040: cdcc cc3d cdcc cc3d cdcc cc3d cdcc cc3d
00000050: cdcc cc3d cdcc cc3d cdcc cc3d cdcc cc3d

expl_noise f4 [8, 5]
0.1 0.1 0.1 0.1 0.1 0.1 0.1 0.1
0.1 0.1 0.1 0.1 0.1 0.1 0.1 0.1
0.1 0.1 0.1 0.1 0.1 0.1 0.1 0.1
0.1 0.1 0.1 0.1 0.1 0.1 0.1 0.1
0.1 0.1 0.1 0.1 0.1 0.1 0.1 0.1
00000000: cdcc cc3d cdcc cc3d cdcc cc3d cdcc cc3d
00000010: cdcc cc3d cdcc cc3d cdcc cc3d cdcc cc3d
00000020: cdcc cc3d cdcc cc3d cdcc cc3d cdcc cc3d
00000030: cdcc cc3d cdcc cc3d cdcc cc3d cdcc cc3d
00000040: cdcc cc3d cdcc cc3d cdcc cc3d cdcc cc3d
00000050: cdcc cc3d cdcc cc3d cdcc cc3d cdcc cc3d
00000060: cdcc cc3d cdcc cc3d cdcc cc3d cdcc cc3d
00000070: cdcc cc3d cdcc cc3d cdcc cc3d cdcc cc3d
00000080: cdcc cc3d cdcc cc3d cdcc cc3d cdcc cc3d
00000090: cdcc cc3d cdcc cc3d cdcc cc3d cdcc cc3d

mean_noise f4 [8, 3]
0.0 0.0 0.0 0.0 0.0 0.0 0.0 0.0
0.0 0.0 0.0 0.0 0.0 0.0 0.0 0.0
0.0 0.0 0.0 0.0 0.0 0.0 0.0 0.0
00000000: 0000 0000 0000 0000 0000 0000 0000 0000
00000010: 0000 0000 0000 0000 0000 0000 0000 0000
00000020: 0000 0000 0000 0000 0000 0000 0000 0000
00000030: 0000 0000 0000 0000 0000 0000 0000 0000
00000040: 0000 0000 0000 0000 0000 0000 0000 0000
00000050: 0000 0000 0000 0000 0000 0000 0000 0000

mean_noise f4 [8, 5]
0.0 0.0 0.0 0.0 0.0 0.0 0.0 0.0
0.0 0.0 0.0 0.0 0.0 0.0 0.0 0.0
0.0 0.0 0.0 0.0 0.0 0.0 0.0 0.0
0.0 0.0 0.0 0.0 0.0 0.0 0.0 0.0
0.0 0.0 0.0 0.0 0.0 0.0 0.0 0.0
00000000: 0000 0000 0000 0000 0000 0000 0000 0000
00000010: 0000 0000 0000 0000 0000 0000 0000 0000
00000020: 0000 0000 0000 0000 0000 0000 0000 0000
00000030: 0000 0000 0000 0000 0000 0000 0000 0000
00000040: 0000 0000 0000 0000 0000 0000 0000 0000
00000050: 0000 0000 0000 0000 0000 0000 0000 0000
00000060: 0000 0000 0000 0000 0000 0000 0000 0000
00000070: 0000 0000 0000 0000 0000 0000 0000 0000
00000080: 0000 0000 0000 0000 0000 0000 0000 0000
00000090: 0000 0000 0000 0000 0000 0000 0000 0000

sample_gaussian f4 [8, 3]
0.07748348 0.64292437 -1.2265543 1.3648584 -0.31934702 -0.42098874 -0.22661933 0.64556867
-1.3499384 1.0833551 -0.33347413 -0.41459048 -0.30823725 -0.5871905 1.2615652 0.4238842
0.92245495 -0.47828996 -0.6949054 -0.39182842 0.5056338 0.9587462 0.19008102 0.9548898
00000000: a9af 9e3d b196 243f bbff 9cbf aeb3 ae3f
00000010: 7481 a3be d68b d7be e60e 68be fd43 253f
00000020: c8ca acbf 61ab 8a3f 1fbd aabe 3445 d4be
00000030: 46d1 9dbe 1e52 16bf f87a a13f 5a07 d93e
00000040: 0226 6c3f 6ce2 f4be 52e5 31bf bc9d c8be
00000050: 3771 013f 6470 753f 99a4 423e a873 743f

sample_gaussian f4 [8, 5]
-0.050487228 -0.83604115 0.034824695 -0.48486513 -0.6444731 0.20010088 0.66533536 0.11971292
2.1922843 -0.9094294 0.15049721 0.7223442 -1.1982788 -0.67275465 -0.6023883 -0.12335716
1.0899763 0.78547937 -1.8825787 -0.38752443 -1.6207907 1.5532861 0.26246068 1.1594853
0.00888452 1.0290061 1.0391754 -0.70057833 -0.5926843 0.27691457 1.5814588 0.5277887
0.160353 -1.4948881 -0.6610848 -0.33021513 -0.21620192 -0.072215505 -0.717997 0.25253734
00000000: b2cb 4ebd cb06 56bf 57a4 0e3d 3e40 f8be
00000010: 30fc 24bf 3fe7 4c3e 6b53 2a3f 0c2c f53d
00000020: 634e 0c40 5dd0 68bf f11b 1a3e 8deb 383f
00000030: 3361 99bf a639 2cbf 1f36 1abf aea2 fcbd
00000040: 5884 8b3f 2d15 493f 57f8 f0bf 9a69 c6be
00000050: 1276 cfbf 14d2 c63f 3f61 863e 046a 943f
00000060: 6190 113c 79b6 833f b303 853f 1a59 33bf
00000070: 29ba 17bf bfc7 8d3e 3e6d ca3f 291d 073f
00000080: 9433 243e 7e58 bfbf da3c 29bf f511 a9be
00000090: 0964 5dbe b9e5 93bd a7ce 37bf 934c 813e

feature_net.linear_layer_0.weight f4 [96, 3]
0.0939385 0.58193547 -0.20102032 -0.46464413 -0.02166938 0.159029 0.20544949 -0.031138081
0.16680966 -0.33621988 0.11173613 -0.15619351 0.27022997 -0.366159 -0.17741671 -0.21266459
0.19937079 -0.46779522 -0.3579172 -0.17645179 0.0070410343 0.14869182 0.39461648 0.10598059
-0.028368022 -0.04566253 0.50600684 -0.054257378 0.28436768 0.22803816 0.09383786 0.23394409
-0.12388392 0.30046067 0.15931617 0.032225657 -0.18487266 0.06984053 -0.14772363 0.26128832
0.07843303 0.091618516 0.014431455 0.49471363 0.16760625 0.13581747 -0.06189591 0.30930027
0.18109156 -0.06990679 0.35766482 -0.39384308 0.52075994 0.16617498 -0.14594878 0.2578825
0.5213254 -0.22984858 0.23731567 0.027183872 -0.34839037 -0.059208058 -0.15260339 0.28629965
0.19049002 0.13987978 0.13347524 0.054042984 -0.38604164 -0.01049855 -0.06859675 -0.22335556
0.097997606 0.32179812 -0.151046 -0.4323821 0.18626036 0.18650831 -0.21985465 -0.19962215
-0.40939677 -0.043939594 0.20975173 -0.20024934 -0.19472699 -0.20135295 -0.10263345 -0.016918337
-0.24257256 0.048279583 0.16867845 0.13793546 -0.2937796 0.4793117 0.30430776 -0.31195256
0.113782145 -0.2386015 -0.056131262 0.39960954 -0.12893215 0.094709165 -0.13942917 0.13362727
-0.1806723 0.060058992 0.18055835 0.061828945 -0.026957167 0.01505026 0.045104872 0.019015044
-0.32508773 -0.1186804 0.035014205 -0.0038745506 0.028872872 0.0626706 0.04295361 -0.1611566
0.04231985 -0.09561148 -0.018128112 -0.01133058 0.064771555 0.15681712 0.10195498 0.030025909
0.048911806 0.0028775882 0.2758301 0.02252368 0.033719085 0.14321415 0.096286684 0.029135983
0.13890013 -0.020127134 0.09651348 -0.14814138 -0.04692318 0.08193315 0.08482844 -0.14132613
0.17880036 -0.07043754 0.0030753855 0.08540199 0.14004897 -0.030949095 0.03371291 -0.061930962
-0.033851046 0.123499274 0.09515179 -0.006987982 -0.0016605301 -0.17218144 0.07128846 0.013499817
-0.15501723 -0.07019573 0.23056519 -0.1091706 -0.09356079 -0.39820182 -0.23090528 0.18646258
0.06612329 0.121872164 0.081126206 -0.27423286 -0.12726003 -0.05819438 -0.20524357 -0.12809974
-0.22107545 -0.17417596 0.11742252 -0.2676182 0.12476808 0.007022704 0.21170291 0.0882496
0.009760698 -0.14812213 -0.05623336 0.20310469 -0.10667361 -0.18746197 -0.088640824 0.09794191
-0.24408387 -0.041434426 -0.08375238 -0.054309968 -0.017069658 0.14461075 -0.07322219 0.055790987
0.3270413 0.10421738 0.11046012 -0.0034364737 -0.019883433 -0.0050583575 0.031906772 0.04351618
-0.026048332 -0.06574112 -0.028929444 0.026224634 -0.35843086 0.04829203 0.08709844 0.060727816
0.13394712 -0.17191716 -0.24634641 0.109381184 0.0012585222 -0.08058803 0.18669096 0.27978638
-0.095244735 -0.02367102 0.2630002 0.23683415 0.07936078 -0.040055856 -0.016590789 0.04022927
-0.009158264 -0.030863756 -0.031813335 0.22823873 -0.34671393 -0.03730601 -0.041757636 -0.063186474
-0.19254172 0.06368521 -0.24869795 0.17056099 -0.10274428 0.24887142 -0.14361262 -0.14184275
-0.09947877 -0.33829904 -0.025123913 -0.1144879 0.0064659785 -0.19259112 -0.17439021 0.024240963
00000000: d462 c03d b9f9 143f 45d8 4dbe d6e5 edbe
00000010: fc83 b1bc 80d8 223e 5a61 523e 4a15 ffbc
00000020: 27d0 2a3e 0325 acbe ead5 e43d 31f1 1fbe
00000030: 955b 8a3e 3179 bbbe baac 35be bfc4 59be
00000040: db27 4c3e db82 efbe ec40 b7be c7af 34be
00000050: 7ab8 e63b ab42 183e 2c0b ca3e 5a0c d93d
00000060: 0e64 e8bc a208 3bbd aa89 013f fc3c 5ebd
00000070: a498 913e d682 693e 102e c03d 0a8f 6f3e
00000080: dab6 fdbd fbd5 993e c723 233e 0dff 033d
00000090: 424f 3dbe 8d08 8f3d dd44 17be 95c7 853e
000000a0: 7fa1 a03d 7da2 bb3d e971 6c3c 1b4b fd3e
000000b0: f9a0 2b3e bc13 0b3e 9186 7dbd 9b5c 9e3e
000000c0: 1170 393e 4b2b 8fbd d81f b73e cda5 c9be
000000d0: 8650 053f c629 2a3e 9973 15be 2d09 843e
000000e0: 9575 053f 6d5d 6bbe e102 733e b6b0 de3c
000000f0: 3960 b2be 2684 72bd 1044 1cbe de95 923e
00000100: d10f 433e a53c 0f3e bcad 083e 2d5c 5d3d
00000110: 40a7 c5be 1c02 2cbc 747c 8cbd 52b7 64be
00000120: f8b2 c83d b9c2 a43e cdab 1abe 3061 ddbe
00000130: 09bb 3e3e 09fc 3e3e 9421 61be c069 4cbe
00000140: 749c d1be 01fa 33bd 28c9 563e 2a0e 4dbe
00000150: 8366 47be 782f 4ebe 7c31 d2bd 5398 8abc
00000160: f164 78be d0c0 453d 0bba 2c3e f43e 0d3e
00000170: 486a 96be 5868 f53e 3ace 9b3e 3fb8 9fbe
00000180: 9d06 e93d f453 74be e5e9 65bd 9f99 cc3e
00000190: ca06 04be e1f6 c13d 85c6 0ebe 96d5 083e
000001a0: 2902 39be 6b00 763d 4ae4 383e 5940 7d3d
000001b0: 47d5 dcbc 5e95 763c e3bf 383d 70c5 9b3c
000001c0: e671 a6be b60e f3bd 0e6b 0f3d 2cec 7dbb
000001d0: cd86 ec3c 7259 803d 20f0 2f3d 3c06 25be
000001e0: 9457 2d3d f4cf c3bd 6881 94bc e6a3 39bc
000001f0: f3a6 843d ab94 203e c6cd d03d e5f8 f53c
00000200: bf57 483d eb95 3c3b 9a39 8d3e 9583 b83c
00000210: 061d 0a3d bba6 123e f431 c53d 96ae ee3c
00000220: d63b 0e3e a9e1 a4bc dca8 c53d 60b2 17be
00000230: 8532 40bd 91cc a73d 88ba ad3d ccb7 10be
00000240: 7117 373e 8f41 90bd 688c 493b 3de7 ae3d
00000250: ff68 0f3e f588 fdbc 8c16 0a3d 52ab 7dbd
00000260: 65a7 0abd 30ed fc3d f1de c23d 71fb e4bb
00000270: 25a6 d9ba 5550 30be afff 913d 562e 5d3c
00000280: d6bc 1ebe c7c2 8fbd 4819 6c3e d694 dfbd
00000290: cd9c bfbd 1ce1 cbbe 6f72 6cbe 0cf0 3e3e
000002a0: a66b 873d 1d98 f93d 7f25 a63d 4068 8cbe
000002b0: 7450 02be 3b5d 6ebd 5f2b 52be 942c 03be
000002c0: 9a61 62be 2f5b 32be 387b f03d 4105 89be
000002d0: 6886 ff3d b61e e63b a6c8 583e 35bc b43d
000002e0: 56eb 1f3c 54ad 17be f454 66bd adfa 4f3e
000002f0: b277 dabd 08f6 3fbe 5289 b5bd c595 c83d
00000300: 1ff1 79be 25b7 29bd 5e86 abbd 2174 5ebd
00000310: abd5 8bbc d714 143e 84f5 95bd 1785 643d
00000320: f571 a73e ec6f d53d ea38 e23d 7636 61bb
00000330: 95e2 a2bc 94c0 a5bb adb0 023d 063e 323d
00000340: 5063 d5bc 48a3 86bd 71fd ecbc 0bd5 d63c
00000350: 4084 b7be ddcd 453d ab60 b23d bbbd 783d
00000360: 6f29 093e 0d0b 30be 3c42 7cbe 3e03 e03d
00000370: fff4 a43a 560b a5bd ea2b 3f3e 2940 8f3e
00000380: ac0f c3bd bae9 c1bc f6a7 863e a784 723e
00000390: e887 a23d 9c11 24bd 68e9 87bc 72c7 243d
000003a0: 8b0c 16bc fdd5 fcbc b34e 02bd 6ab7 693e
000003b0: 7d84 b1be 30ce 18bd 0e0a 2bbd e967 81bd
000003c0: a829 45be 646d 823d adaa 7ebe 8aa7 2e3e
000003d0: 986b d2bd 26d8 7e3e 300f 13be 3a3f 11be
000003e0: 86bb cbbd 8835 adbe aad0 cdbc a278 eabd
000003f0: 8fe0 d33b 9b36 45be 5993 32be fc94 c63c

feature_net.linear_layer_0.bias f4 [96]
-0.008183132 -0.037363224 0.06377729 0.024844293 -0.0015287892 0.006299997 0.031938955 0.030441537
-0.009473574 -0.022901539 0.026425827 -0.005034077 0.0271741 0.057419058 -0.06065857 -0.047474988
0.0061200913 0.06866701 0.03279023 -0.05158094 0.029742666 -0.0071581695 -0.042469688 0.038300052
0.033078514 -0.045000497 0.010567296 0.050747406 0.032601498 -0.00414963 -0.03734561 -0.055596948
0.03301648 0.021189477 -0.015369437 0.009194331 0.014850626 0.013667725 0.016736688 0.010184175
0.015396284 0.011749826 0.012470994 -0.015075137 -0.0035381557 0.001161977 0.014624446 -0.008679513
0.0029132282 -0.008144662 0.011070299 -0.00050737103 0.03501076 0.01327831 0.016131548 -0.004240893
0.007763101 0.012867612 0.012065455 0.003338423 -0.015465319 0.014259785 0.0038879965 0.024649007
0.012438399 -0.015556238 0.0021690351 -0.009716839 0.02474413 -0.0128691215 0.010924325 0.018130727
-0.020189306 -0.023947386 0.006078131 -0.012966736 0.033335216 -0.01719613 0.03338251 0.012819975
0.011166064 0.024297172 0.012874857 0.012071438 0.01286287 -0.0086922655 -0.032293044 -0.014643761
-0.025568744 0.013239089 0.01253735 0.011200253 -0.020154577 -0.0060285316 0.02161016 0.012897313
00000000: 8b12 06bc 2e0a 19bd ab9d 823d 4286 cb3c
00000010: a761 c8ba 3570 ce3b 6cd2 023d 8860 f93c
00000020: 0d37 1bbc 029c bbbc fa7a d83c e6f4 a4bb
00000030: 389c de3c 3f30 6b3d 1f75 78bd 2275 42bd
00000040: 0c8b c83b 4aa1 8c3d 0c4f 063d 8946 53bd
00000050: e4a6 f33c 148f eabb b2f4 2dbd 84e0 1c3d
00000060: 567d 073d 7152 38bd 7422 2d3c 83dc 4f3d
00000070: 2689 053d 9ff9 87bb b6f7 18bd a0b9 63bd
00000080: 4a3c 073d 8e95 ad3c 17d0 7bbc d2a3 163c
00000090: 0a50 733c 98ee 5f3c 611b 893c 87db 263c
000000a0: b240 7c3c 5882 403c 2453 4c3c b5fd 76bc
000000b0: 67e0 67bb 7a4d 983a 5f9b 6f3c 8434 0ebc
000000c0: dceb 3e3b 3071 05bc 3360 353c 1801 05ba
000000d0: 7167 0f3d 458d 593c 4f26 843c 30f7 8abb
000000e0: 9c61 fe3b add2 523c 30ae 453c 72c9 5a3b
000000f0: 4062 7dbc e0a1 693c c2cd 7e3b b7ec c93c
00000100: 6dca 4b3c 97df 7ebc 5f26 0e3b 6033 1fbc
00000110: 34b4 ca3c 02d9 52bc f1fb 323c e486 943c
00000120: 0b64 a5bc 4f2d c4bc 0f2b c73b 6f72 54bc
00000130: 828a 083d e6de 8cbc 19bc 083d df0a 523c
00000140: def1 363c dd0a c73c 10f1 523c 48c7 453c
00000150: c9be 523c 016a 0ebc b645 04bd 63ec 6fbc
00000160: 8b75 d1bc c4e8 583c 7569 4d3c 4481 373c
00000170: 361b a5bc fd8a c5bb ca07 b13c 404f 533c

feature_net.layer_norm_0.weight f4 [96]
1.0010915 0.9878116 1.019451 0.992552 1.0021248 0.9826816 1.0 1.003007
1.0109943 1.0239216 1.0138478 1.0030148 1.0035946 1.0026311 0.99314606 1.0037524
1.0113838 1.0057263 0.97997004 0.96396214 1.0 1.0064094 0.9847461 1.0
1.022627 0.9703356 1.0 1.0132585 1.0 0.9820905 1.0019709 1.0017235
1.0394084 1.0192865 0.98445743 1.0142475 1.0150987 1.0 1.0344342 1.0322044
1.0091503 0.97519064 1.0169082 0.97674507 1.002484 1.00316 1.0051819 0.99503756
1.0057038 0.98345095 0.99748266 1.0031245 1.032467 1.0 1.0085968 0.9921559
1.0069469 1.0 1.0 0.99864465 0.9949356 1.0081606 0.9981576 1.0236038
1.0 0.98402137 1.0044137 0.9823141 1.0343765 0.9796088 1.0 1.0161057
0.974896 0.9764805 1.007153 0.9733963 1.021685 0.984521 1.0341059 1.0
1.0 1.0246688 1.0 1.0 1.0 0.97000074 0.96945673 0.98668283
0.97159183 1.0 1.0 1.0090206 0.98363006 0.98966426 1.0252974 1.0
00000000: c423 803f 39e1 7c3f 5f7d 823f e317 7e3f
00000010: a045 803f 0591 7b3f 0000 803f 8962 803f
00000020: 4368 813f dd0f 833f c4c5 813f ca62 803f
00000030: ca75 803f 3756 803f d23e 7e3f f57a 803f
00000040: 0675 813f a4bb 803f 51df 7a3f 39c6 763f
00000050: 0000 803f 06d2 803f 5218 7c3f 0000 803f
00000060: 71e5 823f ea67 783f 0000 803f 74b2 813f
00000070: 0000 803f 486a 7b3f 9540 803f 7a38 803f
00000080: 560b 853f fb77 823f 6705 7c3f ddd2 813f
00000090: c1ee 813f 0000 803f 5768 843f 461f 843f
000000a0: d62b 813f 18a6 793f 0c2a 823f f70b 7a3f
000000b0: 6551 803f 8c67 803f cda9 803f c8ba 7e3f
000000c0: e7ba 803f 71c3 7b3f 065b 7f3f 6266 803f
000000d0: e127 843f 0000 803f b319 813f eefd 7d3f
000000e0: a3e3 803f 0000 803f 0000 803f 2da7 7f3f
000000f0: 19b4 7e3f 680b 813f 4287 7f3f 7305 833f
00000100: 0000 803f d3e8 7b3f a190 803f f078 7b3f
00000110: 7366 843f a4c7 7a3f 0000 803f c00f 823f
00000120: c992 793f a0fa 793f 64ea 803f 8030 793f
00000130: 93c6 823f 9109 7c3f 955d 843f 0000 803f
00000140: 0000 803f 5928 833f 0000 803f 0000 803f
00000150: 0000 803f f851 783f 512e 783f 3f97 7c3f
00000160: 3eba 783f 0000 803f 0000 803f 9627 813f
00000170: 2ecf 7b3f a35a 7d3f f23c 833f 0000 803f

feature_net.layer_norm_0.bias f4 [96]
0.021664636 -0.013911045 0.009204559 -0.009360559 0.0023293723 -0.018010918 0.0 0.0019556084
-0.0054527544 0.0064665466 0.013326592 -0.0051600407 -0.0047062156 0.0052976906 -0.008005475 -0.002577926
0.0110134985 0.006304171 -0.01790607 -0.023085903 0.0 -0.00029810393 -0.01695297 0.0
0.012413891 -0.028881727 0.0 0.0031301298 0.0 -0.019945702 -0.0020129795 0.0058246627
0.034963563 0.02055851 -0.01931779 0.010737307 0.010374526 0.0 0.015055816 0.008175124
0.010939012 0.0070394003 0.003895266 -0.01646414 -0.0022706552 -0.0030748204 0.006150598 -0.012173244
-0.0011128696 -0.007946885 9.696893e-05 -0.00082398625 0.027821442 0.0 0.008934294 -0.0049221665
0.008064378 0.0 0.0 -0.0055348924 -0.015023213 0.0089053735 -0.0017240936 0.024232572
0.0 -0.015269716 0.0018480619 -0.009644466 0.020064047 -0.019392656 0.0 0.018887961
-0.027744036 -0.024298692 0.0059534954 -0.014375548 0.028195962 -0.02205974 0.028708542 0.0
0.0 0.02309958 0.0 0.0 0.0 -0.012248511 -0.031365722 -0.0145149315
-0.02522401 0.0 0.0 0.0099588055 -0.01993368 -0.006214873 0.020340761 0.0
00000000: 097a b13c 27eb 63bc b8ce 163c 085d 19bc
00000010: 62a8 183b a28b 93bc 0000 0000 aa29 003b
00000020: 05ad b2bb 53e5 d33b c757 5a3c 8f15 a9bb
00000030: 9936 9abb 4098 ad3b 6529 03bc 6cf2 28bb
00000040: f671 343c 3893 ce3b c0af 92bc a61e bdbc
00000050: 0000 0000 d54a 9cb9 f4e0 8abc 0000 0000
00000060: a263 4b3c 5f99 ecbc 0000 0000 dd22 4d3b
00000070: 0000 0000 2b65 a3bc 31ec 03bb d0dc be3b
00000080: f435 0f3d 526a a83c 5840 9ebc 88eb 2f3c
00000090: eaf9 293c 0000 0000 abac 763c f5f0 053c
000000a0: 8b39 333c c5aa e63b b847 7f3b cedf 86bc
000000b0: 46cf 14bb ed82 49bb f58a c93b 4972 47bc
000000c0: b5dd 91ba a733 02bc cc5b cb38 c800 58ba
000000d0: cbe9 e33c 0000 0000 2561 123c 204a a1bb
000000e0: 7420 043c 0000 0000 0000 0000 0b5e b5bb
000000f0: ec23 76bc d8e7 113c fbfa e1ba 6383 c63c
00000100: 0000 0000 d52d 7abc ab3a f23a d303 1ebc
00000110: 5b5d a43c 59dd 9ebc 0000 0000 edba 9a3c
00000120: 7647 e3bc 0d0e c7bc 8a15 c33b 6b87 6bbc
00000130: 38fb e63c a1b6 b4bc 2d2e eb3c 0000 0000
00000140: 0000 0000 553b bd3c 0000 0000 0000 0000
00000150: 0000 0000 fbad 48bc 5879 00bd 09d0 6dbc
00000160: 95a2 cebc 0000 0000 0000 0000 422a 233c
00000170: f54b a3bc 22a6 cbbb aba1 a63c 0000 0000

feature_net.linear_layer_1.weight f4 [32, 96]
0.019659858 0.053786308 0.15470135 -0.42784923 -0.074275434 0.033292048 -0.26469648 0.21447004
0.26639837 0.2110676 -0.31654117 0.084966734 0.4575764 0.36403045 -0.17165214 0.058988012
0.046396386 -0.303724 -0.47988465 0.50769216 -0.006043042 0.11643594 -0.04588041 0.05115074
0.046327733 0.10358021 0.45387417 0.38591158 0.16834441 -0.18772006 0.30475035 0.21122023
0.15401387 -0.029206913 0.13922079 0.058981393 0.18433115 -0.16878794 0.15615018 0.09569924
-0.14567432 0.15690617 0.020383805 -0.26920953 0.19539703 0.13286586 -0.024279341 0.035005376
-0.020734182 -0.10277114 0.043926183 0.20973243 0.15757214 -0.08189755 0.030799393 0.06813851
-0.018553449 0.12510997 -0.0445141 0.24580026 0.33296868 0.110495985 -0.1430285 -0.044729818
-0.09933677 0.21940997 0.18420674 0.0014212411 0.12447548 0.16597982 0.10405045 0.06884837
0.024936916 -0.0115964655 -0.042833094 0.073863275 0.26449537 0.13020997 -0.18362115 -0.038011495
0.04904785 0.08391071 -0.030118918 -0.10129105 -0.0045695147 0.09096945 0.062327467 -0.17157137
-0.062081113 0.069396324 -0.08240758 0.060892448 -0.26611084 0.07151554 -0.44065216 -0.24895376
0.058174767 0.5632321 0.10461927 0.15503743 -0.47820097 -1.6667975 -0.009696507 0.3995301
0.3772389 -0.40458542 0.07964694 -0.18446077 0.17901924 0.022558415 -0.16086042 -0.11702181
-0.1419639 -0.07322753 0.23032331 -0.1313706 -0.5696386 0.72577995 0.104453996 -0.14875413
0.17490683 0.15852559 -0.19335139 0.1572579 -0.08187873 -0.028345307 -0.22159569 -0.11269759
0.03788049 0.04706013 -0.057166163 0.019901136 -0.099322 0.0036898647 -0.24376573 -0.04729048
-0.29053184 0.0021551652 -0.1462795 0.33508372 0.16101605 -0.23008724 0.022166055 0.32425895
0.06831855 -0.0003790009 -0.121675394 0.2722598 0.06484422 -0.10726035 0.06751333 -0.25802156
0.028926747 -0.12755394 0.16172186 -0.094095096 0.07167804 -0.25973445 0.054378208 -0.07136759
0.007673785 0.0912721 0.14248498 -0.20169093 -0.08790357 0.07248048 -0.035066668 -0.18026543
0.13967824 0.04610913 0.15900864 0.1533378 0.18550093 0.13668382 -0.098894626 0.06034633
0.08793623 -0.21008861 -0.018708393 0.063887656 -0.30609456 -0.075049885 0.19201826 0.124182634
-0.17823166 0.17742363 -0.11925121 -0.122427195 0.07523367 0.019880228 0.14449717 0.066400535
0.13533741 0.11137241 0.21880484 -0.34101406 0.62483954 -0.23106904 -0.076154515 -0.25802222
0.28316334 -0.11572682 -0.067310646 -0.18281725 0.09053289 0.62848645 0.12081992 0.36082578
0.059604272 0.24476045 0.49016225 -0.045240257 0.17007759 -0.16611561 -0.1530046 -0.2218632
0.9230106 0.06266942 -0.48969844 0.19447075 0.03654967 0.067725204 0.11314469 0.7280318
0.09511268 -0.31323135 0.07485215 0.02104584 0.10895722 0.03374243 -0.061223116 -0.18008237
-0.0130355125 0.07880964 -0.026503203 -0.29076877 -0.10093287 0.20854838 0.18865131 -0.23525143
-0.071967214 0.060820844 -0.1672336 -0.0014207738 -0.0045111254 -0.12894216 -0.18298346 -0.13153082
-0.025641086 -0.061872642 -0.11360654 -0.05911459 0.13596605 -0.25524452 0.025319124 -0.08061916
00000000: b60d a13c 084f 5c3d 086a 1e3e 0e0f dbbe
00000010: b81d 98bd 3e5d 083d 4c86 87be 099e 5b3e
00000020: 5e65 883e 1b22 583e af11 a2be 0a03 ae3d
00000030: 7447 ea3e 3362 ba3e 94c5 2fbe 6a9d 713d
00000040: 230a 3e3d b681 9bbe 71b3 f5be 1df8 013f
00000050: b604 c6bb f775 ee3d 19ed 3bbd 7083 513d
00000060: 26c2 3d3d dc21 d43d 3262 e83e 3496 c53e
00000070: 7a62 2c3e b039 40be 3d08 9c3e 1e4a 583e
00000080: d0b5 1d3e 5643 efbc e58f 0e3e 7996 713d
00000090: 4ec1 3c3e bfd6 2cbe d5e5 1f3e f7fd c33d
000000a0: a62b 15be 03ac 203e f0fb a63c d5d5 89be
000000b0: 2916 483e fd0d 083e 78e5 c6bc cc61 0f3d
000000c0: bbda a9bc ad79 d2bd f1eb 333d 19c4 563e
000000d0: 975a 213e e7b9 a7bd 024f fc3c 348c 8b3d
000000e0: 67fd 97bc d41c 003e 6b54 36bd 10b3 7b3e
000000f0: df7a aa3e b84b e23d 1076 12be 9d36 37bd
00000100: 1471 cbbd 02ad 603e b1a0 3c3e f048 ba3a
00000110: 00ed fe3d 9df6 293e 6718 d53d 6000 8d3d
00000120: 8148 cc3c 1aff 3dbc c171 2fbd a145 973d
00000130: f06b 873e c355 053e 2f07 3cbe f1b1 1bbd
00000140: 66e6 483d 61d9 ab3d f3bb f6bc af71 cfbd
00000150: debb 95bb 314e ba3d 164b 7f3d 68b0 2fbe
00000160: c448 7ebd a91f 8e3d 4ec5 a8bd 5c6a 793d
00000170: ae3f 88be bd76 923d 299d e1be bced 7ebe
00000180: aa48 6e3d fb2f 103f a142 d63d 22c2 1e3e
00000190: c2d6 f4be 9f59 d5bf 19de 1ebc 368f cc3e
000001a0: 7525 c13e d225 cfbe ef1d a33d 49e3 3cbe
000001b0: d250 373e 6dcc b83c 98b8 24be 21a9 efbd
000001c0: fc5e 11be 51f8 95bd e0d9 6b3e 0486 06be
000001d0: d6d3 11bf b7cc 393f faeb d53d 0153 18be
000001e0: c71a 333e 8854 223e e8fd 45be 3708 213e
000001f0: 09b0 a7bd 6b34 e8bc fbe9 62be fecd e6bd
00000200: 9328 1b3d 1fc2 403d 1127 6abd b507 a33c
00000210: 5569 cbbd a8d1 713b b99d 79be aab3 41bd
00000220: 97c0 94be ac3d 0d3b 4bca 15be 1890 ab3e
00000230: 64e1 243e fd9b 6bbe 9695 b53c 4505 a63e
00000240: 99ea 8b3d a4b4 c6b9 f330 f9bd a365 8b3e
00000250: 0ccd 843d 50ab dbbd 6e44 8a3d 671b 84be
00000260: c9f7 ec3c 809d 02be 6a9a 253e eeb4 c0bd
00000270: f0cb 923d eafb 84be afbb 5e3d 2c29 92bd
00000280: 6074 fb3b deec ba3d 95e7 113e 1188 4ebe
00000290: c906 b4bd a570 943d 11a2 0fbd 8097 38be
000002a0: d007 0f3e eddc 3c3d 29d3 223e 9604 1d3e
000002b0: f5f3 3d3e d8f6 0b3e 4489 cabd b72d 773d
000002c0: e917 b43d 7821 57be 5842 99bc 88d7 823d
000002d0: 6db8 9cbe c1b3 99bd 6fa0 443e 7753 fe3d
000002e0: 5c82 36be 8aae 353e fa39 f4bd 1cbb fabd
000002f0: 1c14 9a3d dcdb a23c 11f7 133e 01fd 873d
00000300: e495 0a3e 3817 e43d 600e 603e 6599 aebe
00000310: 7cf5 1f3f 5d9d 6cbe e6f6 9bbd 7d1b 84be
00000320: c9fa 903e 2f02 edbd 2ada 89bd 7234 3bbe
00000330: 4f69 b93d 7de4 203f 6f70 f73d 28be b83e
00000340: 9c23 743d 7ca2 7a3e 8cf6 fa3e d94d 39bd
00000350: d228 2e3e 361a 2abe 3dad 1cbe 1b30 63be
00000360: 6c4a 6c3f d358 803d c1b9 fabe 5723 473e
00000370: 1bb5 153d 83b3 8a3d 67b8 e73d 4b60 3a3f
00000380: 70ca c23d dc5f a0be 164c 993d 5368 ac3c
00000390: f724 df3d 8135 0a3d 17c5 7abd 8367 38be
000003a0: e792 55bc f366 a13d 3f1d d9bc a5df 94be
000003b0: e4b5 cebd b58d 553e cf2d 413e c0e5 70be
000003c0: 8c63 93bd 471f 793d 493f 2bbe 4239 baba
000003d0: 10d2 93bb 6a09 04be 0460 3bbe 04b0 06be
000003e0: 410d d2bc 2b6e 7dbd 8caa e8bd 2422 72bd
000003f0: af3a 0b3e 69af 82be 0d6a cf3c a81b a5bd

feature_net.linear_layer_1.bias f4 [32]
0.06337771 -0.065837 0.04568707 -0.009490907 -0.0043555074 -0.022498595 0.0088008065 0.0346657
0.04519371 0.052192952 0.017530367 0.047059078 0.03567925 0.060881224 -0.0074746897 -0.032521147
0.04767264 0.02696012 -0.03138446 0.020644642 0.002331002 -0.0801147 -0.09263727 -0.077842414
-0.035650637 0.007344435 -0.03847406 0.06667124 0.024988288 -0.066682726 -0.057287816 0.06877167
00000000: 2ccc 813d 8dd5 86bd 5d22 3b3d c07f 1bbc
00000010: a5b8 8ebb f94e b8bc 4231 103c 9ffd 0d3d
00000020: 0a1d 393d 47c8 553d d89b 8f3c 05c1 403d
00000030: 6824 123d 975e 793d 3eee f4bb e534 05bd
00000040: 6344 433d 78db dc3c fe8c 00bd f41e a93c
00000050: b9c3 183b 2d13 a4bd 9cb8 bdbd d86b 9fbd
00000060: 6706 12bd 96a9 f03b fa96 1dbd ee8a 883d
00000070: 3db4 cc3c f490 88bd a1a6 6abd 29d8 8c3d

feature_net.layer_norm_1.weight f4 [32]
1.120999 1.1240503 1.1360972 1.1395997 1.1394966 1.1194967 1.1329424 1.1299206
1.1395768 1.1350402 1.0989003 1.1326869 1.0 1.1353235 1.1338613 1.0915749
1.1187224 1.0 1.1169482 1.0 1.0 0.9905009 1.0026507 0.99305695
0.990763 1.0 1.128549 1.136625 1.0 1.1020525 1.073627 1.0
00000000: e57c 8f3f e1e0 8f3f a26b 913f 67de 913f
00000010: 06db 913f ab4b 8f3f 4204 913f 3da1 903f
00000020: a7dd 913f ff48 913f c4a8 8c3f e2fb 903f
00000030: 0000 803f 4852 913f 5e22 913f bab8 8b3f
00000040: 4c32 8f3f 0000 803f 29f8 8e3f 0000 803f
00000050: 0000 803f 7891 7d3f dc56 803f fb38 7e3f
00000060: a5a2 7d3f 0000 803f 4b74 903f ee7c 913f
00000070: 0000 803f 0e10 8d3f 9c6c 893f 0000 803f

feature_net.layer_norm_1.bias f4 [32]
0.11756785 0.12644546 0.13580252 0.13962556 0.13857476 0.12760821 0.13162753 0.1294506
0.13998263 0.13659422 0.09589963 0.13225567 0.0 0.13407066 0.13467349 0.09157158
0.121276274 0.0 0.121147044 0.0 0.0 -0.007916618 0.0032636095 -0.007638176
-0.009654612 0.0 0.12909628 0.13638431 0.0 0.09887494 0.075110026 0.0
00000000: 6ac7 f03d eb7a 013e d10f 0b3e 01fa 0e3e
00000010: 8be6 0d3e baab 023e 5ec9 063e b38e 043e
00000020: 9b57 0f3e 5bdf 0b3e 0667 c43d 086e 073e
00000030: 0000 0000 d249 093e d9e7 093e e189 bb3d
00000040: b25f f83d 0000 0000 f11b f83d 0000 0000
00000050: 0000 0000 b4b4 01bc 48e2 553b aa49 fabb
00000060: 612e 1ebc 0000 0000 d131 043e 54a8 0b3e
00000070: 0000 0000 f27e ca3d 49d3 993d 0000 0000

feature_net.linear_layer_output.weight f4 [3, 32]
0.14062555 0.06852409 0.14206739 0.14798494 0.14662802 0.0124505535 0.055979647 0.086776026
0.09112031 0.016609762 0.03780893 0.07217175 0.017499894 0.10678834 0.039490554 0.01954151
0.039491784 -0.013467828 0.023508312 -0.0077467225 0.03408875 0.015806675 0.09719114 0.014315145
0.011271729 -0.010799992 0.08803267 0.07099187 -0.02360689 0.020219317 0.0410584 0.010387117
-0.1672088 -0.10404047 -0.1801517 -0.11498685 -0.106857695 -0.09415883 -0.10965084 -0.15356909
-0.12057704 -0.16389374 -0.13839759 -0.12113008 0.0041294363 -0.11455707 -0.09536549 -0.12658718
-0.16823839 0.002934194 -0.096203 -0.00068058784 0.006485528 -0.029418064 -0.019069549 -0.018083503
0.05417142 -0.0074385786 -0.11840606 -0.13168451 -0.012528193 -0.087416135 -0.098411396 -0.028029788
-0.090900116 -0.1464717 -0.13203542 -0.14859736 -0.1415 -0.13315365 -0.15433013 -0.12699005
-0.13868296 -0.16184117 -0.11634243 -0.15061338 -0.042521782 -0.15139014 -0.13560848 -0.08560667
-0.13942838 -0.0010619987 -0.14605255 0.044875544 0.01438794 -0.005948471 -0.03300514 0.018269671
0.031994186 -0.014633274 -0.13218826 -0.18341376 -0.016304923 -0.12826294 -0.11192001 0.03844739
00000000: 2500 103e 5c56 8c3d 1d7a 113e 5d89 173e
00000010: a825 163e 68fd 4b3c ea4a 653d a1b7 b13d
00000020: 499d ba3d 3211 883c 89dd 1a3d c8ce 933d
00000030: f05b 8f3c d8b3 da3d d9c0 213d 8415 a03c
00000040: 23c2 213d 2aa8 5cbc 8194 c03c 38d8 fdbb
00000050: a5a0 0b3d 007d 813c 260c c73d 128a 6a3c
00000060: 0fad 383c 73f2 30bc 794a b43d 2f64 913d
00000070: 3d63 c1bc fba2 a53c da2c 283d ba2e 2a3c
00000080: c938 2bbe 2c13 d5bd b079 38be 3a7e ebbd
00000090: 35d8 dabd 58d6 c0bd 9f90 e0bd 3741 1dbe
000000a0: 18f1 f6bd c3d3 27be 19b8 0dbe 0c13 f8bd
000000b0: 3950 873b e69c eabd fb4e c3bd 12a0 01be
000000c0: af46 2cbe 9b4b 403b 1406 c5bd 7a69 32ba
000000d0: 8d84 d43b 27fe f0bc be37 9cbc db23 94bc
000000e0: dae2 5d3d 52bf f3bb e07e f2bd 4ed8 06be
000000f0: 0d43 4dbc 3b07 b3bd ea8b c9bd ba9e e5bc
00000100: d729 babd adfc 15be 4b34 07be e829 18be
00000110: 60e5 10be 6e59 08be b808 1ebe ae09 02be
00000120: e802 0ebe b1b9 25be f144 eebd 653a 1abe
00000130: 522b 2ebd 0406 1bbe f3dc 0abe 8d52 afbd
00000140: 50c6 0ebe c332 8bba cd8e 15be 6bcf 373d
00000150: 65bb 6b3c 64eb c2bb 6630 07bd 47aa 953c
00000160: 560c 033d 66c0 6fbc 5c5c 07be d1d0 3bbe
00000170: e791 85bc 5c57 03be 5136 e5bd 037b 1d3d

feature_net.linear_layer_output.bias f4 [3]
0.08974436 -0.123313054 -0.13443026
00000000: e4cb b73d 8e8b fcbd 16a8 09be

feature_net.linear_layer_0.weight f4 [32, 11]
-0.055175185 0.052552644 -0.065996796 -0.3051106 -0.34565687 -0.01393595 0.31511474 0.17290018
-0.24595588 -0.20845534 -0.59944046 -0.19985762 0.4325759 -0.08906115 0.2509992 0.1907966
-0.5712434 -0.09812731 -0.11446976 -0.23557661 -0.3147364 0.054583378 0.35890824 0.2660867
0.14715135 0.015897222 0.09521898 0.15665679 -0.10502671 0.018342195 0.18060681 0.18422511
-0.23891711 -0.11038423 0.6951974 0.3787595 0.4883436 0.16783027 0.15224838 0.19757865
0.08442827 -0.014086762 0.22065164 0.0029474387 0.24826173 0.010413887 0.1764318 0.32943454
-0.038524527 0.009652581 0.35908014 -0.28913558 0.1801854 0.40973157 -0.13050847 0.08668012
0.016426329 -0.354224 0.028665079 0.17057717 0.34764954 0.27114338 -0.01752281 0.028386211
0.36190736 0.34744138 -0.29119736 -0.31812355 -0.027952584 0.16884816 -0.23788896 0.384991
-0.37814653 2.0723977 -0.091014646 -0.2331902 -0.12247488 0.33240303 -0.3687071 0.08564493
0.39370885 0.2850413 0.11440569 -0.013306819 0.41094148 0.2602166 -0.60469836 -0.11890771
0.10695984 -0.25508937 0.09929109 0.20986035 -0.23490107 0.13362934 -0.12680776 -0.12545608
-0.3222669 0.28232586 -0.27865854 -0.1530161 0.06273678 0.09121867 0.40141538 -0.12661761
-0.080390595 0.1509534 -0.16370285 -0.14985828 -0.29387212 -0.34255418 -0.13064034 -0.050115038
-0.5218308 0.12960726 -0.028383838 0.09790432 0.13226792 0.32148364 0.47975042 0.5261126
-0.19292806 -0.5419696 0.06809697 -0.08843483 -0.2871343 -0.1333884 0.31136796 0.08029807
0.24690346 0.18750721 -0.066260524 -0.23008753 0.0780029 -0.20586029 0.2959011 -0.1775592
-0.67408687 -0.37387952 0.2640825 -0.075766146 0.25517023 0.02104405 -0.041040394 0.32925603
0.18659069 0.0824385 -0.4774634 0.2289536 0.23620245 0.34681916 -0.40825114 -0.1730324
0.02479122 -0.22200131 0.0063932138 0.10537382 0.20498599 -0.15733096 -0.14594485 -0.08664379
-0.09414359 -0.027145382 0.011978222 -0.28285673 0.21924067 0.28498015 0.23517369 0.08162872
-0.17221957 -0.0028012856 -0.037519988 -0.25363886 0.069909915 -0.15316406 -0.19378257 -0.062433947
-0.25997275 -0.32665607 -0.0081388885 0.5554648 0.063076675 -0.22539426 0.24915537 0.07968442
-0.19384484 0.028429078 0.09551525 -0.098240316 -0.05762752 0.0059429444 -0.14449722 0.20486414
0.12093762 -0.22667177 0.5902235 -0.33700147 0.03279166 -0.29274455 0.22421499 -0.03445715
-0.36541688 0.08885446 -0.16803132 -0.23757406 -0.10064897 0.2548418 0.28494775 -0.37108284
-0.25700966 -0.032726992 0.35185066 -0.25384274 0.05883362 0.24812797 -0.24565925 -0.12774707
-0.1862139 0.20733131 0.026444387 -0.6770883 0.4316078 0.503369 -0.1651145 0.19255632
-0.44827017 0.10429774 0.5849845 0.42724982 -0.41017222 0.053094167 0.06297598 0.5018122
-0.26567322 -0.27424353 0.13015313 -0.0405682 0.19369441 0.4145453 0.16515201 -0.43218517
-0.15007707 0.015700186 -0.24274822 0.097794145 0.06546652 0.048622422 -0.12499037 -0.13063696
0.5374107 0.40617394 -0.1499032 -0.13772959 -0.19168079 -0.15190703 -0.11070357 -0.13531306
00000000: 60ff 61bd 7141 573d 5429 87bd 7537 9cbe
00000010: f0f9 b0be 9c53 64bc b856 a13e bf0c 313e
00000020: dcdb 7bbe 5175 55be ee74 19bf 7aa7 4cbe
00000030: 977a dd3e b165 b6bd f882 803e 2f60 433e
00000040: 023d 12bf f9f6 c8bd 1f6f eabd ff3a 71be
00000050: 2125 a1be d292 5f3d d2c2 b73e 843c 883e
00000060: d8ae 163e e43a 823c 2b02 c33d a36a 203e
00000070: 3e18 d7bd 5f42 963c fef0 383e 82a5 3c3e
00000080: b0a6 74be 2111 e2bd 75f8 313f c4ec c13e
00000090: 2c08 fa3e b3db 2b3e 00e7 1b3e 0f52 4a3e
000000a0: bbe8 ac3d 2acc 66bc 81f2 613e d129 413b
000000b0: 5338 7e3e 029f 2a3c 8aaa 343e a5ab a83e
000000c0: e5cb 1dbd dc25 1e3c 5ad9 b73e 9409 94be
000000d0: 8682 383e 56c8 d13e 03a4 05be 5985 b13d
000000e0: 8290 863c d95c b5be 07d3 ea3c c8ab 2e3e
000000f0: 1fff b13e 4ed3 8a3e ff8b 8fbc 338a e83c
00000100: ec4b b93e d6e3 b13e d217 95be 17e1 a2be
00000110: d1fc e4bc 88e6 2c3e 2a99 73be 8a1d c53e
00000120: 6c9c c1be 2aa2 0440 e365 babd 69c9 6ebe
00000130: 1cd4 fabd bb30 aa3e 2dc7 bcbe 9c66 af3d
00000140: 3594 c93e eff0 913e 884d ea3d d804 5abc
00000150: ec66 d23e 1c3b 853e 83cd 1abf e385 f3bd
00000160: c30d db3d 139b 82be 2159 cb3d a2e5 563e
00000170: e889 70be 21d6 083e e5d9 01be 8f77 00be
00000180: 2b00 a5be 048d 903e 55ac 8ebe 41b0 1cbe
00000190: 247c 803d dbd0 ba3d 5186 cd3e 0ca8 01be
000001a0: d3a3 a4bd 8793 1a3e b8a1 27be 7374 19be
000001b0: 6876 96be 4363 afbe 95c6 05be 6d45 4dbd
000001c0: b496 05bf c4b7 043e 3985 e8bc 0f82 c83d
000001d0: 3e71 073e 8199 a43e d9a1 f53e 51af 063f
000001e0: ef8e 45be 85be 0abf 6d76 8b3d 521d b5bd
000001f0: 4403 93be f896 08be 9f6b 9f3e 5173 a43d
00000200: 43d4 7c3e e401 403e 99b3 87bd 119c 6bbe
00000210: fcbf 9f3d 0acd 52be 5980 973e 14d2 35be
00000220: f590 2cbf 236d bfbe d235 873e 482b 9bbd
00000230: aca5 823e 9264 ac3c f919 28bd 3f94 a83e
00000240: a111 3f3e 84d5 a83d 1576 f4be d072 6a3e
00000250: 0edf 713e 4892 b13e 4b06 d1be 682f 31be
00000260: f516 cb3c 5054 63be 2a7e d13b 3bce d73d
00000270: d9e7 513e 5e1b 21be 9172 15be 4d72 b1bd
00000280: 5bce c0bd fe5f debc 4e40 443c 99d2 90be
00000290: a080 603e ebe8 913e 5fd1 703e f52c a73d
000002a0: 545a 30be c695 37bb 8fae 19bd f4dc 81be
000002b0: ee2c 8f3d 0ad7 1cbe f06e 46be bdba 7fbd
000002c0: 261b 85be 773f a7be f958 05bc f132 0e3f
000002d0: 582e 813d c1cd 66be 9622 7f3e 9631 a33d
000002e0: 437f 46be 19e4 e83c 809d c33d 3832 c9bd
000002f0: d60a 6cbd 08bd c23b 14f7 13be e8c7 513e
00000300: 25ae f73d a51c 68be e318 173f 758b acbe
00000310: 8c50 063d 9de2 95be 9d98 653e f122 0dbd
00000320: ec17 bbbe 54f9 b53d 6710 2cbe 9d46 73be
00000330: 0c21 cebd a07a 823e ace4 913e 92fe bdbe
00000340: c596 83be bd0c 06bd c525 b43e adf7 81be
00000350: 86fb 703d 4215 7e3e 198e 7bbe 21d0 02be
00000360: dbae 3ebe a94e 543e e6a1 d83c a955 2dbf
00000370: b3fb dc3e cadc 003f c713 29be 7c2d 453e
00000380: ab83 e5be 0e9a d53d 8bc1 153f 7dc0 da3e
00000390: 1802 d2be 4579 593d 8df9 803d c476 003f
000003a0: 5206 88be a669 8cbe dd46 053e d72a 26bd
000003b0: d457 463e 483f d43e 9c1d 293e 6047 ddbe
000003c0: cead 19be ad9d 803c fd92 78be 4c48 c83d
000003d0: 5013 863d 4e28 473d f3fa ffbd b2c5 05be
000003e0: bf93 093f 08f6 cf3e 3980 19be fc08 0dbe
000003f0: f847 44be 848d 1bbe 8eb8 e2bd 828f 0abe

feature_net.linear_layer_0.bias f4 [32]
-0.02503515 0.0063903113 -0.020839114 0.0054114694 0.05088365 0.029716551 -0.0021913315 -0.00570672
-0.016537668 -0.076588035 0.022948457 0.010751331 -0.0031321342 0.09782792 0.012364731 0.013759857
-0.0104647465 -0.051784035 -0.067958 -0.06362867 -0.021803362 0.025045661 0.004824641 0.022480084
0.04716223 -0.0072014756 -0.12545265 0.024377804 0.05178338 -0.056146566 0.033377286 -0.01054409
00000000: 8416 cdbc d165 d13b cab6 aabc b252 b13b
00000010: 606b 503d 2070 f33c 719c 0fbb 70ff babb
00000020: 017a 87bc 30da 9cbd 67fe bb3c 5a26 303c
00000030: 7e44 4dbb 015a c83d 7195 4a3c 0671 613c
00000040: 5474 2bbc 7f1b 54bd 902d 8bbd c04f 82bd
00000050: f79c b2bc 8f2c cd3c 0618 9e3b 2728 b83c
00000060: 2f2d 413d 5bfa ebbb a976 00be f6b3 c73c
00000070: cf1a 543d f1f9 65bd 9fb6 083d 1ec1 2cbc

feature_net.layer_norm_0.weight f4 [32]
0.9838538 0.9930986 0.9518583 1.0150216 1.0430478 1.0238942 0.9995323 0.9885349
0.9459552 0.9318868 1.0264226 0.9956022 0.9728832 1.087173 1.047446 1.0259005
0.96099484 0.95145774 0.91508895 0.9362782 1.0002813 1.0312061 0.98249334 1.0129572
1.0304444 1.0199863 0.87852913 0.9926768 1.0634031 0.93129784 1.0095689 0.99842244
00000000: d8dd 7b3f b63b 7e3f fcac 733f 3aec 813f
00000010: 9782 853f f70e 833f 59e1 7f3f a010 7d3f
00000020: 1f2a 723f 2290 6e3f d161 833f c9df 7e3f
00000030: e00e 793f 7c28 8b3f b612 863f b550 833f
00000040: c203 763f bc92 733f 4543 6a3f eeaf 6f3f
00000050: 3809 803f 90fe 833f af84 7b3f 95a8 813f
00000060: 9ae5 833f e98e 823f 49e7 603f 1120 7e3f
00000070: 981d 883f 8969 6e3f 8e39 813f 9d98 7f3f

feature_net.layer_norm_0.bias f4 [32]
-0.014793265 0.008694012 -0.005482608 0.011222405 0.027890189 0.038011663 0.021994958 0.013415486
-0.010858025 -0.066933826 0.014873412 0.01859247 -0.0029052321 0.109784864 0.024541574 0.030647788
-0.00727486 -0.02977623 -0.056490257 -0.06381787 0.008485697 0.03898659 0.018491222 0.03421205
0.05375569 -0.012499994 -0.121167734 0.018707128 0.07167403 -0.0445708 0.03862315 0.0034984224
00000000: 735f 72bc 5471 0e3c 73a7 b3bb 2ede 373c
00000010: f779 e43c 1eb2 1b3d c52e b43c a0cc 5b3c
00000020: dce5 31bc 9a14 89bd 9daf 733c 3c4f 983c
00000030: b565 3ebb e3d6 e03d 690b c93c 1211 fb3c
00000040: f361 eebb 48ed f3bc 5462 67bd f2b2 82bd
00000050: 9807 0b3c 67b0 1f3d e77a 973c ef21 0c3d
00000060: ed2e 5c3d c6cc 4cbc ca26 f8bd b13f 993c
00000070: d5c9 923d df8f 36bd 4f33 1e3d ca45 653b

feature_net.linear_layer_1.weight f4 [64, 32]
0.21533322 -0.32096413 0.24314694 -0.2537695 0.19522925 0.5602465 -0.06055423 0.04685838
0.30486912 0.29646346 0.02484243 0.008704312 0.22876072 0.3089253 0.51220673 -0.084382266
-0.18055221 0.5496219 0.010569576 -0.23652636 -0.030251179 -0.27073947 0.39122972 -0.23845465
0.034229744 -0.06285474 -0.066237 0.021342931 -0.16831423 -0.16764532 -0.2699919 0.263453
0.17297843 0.118005805 0.14327621 0.18413453 -0.55908924 -0.11626857 0.041231446 0.10994247
0.52900594 -0.31805438 0.24080662 0.084372364 0.28381747 0.0013229814 0.16334982 0.096107855
-0.40422276 -0.08156456 0.04614568 0.19542482 -0.052781414 0.20134343 -0.11998625 0.08848287
-0.2569353 -0.30723217 -0.46405214 0.0484217 0.2547972 -0.14652374 -0.29081216 0.33535242
0.3033263 -0.20272075 -0.14462799 0.314717 -0.3761725 -0.32229796 -0.12987594 -0.11356467
-0.04443477 0.3854548 -0.07100381 -0.59101194 0.061135743 0.23124412 0.021058075 -0.042212423
-0.25362718 -0.20579387 0.095460854 0.14250971 -0.041539043 0.017808309 0.42378148 -0.27137554
0.3622798 0.021578835 0.114264034 -0.093116246 0.085335396 0.2079784 0.13784899 0.23865151
-0.14100857 0.3713752 0.051627874 0.015844401 -0.16280939 -0.16505058 -0.16071607 0.3328441
-0.04703912 -0.008558511 0.06581747 0.5750129 0.38660005 0.09312838 -0.18050882 -0.10556171
0.17121372 0.17254123 0.22186737 -0.13305235 -0.0063211815 0.32945776 0.6633567 -0.15150057
0.4515919 -0.19704616 -0.12892905 0.31349778 -0.3317319 -0.12539941 0.21267243 0.020393472
-0.01547253 0.38149333 0.17308313 0.32168734 -0.4095489 0.48597425 0.40069327 -0.012519814
-0.31294745 0.010691782 -0.11143338 -0.10473547 -0.12581232 0.071833536 -0.14992005 0.32574722
0.15982662 -0.24797802 -0.1911887 -0.34270206 0.051731113 -0.1785416 0.06770104 -0.402008
0.04318261 0.07880512 -0.19847637 -0.2702701 -0.116274804 -0.18146919 -0.19120395 0.21200988
-0.049185466 0.3067897 0.10100498 0.034504738 -0.21023741 0.1709827 -0.2454865 -0.0069387895
0.40643704 0.11325433 -0.32259655 -0.11892603 -0.08370994 -0.33049452 0.03646227 -0.1044779
-0.25951087 -0.048435118 0.0496044 -0.45723587 -0.24904864 0.08671693 -0.3004549 -0.079360254
0.22753152 0.59830284 -0.04440486 0.2528927 -0.05001002 -0.033711553 0.119292825 -0.36562157
0.16222447 0.09461867 -0.22156057 0.11276292 0.056122407 0.2924383 -0.28263637 0.09423321
0.48318833 0.21462014 0.1593834 0.1746804 0.27098575 0.2296167 -0.024160776 0.38911137
0.83784795 -0.19038194 -0.13476713 0.24390444 -0.09524381 -0.1271722 0.01440215 0.17947023
0.1215946 0.16495432 0.061141547 0.1024579 -0.0042887647 -0.0861126 0.18949339 0.34038258
0.491418 -0.3008824 0.0041765864 0.3037742 0.48879614 0.12171592 -0.05941268 0.15407561
-0.1741279 -0.06307436 0.26405343 -0.06577739 -0.068831205 0.1325635 -0.38372654 0.19240658
0.11103325 0.058645025 0.18245469 -0.28103793 -0.19180919 0.34038955 -0.031345837 -0.16072938
-0.15527302 0.25523174 -0.63116795 0.3232725 0.06625412 0.30559638 -0.10756963 -0.16569863
00000000: 5080 5c3e 6955 a4be 83fb 783e 13ee 81be
00000010: 2dea 473e 516c 0f3f b607 78bd 93ee 3f3d
00000020: ce17 9c3e 0fca 973e 5a82 cb3c 889c 0e3c
00000030: 4040 6a3e 752b 9e3e fb1f 033f 9cd0 acbd
00000040: aee2 38be 05b4 0c3f 042c 2d3c f733 72be
00000050: 52d1 f7bc 5d9e 8abe 434f c83e 752d 74be
00000060: 7d34 0c3d fcb9 80bd 44a7 87bd 5fd7 ae3c
00000070: 915a 2cbe 37ab 2bbe 613c 8abe 50e3 863e
00000080: 4221 313e 07ad f13d 00b7 123e c38d 3c3e
00000090: 7920 0fbf 371e eebd 4ee2 283d 8529 e13d
000000a0: ef6c 073f 06d8 a2be 0396 763e 6bcb ac3d
000000b0: 8650 913e e467 ad3a 2d45 273e 32d4 c43d
000000c0: 49f6 cebe 520b a7bd 4103 3d3d 721d 483e
000000d0: 5331 58bd f92c 4e3e 5abb f5bd 8236 b53d
000000e0: 068d 83be 894d 9dbe 3e98 edbe d555 463d
000000f0: c774 823e 520a 16be 55e5 94be 50b3 ab3e
00000100: 964d 9b3e 0796 4fbe 5c19 14be 9622 a13e
00000110: af99 c0be 3d04 a5be 33fe 04be 9894 e8bd
00000120: 3c01 36bd 555a c53e 726a 91bd 8f4c 17bf
00000130: 7969 7a3d 42cb 6c3e fc81 ac3c efe6 2cbd
00000140: 6cdb 81be a1bb 52be fb80 c33d 11ee 113e
00000150: d824 2abd bbe2 913c e3f9 d83e bcf1 8abe
00000160: bd7c b93e 19c6 b03c 4303 ea3d bbb3 bebd
00000170: 53c4 ae3d 4af8 543e 4928 0d3e 1061 743e
00000180: 8d64 10be e424 be3e c077 533d 1ecc 813c
00000190: 81b7 26be 0503 29be c192 24be 8b6a aa3e
000001a0: 18ac 40bd ff38 0cbc 4fcb 863d 0c34 133f
000001b0: 71f0 c53e 18ba be3d 4ed7 38be bd30 d8bd
000001c0: a652 2f3e a6ae 303e 3331 633e e03e 08be
000001d0: ea21 cfbb b0ae a83e bfd1 293f f722 1bbe
000001e0: 0e37 e73e 78c6 49be fa05 04be c882 a03e
000001f0: c3d8 a9be b468 00be cdc6 593e 3610 a73c
00000200: 7f80 7dbc 1853 c33e b43c 313e 34b4 a43e
00000210: 65b0 d1be 9ed1 f83e ab27 cd3e e81f 4dbc
00000220: a63a a0be 962c 2f3c 2f37 e4bd 8d7f d6bd
00000230: f2d4 00be 761d 933d a484 19be 57c8 a63e
00000240: 97a9 233e f3ed 7dbe f8c6 43be a576 afbe
00000250: 01e4 533d 9cd3 36be d8a6 8a3d fed3 cdbe
00000260: 40e0 303d 9464 a13d 643d 4bbe d860 8abe
00000270: 7c21 eebd 0fd3 39be f8ca 43be 1e19 593e
00000280: b376 49bd 8a13 9d3e b3db ce3d d754 0d3d
00000290: 7a48 57be 1716 2f3e d060 7bbe c95e e3bb
000002a0: 8418 d03e e3f1 e73d 602b a5be 7e8f f3bd
000002b0: 1e70 abbd 9436 a9be 7659 153d 82f8 d5bd
000002c0: 9cde 84be e763 46bd fc2d 4b3d d21a eabe
000002d0: 9b06 7fbe a598 b13d 3ad5 99be a187 a2bd
000002e0: 06fe 683e 602a 193f dfe1 35bd 277b 813e
000002f0: 4fd7 4cbd 2015 0abd cc4f f43d c032 bbbe
00000300: 2c1e 263e 6fc7 c13d c6e0 62be 3ff0 e63d
00000310: 9ce0 653d 79ba 953e b7b5 90be 57fd c03d
00000320: 7664 f73e 62c5 5b3e 6735 233e 6bdf 323e
00000330: a5be 8a3e a420 6b3e d2ec c5bc 9b39 c73e
00000340: 347d 563f 7cf3 42be 6500 0abe 16c2 793e
00000350: 300f c3bd 6e39 02be fff6 6b3c 0bc7 373e
00000360: 9706 f93d c9e9 283e 8f6f 7a3d 73d5 d13d
00000370: c488 8cbb ce5b b0bd 8e0a 423e a046 ae3e
00000380: 249b fb3e 420d 9abe bfdb 883b 4b88 9b3e
00000390: 7d43 fa3e 3246 f93d b65a 73bd ffc5 1d3e
000003a0: 964e 32be 212d 81bd 0332 873e 4cb6 86bd
000003b0: 60f7 8cbd babe 073e ce77 c4be 3b06 453e
000003c0: 6765 e33d c435 703d 67d5 3a3e 34e4 8fbe
000003d0: a169 44be 8a47 ae3e 7e64 00bd 3e96 24be
000003e0: e4ff 1ebe bcad 823e 3994 21bf f983 a53e
000003f0: 3db0 873d 2177 9c3e 774d dcbd e7ac 29be

feature_net.linear_layer_1.bias f4 [64]
0.010891061 0.011217427 -0.04191789 0.035415888 0.05264341 -0.017646283 0.047258545 0.014326004
-0.016328568 0.11927558 -0.034841616 0.0036854385 0.036859605 0.03270872 0.013857545 0.07159948
-0.023827977 0.06424483 0.09707066 0.08293536 0.035603676 -0.048909787 0.10500634 0.13069244
-0.019025782 0.015390216 0.07056087 0.048418965 -0.03631743 -0.0003264516 0.07687885 -0.022751313
-0.058876622 0.022990528 -0.005186256 -0.036651094 -0.058996517 -0.050813798 -0.052353334 -0.057162583
-0.0052177384 -0.028397283 -0.05175292 -0.009659055 -0.03430993 -0.05166612 -0.004868383 -0.029671352
-0.053683393 -0.031271942 -0.053405233 -0.046729855 -0.041546326 -0.05626946 -0.03221467 -0.02868591
-0.019520208 -0.059697416 -0.06170778 -0.020801486 -0.00571724 -0.048965115 -0.048939552 0.025233375
00000000: 6c70 323c 4dc9 373c 18b2 2bbd 4010 113d
00000010: 9ea0 573d f08e 90bc 2d92 413d 9eb7 6a3c
00000020: 7dc3 85bc c146 f43d 15b6 0ebd 6687 713b
00000030: 19fa 163d 94f9 053d c20a 633c c0a2 923d
00000040: e432 c3bc cb92 833d fbcc c63d 04da a93d
00000050: 29d5 113d a155 48bd 900d d73d 3dd4 053e
00000060: f5db 9bbc 3f27 7c3c 3882 903d f752 463d
00000070: 96c1 14bd 9827 abb9 a972 9d3d f660 babc
00000080: 9d28 71bd a256 bc3c 78f1 a9bb 751f 16bd
00000090: 55a6 71bd 2122 50bd 7370 56bd 5023 6abd
000000a0: 90f9 aabb 6ba1 e8bc dffa 53bd 0341 1ebc
000000b0: 9288 0cbd da9f 53bd f586 9fbb 5611 f3bc
000000c0: 1ee3 5bbd 0217 00bd 72bf 5abd ce67 3fbd
000000d0: 7b2c 2abd ce7a 66bd 88f3 03bd b7fe eabc
000000e0: d8e8 9fbc 4785 74bd 4cc1 7cbd e167 aabc
000000f0: af57 bbbb a58f 48bd d774 48bd 39b6 ce3c

feature_net.layer_norm_1.weight f4 [64]
1.0474094 1.0415037 1.0556921 1.0608181 1.0633239 1.0393752 1.0626929 1.0623074
1.052234 1.0566968 1.0638915 1.0634131 1.0625399 1.048962 1.0636578 1.0639156
1.0365608 1.063138 1.0642675 1.0646776 1.0635788 1.0085696 1.065402 1.0660428
1.0034376 1.021823 1.0617285 1.0273329 1.0619788 1.0400662 1.0549288 1.0498197
1.0039631 1.0313681 1.0563142 1.0534312 1.0365759 1.0428997 1.058466 0.9994421
1.0246032 1.0200468 1.0562538 1.0492378 1.0307953 1.0434622 0.9871345 1.0410488
1.0404266 1.0518996 1.0622116 1.0227884 1.0604001 1.0618933 1.0628124 1.0624799
1.0625032 1.0490886 1.0370982 1.0275091 1.0644643 1.0592996 1.0502435 1.0639268
00000000: 8311 863f fe4f 853f eb20 873f e3c8 873f
00000010: ff1a 883f 3f0a 853f 5206 883f b0f9 873f
00000020: 9baf 863f d741 873f 992d 883f ec1d 883f
00000030: 4f01 883f 6344 863f f025 883f 632e 883f
00000040: 06ae 843f e814 883f eb39 883f 5b47 883f
00000050: 5a23 883f cf18 813f 185f 883f 1774 883f
00000060: a570 803f 19cb 823f b8e6 873f a57f 833f
00000070: ecee 873f e420 853f e807 873f 7e60 863f
00000080: dd81 803f df03 843f 4e35 873f d5d6 863f
00000090: 85ae 843f bd7d 853f d07b 873f 70db 7f3f
000000a0: 3326 833f e590 823f 5333 873f 6d4d 863f
000000b0: 1af1 833f 2b90 853f d9b4 7c3f 1641 853f
000000c0: b32c 853f a5a4 863f 8df6 873f bbea 823f
000000d0: 31bb 873f 1fec 873f 3d0a 883f 57ff 873f
000000e0: 1b00 883f 8948 863f a2bf 843f 6b85 833f
000000f0: 5e40 883f 2197 873f 616e 863f c12e 883f

feature_net.layer_norm_1.bias f4 [64]
0.049400933 0.033946604 0.057886794 0.05546427 0.061736036 0.04261727 0.06275366 0.06204799
0.057317227 0.056112934 0.062617965 0.056373022 0.062151626 0.05485411 0.06305498 0.063410975
0.046761513 0.06128795 0.062267154 0.06399037 0.06287754 0.017651785 0.06529049 0.064794734
0.0059290156 0.029504173 0.06247557 0.028191596 0.06257773 0.047176305 0.055823945 0.05194112
0.0040763766 0.033273894 0.060275268 0.05022304 0.038902145 0.052244175 0.057348933 0.00028214202
0.032670394 0.025713759 0.05949911 0.051874857 0.031602338 0.048321687 -0.012815278 0.043858018
0.04152604 0.055382613 0.059745245 0.027059732 0.058155093 0.06302137 0.06205721 0.05773343
0.06382562 0.054548144 0.041448314 0.02836684 0.062177286 0.061568204 0.06114691 0.06438215
00000000: a258 4a3d 980b 0b3d b41a 6d3d 812e 633d
00000010: edde 7c3d 728f 2e3d fe84 803d 0826 7e3d
00000020: 78c5 6a3d add6 653d d93d 803d 66e7 663d
00000030: b492 7e3d b4ae 603d f822 813d 9ddd 813d
00000040: 0089 3f3d 1309 7b3d d80b 7f3d 620d 833d
00000050: f1c5 803d 7a9a 903c 05b7 853d 1ab3 843d
00000060: 3048 c23b bcb2 f13c 62e6 7f3d 10f2 e63c
00000070: c128 803d f13b 413d a6a7 643d 36c0 543d
00000080: 2093 853b 354a 083d 33e3 763d adb6 4d3d
00000090: db57 1f3d fdfd 553d b7e6 6a3d 76ec 9339
000000a0: 64d1 053d a9a5 d23c 57b5 733d bb7a 543d
000000b0: 7471 013d f6ec 453d 2cf7 51bc 77a4 333d
000000c0: 3517 2a3d e1d8 623d 6eb7 743d 5fac dd3c
000000d0: 0934 6e3d 5911 813d b32f 7e3d e479 6c3d
000000e0: 02b7 823d e06d 5f3d b5c5 293d 9361 e83c
000000f0: 9cad 7e3d f12e 7c3d 2f75 7a3d cada 833d
