models/MADDPG/MADDPG_trained_agent_simple_spread.pt (torch, 617758 bytes, 144 tensors)

current_noise f4 [8, 5]
000000 83 42 69 bd 5f ee 51 bc 7e 1d 93 3c 9a 7e db 3b
       -0.056948196 -0.01281318 0.017958399 0.0066984417
000010 b4 e2 fd 3c 55 b2 10 3d f8 59 05 3d b1 13 9c 3d
       0.03099189 0.03532632 0.032556504 0.07620943
000020 e3 b6 6b 3d 66 b0 e5 3c 50 5b 2a bd 6a 91 bf 3c
       0.05754746 0.028038215 -0.04159099 0.023384769
000030 92 cc 65 3c 60 47 bc 3d 2d 2a 87 3c 62 0d a1 3b
       0.014025824 0.09193301 0.016499603 0.0049149254
000040 ac 8b ee 3b e9 f9 80 3b 9e 68 70 3d 48 c4 51 bd
       0.007279834 0.0039360416 0.05869352 -0.05121258
000050 1f c9 9d bc 7a 3a b4 3c ae f7 d1 bc e2 24 18 bd
       -0.019260941 0.02200054 -0.025630798 -0.03714455
000060 f0 70 1b 3d d9 f4 95 3d d3 e3 8f bc 66 d4 50 bd
       0.037949502 0.073220916 -0.01756469 -0.05098381
000070 c0 54 c5 3d 3b e2 25 3d 80 1f 73 b9 5b fe d9 3b
       0.096353054 0.040498953 -0.0002318602 0.006652636
000080 f4 c7 c2 bc ec f0 57 3d 76 28 0d bc 42 05 ee bc
       -0.023776986 0.052719995 -0.008615604 -0.029055241
000090 f0 21 10 3d 2f e6 85 3b 9e 00 ff 3c 8c 86 9a 3d
       0.035188615 0.004086278 0.031128224 0.07545194

current_noise f4 [8, 5]
000000 c8 2e 0b 3d 7d e1 30 3d 06 5a 42 3d 09 ac 35 bd
       0.03398016 0.043183792 0.047449134 -0.04435352
000010 88 16 ec bc ee d6 05 3c ed 68 f3 bc 24 1a 78 bd
       -0.028819337 0.008168919 -0.029713118 -0.060571805
000020 1a aa bc 3b 93 3f c1 bc 74 8f 85 3c 0d af 09 3d
       0.0057575824 -0.023589885 0.016303755 0.033614207
000030 f6 f5 88 3d 5d 70 15 bd 4f 55 84 3d 90 b8 85 ba
       0.06687538 -0.03648411 0.06461584 -0.0010202099
000040 5c 05 23 bd bc 20 41 bc d6 fe 85 bd d9 92 67 bd
       -0.039800033 -0.01178759 -0.06542747 -0.05653653
000050 75 0b 16 bd 6f 44 86 3c ee 61 bc 3c 9e e3 03 bd
       -0.03663202 0.016390054 0.022995915 -0.032199495
000060 8a 41 84 3d 7e 0d 16 bc 27 35 c0 3d ba 94 80 bd
       0.06457813 -0.00915849 0.09385138 -0.06278367
000070 bc 1f d8 3c 5f 16 5e bd 28 b6 f7 3c 28 ec be 3c
       0.02638232 -0.054220553 0.030238226 0.023305967
000080 89 76 65 bb 5a 5a 90 3d fc 51 3b bd 82 3d 3b 3c
       -0.003501328 0.07048483 -0.045732483 0.011428239
000090 59 ee 8b 3d dc 74 a8 3c 6d a6 7e bd ab 2a 20 3d
       0.068325706 0.020563535 -0.062170435 0.03910319

current_noise f4 [8, 5]
000000 ec 5a 39 3d 9f 16 40 3d b7 23 4a bd 34 a5 44 3d
       0.045252725 0.046896573 -0.049350467 0.048009112
000010 59 1a c1 bd 1e 09 bf 3b ae f3 e5 3c 83 3c f0 3b
       -0.094288535 0.0058299443 0.028070297 0.0073314323
000020 5f 7f a1 bc 68 cc b3 3d 98 a0 37 3a 9a 3b c6 3d
       -0.019714056 0.08779222 0.00070048263 0.09679337
000030 c1 1f b4 bd 6c 91 b4 3d 61 f7 94 bb c8 17 29 bd
       -0.08795119 0.088167995 -0.0045460914 -0.041282445
000040 b1 68 95 3c 83 4f 4e 3d e6 93 99 bb fe 54 1d 3d
       0.018238397 0.050368797 -0.0046868203 0.038411133
000050 b2 4e 2e 3d 5e 3f 67 bd 11 3d 43 bd 65 90 04 bd
       0.04255552 -0.056456916 -0.04766566 -0.032364268
000060 29 8f 5c bc 68 fe 94 3d 06 70 e3 bb 16 93 c7 3d
       -0.013461866 0.07275087 -0.0069408445 0.09744851
000070 38 88 89 3d 5e 4b f4 bc cc cc 79 bd 64 a2 71 bc
       0.06715435 -0.029821094 -0.060986325 -0.01474819
000080 bb 3f 10 3d 77 d4 9a 3c b9 0b 92 bd 20 ff 02 3d
       0.035217028 0.01890014 -0.07131142 0.031981587
000090 1d 6e 86 3c 66 84 3e bd f6 fa 0a 3d b8 4c a6 3c
       0.016409928 -0.046512984 0.03393074 0.020300254

expl_noise f4 [8, 5]
000000 cd cc cc 3d cd cc cc 3d cd cc cc 3d cd cc cc 3d
       0.1 0.1 0.1 0.1
000010 cd cc cc 3d cd cc cc 3d cd cc cc 3d cd cc cc 3d
       0.1 0.1 0.1 0.1
000020 cd cc cc 3d cd cc cc 3d cd cc cc 3d cd cc cc 3d
       0.1 0.1 0.1 0.1
000030 cd cc cc 3d cd cc cc 3d cd cc cc 3d cd cc cc 3d
       0.1 0.1 0.1 0.1
000040 cd cc cc 3d cd cc cc 3d cd cc cc 3d cd cc cc 3d
       0.1 0.1 0.1 0.1
000050 cd cc cc 3d cd cc cc 3d cd cc cc 3d cd cc cc 3d
       0.1 0.1 0.1 0.1
000060 cd cc cc 3d cd cc cc 3d cd cc cc 3d cd cc cc 3d
       0.1 0.1 0.1 0.1
000070 cd cc cc 3d cd cc cc 3d cd cc cc 3d cd cc cc 3d
       0.1 0.1 0.1 0.1
000080 cd cc cc 3d cd cc cc 3d cd cc cc 3d cd cc cc 3d
       0.1 0.1 0.1 0.1
000090 cd cc cc 3d cd cc cc 3d cd cc cc 3d cd cc cc 3d
       0.1 0.1 0.1 0.1

expl_noise f4 [8, 5]
000000 cd cc cc 3d cd cc cc 3d cd cc cc 3d cd cc cc 3d
       0.1 0.1 0.1 0.1
000010 cd cc cc 3d cd cc cc 3d cd cc cc 3d cd cc cc 3d
       0.1 0.1 0.1 0.1
000020 cd cc cc 3d cd cc cc 3d cd cc cc 3d cd cc cc 3d
       0.1 0.1 0.1 0.1
000030 cd cc cc 3d cd cc cc 3d cd cc cc 3d cd cc cc 3d
       0.1 0.1 0.1 0.1
000040 cd cc cc 3d cd cc cc 3d cd cc cc 3d cd cc cc 3d
       0.1 0.1 0.1 0.1
000050 cd cc cc 3d cd cc cc 3d cd cc cc 3d cd cc cc 3d
       0.1 0.1 0.1 0.1
000060 cd cc cc 3d cd cc cc 3d cd cc cc 3d cd cc cc 3d
       0.1 0.1 0.1 0.1
000070 cd cc cc 3d cd cc cc 3d cd cc cc 3d cd cc cc 3d
       0.1 0.1 0.1 0.1
000080 cd cc cc 3d cd cc cc 3d cd cc cc 3d cd cc cc 3d
       0.1 0.1 0.1 0.1
000090 cd cc cc 3d cd cc cc 3d cd cc cc 3d cd cc cc 3d
       0.1 0.1 0.1 0.1

expl_noise f4 [8, 5]
000000 cd cc cc 3d cd cc cc 3d cd cc cc 3d cd cc cc 3d
       0.1 0.1 0.1 0.1
000010 cd cc cc 3d cd cc cc 3d cd cc cc 3d cd cc cc 3d
       0.1 0.1 0.1 0.1
000020 cd cc cc 3d cd cc cc 3d cd cc cc 3d cd cc cc 3d
       0.1 0.1 0.1 0.1
000030 cd cc cc 3d cd cc cc 3d cd cc cc 3d cd cc cc 3d
       0.1 0.1 0.1 0.1
000040 cd cc cc 3d cd cc cc 3d cd cc cc 3d cd cc cc 3d
       0.1 0.1 0.1 0.1
000050 cd cc cc 3d cd cc cc 3d cd cc cc 3d cd cc cc 3d
       0.1 0.1 0.1 0.1
000060 cd cc cc 3d cd cc cc 3d cd cc cc 3d cd cc cc 3d
       0.1 0.1 0.1 0.1
000070 cd cc cc 3d cd cc cc 3d cd cc cc 3d cd cc cc 3d
       0.1 0.1 0.1 0.1
000080 cd cc cc 3d cd cc cc 3d cd cc cc 3d cd cc cc 3d
       0.1 0.1 0.1 0.1
000090 cd cc cc 3d cd cc cc 3d cd cc cc 3d cd cc cc 3d
       0.1 0.1 0.1 0.1

mean_noise f4 [8, 5]
000000 00 00 00 00 00 00 00 00 00 00 00 00 00 00 00 00
       0.0 0.0 0.0 0.0
000010 00 00 00 00 00 00 00 00 00 00 00 00 00 00 00 00
       0.0 0.0 0.0 0.0
000020 00 00 00 00 00 00 00 00 00 00 00 00 00 00 00 00
       0.0 0.0 0.0 0.0
000030 00 00 00 00 00 00 00 00 00 00 00 00 00 00 00 00
       0.0 0.0 0.0 0.0
000040 00 00 00 00 00 00 00 00 00 00 00 00 00 00 00 00
       0.0 0.0 0.0 0.0
000050 00 00 00 00 00 00 00 00 00 00 00 00 00 00 00 00
       0.0 0.0 0.0 0.0
000060 00 00 00 00 00 00 00 00 00 00 00 00 00 00 00 00
       0.0 0.0 0.0 0.0
000070 00 00 00 00 00 00 00 00 00 00 00 00 00 00 00 00
       0.0 0.0 0.0 0.0
000080 00 00 00 00 00 00 00 00 00 00 00 00 00 00 00 00
       0.0 0.0 0.0 0.0
000090 00 00 00 00 00 00 00 00 00 00 00 00 00 00 00 00
       0.0 0.0 0.0 0.0

mean_noise f4 [8, 5]
000000 00 00 00 00 00 00 00 00 00 00 00 00 00 00 00 00
       0.0 0.0 0.0 0.0
000010 00 00 00 00 00 00 00 00 00 00 00 00 00 00 00 00
       0.0 0.0 0.0 0.0
000020 00 00 00 00 00 00 00 00 00 00 00 00 00 00 00 00
       0.0 0.0 0.0 0.0
000030 00 00 00 00 00 00 00 00 00 00 00 00 00 00 00 00
       0.0 0.0 0.0 0.0
000040 00 00 00 00 00 00 00 00 00 00 00 00 00 00 00 00
       0.0 0.0 0.0 0.0
000050 00 00 00 00 00 00 00 00 00 00 00 00 00 00 00 00
       0.0 0.0 0.0 0.0
000060 00 00 00 00 00 00 00 00 00 00 00 00 00 00 00 00
       0.0 0.0 0.0 0.0
000070 00 00 00 00 00 00 00 00 00 00 00 00 00 00 00 00
       0.0 0.0 0.0 0.0
000080 00 00 00 00 00 00 00 00 00 00 00 00 00 00 00 00
       0.0 0.0 0.0 0.0
000090 00 00 00 00 00 00 00 00 00 00 00 00 00 00 00 00
       0.0 0.0 0.0 0.0

mean_noise f4 [8, 5]
000000 00 00 00 00 00 00 00 00 00 00 00 00 00 00 00 00
       0.0 0.0 0.0 0.0
000010 00 00 00 00 00 00 00 00 00 00 00 00 00 00 00 00
       0.0 0.0 0.0 0.0
000020 00 00 00 00 00 00 00 00 00 00 00 00 00 00 00 00
       0.0 0.0 0.0 0.0
000030 00 00 00 00 00 00 00 00 00 00 00 00 00 00 00 00
       0.0 0.0 0.0 0.0
000040 00 00 00 00 00 00 00 00 00 00 00 00 00 00 00 00
       0.0 0.0 0.0 0.0
000050 00 00 00 00 00 00 00 00 00 00 00 00 00 00 00 00
       0.0 0.0 0.0 0.0
000060 00 00 00 00 00 00 00 00 00 00 00 00 00 00 00 00
       0.0 0.0 0.0 0.0
000070 00 00 00 00 00 00 00 00 00 00 00 00 00 00 00 00
       0.0 0.0 0.0 0.0
000080 00 00 00 00 00 00 00 00 00 00 00 00 00 00 00 00
       0.0 0.0 0.0 0.0
000090 00 00 00 00 00 00 00 00 00 00 00 00 00 00 00 00
       0.0 0.0 0.0 0.0

sample_gaussian f4 [8, 5]
000000 3d 49 d5 3d 5d 2e af bf 57 52 4d 3f f3 ac c2 be
       0.1041436 -1.3686024 0.80203766 -0.38022575
000010 2e 4f 6a bf ee 3c fc 3f ce 93 36 3d 34 b6 f6 be
       -0.9152707 1.9706094 0.04457455 -0.48185885
000020 16 b5 3a 3f 48 3d e8 bf 8c ae 6a 3e e9 ac b3 3f
       0.72932565 -1.8143702 0.22918147 1.4037143
000030 cb 8b 05 3f 9a 2f 53 3f 7d 74 90 3e 22 f7 4a 3f
       0.5216643 0.8249451 0.28213874 0.79283345
000040 80 26 1c 3f 4b 14 18 be 27 e6 b3 3f 12 50 93 3e
       0.60996246 -0.14851491 1.4054612 0.28772026
000050 3f f8 1c 3f f2 12 63 3e 6c 65 a4 3f 61 e1 85 3f
       0.61316293 0.22175196 1.2843451 1.0459405
000060 4e f8 27 3f bd 6a cf 3e 85 9f 63 bf d7 c1 b6 bf
       0.6561326 0.40511122 -0.8891528 -1.4277905
000070 f9 9d ad 3f 19 20 7f 3e 95 db cc 3f 9d b6 65 3f
       1.3563834 0.24914588 1.6004511 0.8973177
000080 75 50 cd bf 7f 8d a0 3f 5b 67 cf be c7 26 1c bf
       -1.6040179 1.2543181 -0.4050854 -0.6099667
000090 d0 88 2b bf 76 0d 6d 3e bc 91 2d 3f f0 0c 19 3f
       -0.67005634 0.23149666 0.678005 0.59785366

sample_gaussian f4 [8, 5]
000000 25 42 20 bf 5e dd bd be 6b 42 c4 3f c8 bd 4f bf
       -0.6260093 -0.37082952 1.5332769 -0.8114896
000010 b5 1c ca 3f e4 d8 3c bd f5 6a bc bf 3d 20 9c 3f
       1.5790011 -0.04610528 -1.4720141 1.2197338
000020 ee 82 2c be f3 9f 9c 3d 80 9a 27 3f 2f fa dd 3e
       -0.1684682 0.076476954 0.65470123 0.43354937
000030 f9 ed 0a 3e 21 24 e3 bf 2c ef b4 3d 45 23 91 bf
       0.13567342 -1.7745401 0.08834681 -1.1338888
000040 15 d5 07 c0 ca 1e d2 bd 55 4c 98 bf 94 7c 89 3e
       -2.1223805 -0.10259779 -1.1898295 0.26852858
000050 00 c2 0e 3f a4 9d d9 3f 05 d8 a9 3f c3 e9 61 3f
       0.5576477 1.7001233 1.3269049 0.8824732
000060 a9 5c c3 3f 9b fa d7 3c 34 87 99 3f a4 fb a7 3e
       1.5262653 0.026364615 1.1994386 0.32809174
000070 a5 ac de be dc 21 ef 3d 24 da 00 be 67 03 aa 3e
       -0.43491092 0.1167638 -0.12583214 0.3320572
000080 b7 83 3b bf ee d7 8f 3f 5b b0 99 bf ed 9c 37 3f
       -0.73247856 1.1237772 -1.2006944 0.71723825
000090 bc 8a 50 40 87 5e ed 3e d7 9a b2 be bb f3 f6 3d
       3.2584677 0.4636118 -0.34883758 0.12058207

sample_gaussian f4 [8, 5]
000000 6f 46 27 bf 9b 89 bc 3d e3 6a 73 bf e1 5a 08 bf
       -0.6534185 0.09205934 -0.9508497 -0.5326367
000010 fd 25 b9 be 4d 6d 62 3f 48 a1 7d 3e 28 4c 32 3f
       -0.36161795 0.8844803 0.24768555 0.69647455
000020 09 18 40 3f 51 3c db 3e c9 9f 32 3f 2e 67 a5 3f
       0.75036675 0.42819455 0.6977506 1.2922113
000030 4c 96 17 c0 c5 0e 9a 3f 79 0f 04 bf 26 4c 6c bf
       -2.3685484 1.2035757 -0.5158611 -0.92303693
000040 cb 3a 9a 3f b8 81 c3 bf 13 0b 22 3e 19 89 0a bf
       1.2049192 -1.5273962 0.15824537 -0.54115444
000050 08 cf 8b 3f 7e c4 ec bf d7 82 bb 3f d8 51 19 3e
       1.0922556 -1.8497465 1.4649304 0.14972627
000060 77 47 c3 3e 81 9c e7 bd fe b9 84 bd 8b e5 16 40
       0.3814046 -0.113091476 -0.06480788 2.3577602
000070 ba 4c d0 3f 2d 00 11 3d 4a 6f bd 3f d6 fb 66 bf
       1.6273415 0.03540056 1.4799588 -0.9022802
000080 9e 96 0c 3f a4 7f 5d 3e 58 1c 70 bf 3a 0c 38 3e
       0.54917324 0.21630722 -0.9379325 0.17973414
000090 28 10 18 bf b7 01 e1 be 41 68 6f bf 02 71 79 3f
       -0.5939965 -0.4394662 -0.93518454 0.9743806

feature_net.linear_layer_0.weight f4 [96, 18]
000000 fc b7 80 3d a2 e9 84 bf 69 a1 05 bf d9 0b 65 bf
       0.06285092 -1.0383799 -0.5219942 -0.89471203
000010 fd 68 e2 3e b1 02 3d 3f 62 d6 2e 3f 93 60 2e 3f
       0.44220725 0.7383223 0.6829587 0.6811611
000020 3f cf f7 3e 62 d5 58 3f be 40 4b 3f 28 0a 34 3e
       0.48400304 0.84700596 0.79395664 0.17582
000030 12 b3 36 bd 9d 1d 95 bc 49 82 53 bd 5d 11 ba be
       -0.04460437 -0.018202597 -0.05163792 -0.36341372
000040 fb c3 f4 bc 42 c7 56 be 8c db c5 3e a9 d7 4d bd
       -0.029878607 -0.20974448 0.38644063 -0.050254498
000050 6d e6 88 bd b7 48 15 bd 12 40 24 3d 6e b9 3f 3c
       -0.06684575 -0.0364463 0.040100165 0.011701925
000060 70 c9 51 be 0e b7 cd be f0 fd 48 bd 06 bc 82 3e
       -0.20486999 -0.40178722 -0.0490703 0.25534075
000070 7d 60 00 3e f6 b0 27 3e db c5 e5 3e a8 b9 63 3e
       0.12536807 0.16376099 0.44877514 0.22238791
000080 e5 31 8a 3e 3f d1 ee 3c e5 1b 06 3e f0 60 b2 bd
       0.26991192 0.02915251 0.13096578 -0.087098956
000090 45 50 b6 3c c4 c6 8d be e7 52 3b 3e 47 18 19 be
       0.022255072 -0.2769071 0.18293343 -0.14950667
0000a0 3e c4 6a be d2 e9 92 3e ae 24 90 be b3 b8 a4 3e
       -0.22926423 0.28694016 -0.28152984 0.32172164
0000b0 44 1b a5 3d 74 7e 88 3e 5f e2 17 3d 35 1d b8 3c
       0.08061841 0.26658976 0.03708112 0.022474864
0000c0 c1 ff c9 be d6 9b 86 3c 07 0d 67 3e 20 3e e0 3d
       -0.39452937 0.01643173 0.22563563 0.109493494
0000d0 db 53 bd be 7b 43 1d 3e eb 88 25 be 39 ef 93 3e
       -0.3697804 0.15357773 -0.16165511 0.2889345
0000e0 f6 2b 0e 3e c1 60 dd bd e7 76 72 3d e5 6c 3b 3e
       0.13883957 -0.1080947 0.059195425 0.18303259
0000f0 36 73 95 3d 65 a9 e3 bd 9f a3 46 3e 93 c4 7a bc
       0.07297365 -0.11116294 0.19398354 -0.015305656
000100 d0 ad c2 bb 2d 03 8f 3e b1 9f 04 3e 1b 84 08 3f
       -0.00594113 0.2793211 0.12951542 0.53326577
000110 5e 43 80 3e 25 69 8a bd f8 58 a5 bf de 99 e2 be
       0.25051397 -0.06758336 -1.2917776 -0.44258016
000120 a6 0e 48 be 94 ec 65 be ff 90 3b 3e d5 4b 9e be
       -0.19536838 -0.22453529 0.1831703 -0.3091723
000130 21 66 87 3d 2a d1 a1 3e 49 b1 99 3e b8 38 46 3e
       0.066112764 0.31604892 0.3001807 0.19357574
000140 64 f0 ba 3d 43 bc 41 3e 53 61 e6 3e 0c 4b 5f bd
       0.09127882 0.18919472 0.44996127 -0.05451493
000150 9d 70 6a be 4b 22 b1 be 31 40 cb 3c e0 60 be 3d
       -0.22894521 -0.34596476 0.024810882 0.09295821
000160 e9 53 51 3e 09 6a a4 bc 52 8f 40 be 30 26 a6 be
       0.20442165 -0.020070093 -0.18804672 -0.3245101
000170 58 59 9b be 5f 9d 15 3d ff 70 e6 bd a5 56 6d 3e
       -0.303416 0.036527034 -0.11252021 0.23177584
000180 0f aa 89 3e 50 83 b3 3e 28 9b 4b be 67 07 06 3f
       0.26887557 0.3506112 -0.19883406 0.52355045
000190 e6 3e 8a be e8 91 21 be 09 be 60 be d3 77 0a bf
       -0.27001113 -0.15778315 -0.21947493 -0.5408909
0001a0 31 7d 98 be 72 f9 d7 3e 3b fb 0a 3e 99 87 e0 be
       -0.29783013 0.421825 0.135724 -0.43853453
0001b0 48 31 05 3f af 17 80 be d5 22 88 3b 07 30 30 bf
       0.5202832 -0.2501807 0.004154543 -0.68823284
0001c0 ca d0 b5 be 6f da 49 3f 00 e2 80 bd 78 10 59 3f
       -0.35510856 0.7884893 -0.06293106 0.84790754
0001d0 da 1c 76 be 9e eb 3c 3f e5 bf d7 3e 68 e7 3d bd
       -0.24034443 0.73797023 0.4213859 -0.046363264
0001e0 03 40 fc bd 20 83 82 3e da a0 60 bd 3f 64 51 3e
       -0.12316897 0.25490665 -0.0548409 0.20448397
0001f0 1b 42 6e be 5d fb 30 3b c6 39 d3 bd 1f 21 32 bc
       -0.23267405 0.0027005293 -0.10313754 -0.0108721545
000200 83 ac 06 be 7b de 15 3d b1 2c 8b 3c ec 60 f2 bb
       -0.13151745 0.036589127 0.016989084 -0.007396808
000210 7c 3f af 3d bb 2f d6 3b 70 4a 9b 3d 85 dc 2b 3d
       0.085570306 0.0065364516 0.07582557 0.04195835
000220 b2 51 91 3d 19 47 81 ba 52 97 02 be c3 94 0b bd
       0.0709566 -0.0009863108 -0.12753037 -0.034077417
000230 54 db 1c 3e 2f 6c 4d bd 0c 50 a4 bf 03 a1 02 bc
       0.15318042 -0.050152 -1.2836928 -0.0079729585
000240 73 cf e1 bd 5b 65 bf be c7 5c a0 bd 68 cb 9a bc
       -0.11025896 -0.37382016 -0.07830196 -0.01889582
000250 7d 02 3c bc 52 a6 dd 3d 09 c9 83 bd a0 87 5a 3e
       -0.011475203 0.10822739 -0.06434829 0.213408
000260 58 f6 8f bd e9 da 98 3e c0 dc 9c 3e b6 8d 9d bd
       -0.07029408 0.29854515 0.3063717 -0.07693045
000270 58 fd f6 be 8a 8e b6 be 37 eb e9 3e d6 ae 96 be
       -0.4824016 -0.35655624 0.45687267 -0.29430264
000280 b1 a3 ff bd bb 2f 49 3e 86 b7 ad 3e 0d 7f c2 be
       -0.124823935 0.19647114 0.3392908 -0.37987557
000290 c5 89 b0 be 56 6e 2f bf 2d ff c8 3e 61 1d 62 3f
       -0.3448011 -0.68527734 0.39257184 0.8832608
0002a0 d1 dc 51 3f 86 5e 84 3f 43 9f ff 3e 8b ee 86 3f
       0.81977564 1.0341346 0.49926195 1.0541548
0002b0 9d 2a 86 3e c7 9c 5d 3f 38 cf e4 bb f3 4e 9d 3e
       0.26204386 0.8656735 -0.00698271 0.30724296
0002c0 35 62 7a 3e 30 c6 0b 3b 4d 46 ab 3e b4 02 98 3d
       0.24451526 0.0021327846 0.33452073 0.074223906
0002d0 cf 37 99 3e ae 26 3f 3c 6a 89 16 bf 90 07 86 bf
       0.2992539 0.011666937 -0.5880343 -1.0471058
0002e0 8a 87 c9 3e 1e ad b9 3e 33 bb ff 3e 54 62 90 3e
       0.3936122 0.3626489 0.4994751 0.28200018
0002f0 62 8a a6 3e ca 70 fb 3e ca 2f 8c 3d 28 e0 92 3d
       0.32527453 0.4910949 0.068450525 0.07171661
000300 af 22 c5 3e 4c 24 50 3f c6 42 02 3e 40 f7 89 bb
       0.38503024 0.81305385 0.12720785 -0.0042103827
000310 b9 d1 8e be 9f 7a a5 3c fd 79 bc 3e fb 2a e9 be
       -0.2789438 0.020200072 0.3681182 -0.45540604
000320 fa 9b fb be ba 2f b7 be fe 3a 0c be f8 72 17 3f
       -0.49142438 -0.357786 -0.13694379 0.59159803
000330 15 d5 4e 3e 90 a2 c1 3e b7 66 ca 3d ab 27 e3 3e
       0.20198472 0.37819338 0.098828726 0.44366202
000340 d6 1c d5 3e bf 29 a3 3d 64 77 77 3e 3d 2d 9f 3d
       0.41623563 0.07966947 0.24166638 0.077723004
000350 b8 54 90 3c 22 ba 14 3d fc e7 ec bd 79 f1 a5 3e
       0.017618522 0.036310323 -0.11567685 0.32410792
000360 3a ef 9b 3d c9 0b 9c bd f0 3c 5c be a1 cf 65 be
       0.07613988 -0.07619435 -0.21507621 -0.22442485
000370 83 fd bd bd f5 64 98 bd 4a 76 05 3e 78 43 79 3e
       -0.09276869 -0.07441131 0.13033405 0.24342144
000380 66 12 a7 3d 40 f7 45 3e 97 95 6c 3e 24 88 a6 bc
       0.08157806 0.193326 0.23103939 -0.020328589
000390 02 fa 9d 3c 3c 65 8c bd d1 60 28 be dc 7a df 3e
       0.019284252 -0.068552464 -0.16443183 0.43648422
0003a0 58 fa 5a bd 3f bb e2 3d 80 29 6e bd 8f 0e 45 be
       -0.053461403 0.110708706 -0.058145046 -0.19243835
0003b0 8f 33 87 be f3 2b 13 bf 16 24 77 3d 8d 5a 84 be
       -0.26406524 -0.57488936 0.06033715 -0.25850335
0003c0 14 ca 53 3d 1d 07 32 3d 6b b6 c7 3b 72 64 01 bc
       0.05170639 0.043463815 0.006094744 -0.007897483
0003d0 79 80 11 3f 3e c8 07 3e ea fa 17 bf af 39 e8 bb
       0.5683666 0.1325998 -0.5936724 -0.0070869545
0003e0 a7 bc 45 3e de 50 93 3d 8c ee 79 3e a8 9c a0 3d
       0.19310246 0.071931586 0.24407405 0.0784238
0003f0 9f 07 59 3e 0c 7d 9f bd e8 36 d1 be e0 3e 0d bf
       0.21194313 -0.07787523 -0.40862203 -0.55174065

feature_net.linear_layer_0.bias f4 [96]
000000 60 72 88 3e fc 13 f4 be 1f f2 c6 bc 46 68 9c be
       0.2664976 -0.47671497 -0.024285374 -0.30548304
000010 40 4f 76 be 3f 30 17 3e 97 b6 f1 3e be 5d 5d be
       -0.24053669 0.14764498 0.47209617 -0.21617791
000020 40 80 4f be cc eb 25 3f 9a 08 02 3f 82 45 1b 3e
       -0.20263767 0.6481292 0.50794375 0.15163234
000030 59 6f 08 bf 3d 13 d3 be a7 89 36 be bd 48 d0 bd
       -0.53294903 -0.41225615 -0.17825948 -0.10170124
000040 8f ce 25 be 05 aa 97 be 5d 7c 35 3f 7c d4 4a 3c
       -0.16192077 -0.29621902 0.7089289 0.012379762
000050 a4 4a ad bd 9c 27 0d be 62 ef cc 3c ae d5 14 bd
       -0.08461502 -0.13784641 0.02501649 -0.036336593
000060 43 e8 be be c0 55 d2 bd e3 50 7d be 35 3e 42 be
       -0.37286577 -0.10270262 -0.24737887 -0.18969043
000070 35 6d 18 bf 0f 1d 9e 3c 34 a5 38 be 92 da 7e be
       -0.59541637 0.019300966 -0.1803177 -0.24888065
000080 d1 8e bb 3e 04 6b 9a 3e 4b e6 da 3e 3a 3f 86 3e
       0.36632398 0.3015977 0.42753825 0.26220113
000090 72 2d d9 3e 7b 4e 8e 3e 64 27 12 3f 08 38 f3 3e
       0.42417485 0.2779425 0.57091355 0.47503686
0000a0 ae 79 0e 3d f0 98 09 3f 6a de f1 3e cd b4 09 3f
       0.03478401 0.5374899 0.4724 0.53791505
0000b0 41 3a bc 3e 14 76 b1 3e b7 ae c1 3e 8c 03 fb 3e
       0.36763194 0.346604 0.3782861 0.49026144
0000c0 7c ae 05 3f 67 6d e1 3e d4 d7 9e 3e 05 89 bd 3e
       0.5221937 0.4402878 0.3102404 0.370186
0000d0 6f b8 e4 3e 1a b3 ea 3e 8c 40 01 3f b0 35 e4 3e
       0.44671962 0.4583977 0.50489116 0.4457221
0000e0 48 0f f3 3e 27 50 09 3f 27 15 f1 3e d5 0f fd 3e
       0.47472596 0.5363793 0.4708645 0.4942614
0000f0 4c e7 06 3f 6c 37 0a 3f 84 b9 0a 3f ae 46 e2 3e
       0.5269668 0.5399082 0.54189324 0.4419455
000100 21 80 67 3e 40 41 54 3d 8e 8c 10 3d e2 d5 37 3d
       0.22607471 0.05182004 0.035290293 0.04488171
000110 1b 1f 25 be f5 aa 75 3d 32 56 c8 3d 87 4e ac 3d
       -0.16125147 0.05997749 0.097820655 0.084134154
000120 6d 6a 11 3e 79 f2 b2 3d fd 4f df 3d 23 f5 25 3e
       0.14200754 0.08737654 0.109039284 0.16206793
000130 d6 3f 80 3d 9c 25 0b 3e 05 38 a7 3d 4c 0d 12 3e
       0.06262176 0.13588566 0.08164982 0.14262885
000140 5b 68 20 3d a4 fd 22 3e 2a 8b 9a 3c c5 9b 68 3d
       0.03916202 0.15917069 0.018865187 0.05678918
000150 da f8 a3 3d 29 80 df 3d c6 97 b9 3d b6 7b 1e bc
       0.08006449 0.109131165 0.090621516 -0.00967305
000160 4c 84 bf 3d dc 33 12 3e 86 9c 4e 3d 2d 76 4b bd
       0.093514055 0.14277595 0.05044224 -0.049673248
000170 7e fd f1 3d 06 a3 91 3d f0 d9 81 3d 30 a4 b9 3d
       0.11815928 0.071111724 0.063403964 0.090645194

feature_net.layer_norm_0.weight f4 [96]
000000 35 5e 58 3f 79 ac 3e 3f 0d dd 60 3f 49 5c 82 3f
       0.8451875 0.7448192 0.87837297 1.0184413
000010 49 95 62 3f b1 fb 5e 3f e3 f9 8f 3f 83 c6 65 3f
       0.8850904 0.871028 1.1248134 0.8975603
000020 12 5a 60 3f f6 57 87 3f ca 0e 87 3f fd 8f 84 3f
       0.87637436 1.0573719 1.0551388 1.0356442
000030 7b eb 63 3f da ce 5b 3f 96 29 8e 3f 7c a9 5b 3f
       0.8903119 0.85862505 1.1106441 0.8580549
000040 4d d2 61 3f f2 8a 4b 3f 97 4f 8c 3f 84 50 65 3f
       0.8821152 0.7950889 1.0961789 0.8957598
000050 68 54 5e 3f 5a 71 9e 3f af 59 85 3f 15 26 91 3f
       0.86847544 1.2378342 1.0417994 1.1339747
000060 42 21 95 3f 32 6a 67 3f 25 49 56 3f 04 1a 6c 3f
       1.1650774 0.90396416 0.8370536 0.92227197
000070 19 08 4b 3f 25 e7 82 3f d5 5d 44 3f a8 a1 8c 3f
       0.7930923 1.022679 0.76705676 1.0986834
000080 9e c3 94 3f fa b4 96 3f 1e 7a 98 3f 1e 47 b2 3f
       1.1622198 1.177398 1.1912267 1.3927953
000090 7e 4e a9 3f 46 b5 9c 3f 33 56 a9 3f 8f b7 a3 3f
       1.3227079 1.224282 1.3229431 1.2790393
0000a0 00 24 98 3f eb 20 a4 3f d2 b1 97 3f a8 ca a7 3f
       1.1885986 1.2822546 1.1851141 1.3108721
0000b0 98 7c 94 3f 64 24 99 3f 63 59 95 3f e7 68 9f 3f
       1.1600523 1.196423 1.1667904 1.2453889
0000c0 d2 09 a1 3f f7 a5 9a 3f 53 5f 96 3f 80 f0 97 3f
       1.2581122 1.2081898 1.1747841 1.187027
0000d0 1a d3 99 3f 2c 1d 9b 3f 1c 95 b0 3f 87 b5 9c 3f
       1.2017548 1.2118278 1.3795505 1.2242898
0000e0 5e 03 a3 3f a4 e8 a7 3f cd 27 9a 3f 02 a9 aa 3f
       1.2735403 1.3117871 1.2043396 1.3332827
0000f0 be 2e 9b 3f 09 cd ad 3f 5f e4 ad 3f 7d 71 9b 3f
       1.212364 1.3578197 1.3585318 1.2144009
000100 75 9f a1 3f c9 ab aa 3f 4a 8b a1 3f e4 43 af 3f
       1.2626787 1.3333675 1.2620633 1.3692594
000110 f9 ca 92 3f a1 ad a7 3f 35 f0 a8 3f 7f 44 ad 3f
       1.1468192 1.3099862 1.3198305 1.3536528
000120 7f f7 b0 3f 1c 83 ad 3f 1f 0e b5 3f d8 80 b2 3f
       1.382553 1.3555636 1.4144934 1.394557
000130 33 ef b3 3f 88 c9 b7 3f 3f de b2 3f a4 33 b9 3f
       1.4057373 1.4358377 1.3974074 1.4468884
000140 65 c1 9f 3f 7f 36 b3 3f 60 a7 b3 3f e4 f7 a5 3f
       1.2480894 1.4001006 1.4035454 1.2966275
000150 86 00 aa 3f 1e 36 a2 3f 66 32 b7 3f b5 c8 9a 3f
       1.328141 1.2672765 1.4312255 1.2092501
000160 34 44 b6 3f 7b 5a b9 3f aa af ab 3f 0b e0 99 3f
       1.4239564 1.4480737 1.3412983 1.2021497
000170 33 df b5 3f 41 63 ad 3f e4 0f aa 3f db 89 ab 3f
       1.420874 1.3545915 1.32861 1.3401445

feature_net.layer_norm_0.bias f4 [96]
000000 6a 4f 78 be ab fc 7f be d2 c4 fc bd dd 44 1b 3d
       -0.24249044 -0.24998729 -0.12342228 0.03790747
000010 84 4f 04 be b8 e2 0e be 60 30 ca 3d f1 0e d6 bd
       -0.12920958 -0.13953674 0.09872508 -0.104520686
000020 3d 9a 0c be 68 83 fb 3a 5c 65 fb 3c 8c 20 c1 bb
       -0.13730712 0.0019188942 0.03068798 -0.0058937725
000030 87 5b 1f be d3 2e 1e be 7d b7 b7 3d d4 3c 0d be
       -0.15562259 -0.1544755 0.089705445 -0.13792735
000040 c6 5f 13 be 1f e4 cf bd b8 e0 10 3c b9 29 d0 bd
       -0.14392003 -0.101509325 0.00884264 -0.10164208
000050 4d d8 28 be 28 ef d2 3d f6 2d 41 3d 1f 56 e2 3d
       -0.16488762 0.10299522 0.047162972 0.110515825
000060 2d 70 53 3d 46 27 cd bd 57 5c 24 be f6 78 10 3d
       0.05162065 -0.100172564 -0.1605085 0.035271607
000070 d3 1e 1d be b7 e1 26 3c e7 86 6b be bf b0 d4 3d
       -0.1534379 0.010185651 -0.2300068 0.10385274
000080 d7 5f 32 3e d7 ed 44 3e a2 0d 48 3e 5b 84 b3 3e
       0.17419372 0.19231354 0.1953645 0.35061917
000090 6c 91 81 3e 0c 6e 98 3e ad fe 93 3e bf 4d 6b 3e
       0.2530626 0.2977146 0.2890524 0.22978877
0000a0 95 83 6d 3e 80 39 94 3e 65 66 51 3e c2 24 92 3e
       0.23194726 0.2895012 0.20449217 0.2854367
0000b0 1b 23 34 3e f5 78 3d 3e 9e b4 34 3e ed c9 88 3e
       0.17591517 0.18503173 0.17647025 0.26716557
0000c0 4d 2c 88 3e 2e 4e 4d 3e 2c 69 2a 3e 78 51 39 3e
       0.265963 0.20049354 0.16641682 0.18097484
0000d0 da 9e 5f 3e 73 a4 5a 3e b5 71 a4 3e a8 2a 65 3e
       0.21837941 0.21351795 0.32118002 0.22379553
0000e0 2b a0 90 3e 8d c3 97 3e 27 5f 6e 3e 1c 4f a1 3e
       0.28247198 0.2964138 0.23278485 0.31505668
0000f0 b4 b4 61 3e df 8e 9e 3e 5e ea 99 3e af 5d 5b 3e
       0.22041589 0.30968377 0.3006162 0.21422456
000100 1f 65 85 3e 8d d1 b1 3e 46 26 86 3e 32 90 b3 3e
       0.26053712 0.34730187 0.26201075 0.3507095
000110 c8 0d 02 3e 16 90 ac 3e 4c 53 a3 3e a0 4b b7 3e
       0.1270057 0.3370368 0.31899488 0.35799885
000120 05 2f b6 3e f9 e0 ae 3e e6 4d c8 3e 24 8a ba 3e
       0.35582748 0.34156016 0.39121932 0.36433518
000130 81 24 d3 3e cb 8f cd 3e 21 86 ca 3e d8 a7 d6 3e
       0.41238788 0.40148768 0.39555457 0.4192493
000140 42 1d 61 3e 9e fb b7 3e ab ac cb 3e 06 f1 9b 3e
       0.21983817 0.35934156 0.39780173 0.30457324
000150 58 3a ae 3e f9 66 7b 3e 74 49 e0 3e 5b b7 7a 3e
       0.34028888 0.24551 0.4380604 0.24484007
000160 88 3b d0 3e 2e 9f d9 3e 7f 77 a8 3e d5 2c 4f 3e
       0.4067042 0.42504257 0.32903668 0.20231946
000170 b1 3e d7 3e f2 ec b0 3e 02 41 a1 3e 2f a3 ab 3e
       0.42040017 0.34555775 0.3149491 0.33522937

feature_net.linear_layer_output.weight f4 [5, 96]
000000 6d 67 3b be 46 29 e8 bd aa d5 56 3e f5 10 c9 be
       -0.18301173 -0.11335997 0.20979944 -0.3927075
000010 03 76 e6 bc 19 9b f9 3c 5c a6 75 be 55 35 ee 3c
       -0.028132444 0.030469464 -0.23989242 0.029078165
000020 eb 70 43 3c b7 12 27 be cb 7a b6 be 36 9b b9 be
       0.011928777 -0.16315733 -0.3564056 -0.3625123
000030 63 99 b6 be 1b ec a4 3d 43 96 d3 be 25 84 ba be
       -0.356639 0.08052846 -0.41325578 -0.36428943
000040 ee 33 0f be 1e 2c 9e be 44 b3 66 be 40 c1 dc be
       -0.13984653 -0.30893034 -0.22529322 -0.43116188
000050 8a 6b a3 be dd 7b b3 be 46 1e bb be c5 bc ce be
       -0.31917983 -0.35055438 -0.36546534 -0.40378395
000060 6c c0 d9 be f7 d9 21 bf 92 2a 77 bc 7e f2 ca be
       -0.4252962 -0.6322321 -0.015085833 -0.39638132
000070 e3 e3 5b be 21 de cb be cb 60 1f be 73 26 71 be
       -0.2147365 -0.39817908 -0.15564267 -0.23549823
000080 1e f3 5b be b9 24 32 be 7a 0f 49 be 3d 64 07 be
       -0.2147946 -0.17396821 -0.1963481 -0.13221832
000090 be 3b 24 be f0 51 01 be a7 d2 49 be 20 b5 17 be
       -0.16038415 -0.12628913 -0.19709264 -0.14815187
0000a0 32 f1 ad bd 8c a3 23 be 06 98 3c be 86 76 20 be
       -0.0849327 -0.15980357 -0.18417367 -0.15670213
0000b0 01 9c 37 be ec 59 2f be c7 df 45 be 23 01 24 be
       -0.17930605 -0.17124146 -0.19323646 -0.16016059
0000c0 47 ce 23 be c1 10 43 be 39 b0 2f be 62 15 16 be
       -0.15996657 -0.1904936 -0.17157067 -0.14656594
0000d0 c8 f2 45 be c9 ef 30 be 3a f7 05 be 27 98 1e be
       -0.19330895 -0.17278971 -0.1308259 -0.15487729
0000e0 21 2a 3d be 3a ed 3f be da 72 25 be d1 a5 1f be
       -0.18473102 -0.18742839 -0.16157094 -0.15590598
0000f0 4e e1 4e be e9 5d 40 be d9 c9 33 be 30 ce 44 be
       -0.20203134 -0.18785824 -0.17557468 -0.1921928
000100 14 28 1b be cc 16 d1 bd 94 8a bb bd 35 21 03 be
       -0.15152007 -0.10209426 -0.09157291 -0.12805636
000110 65 ed 0b be b3 d0 ce bd 4e d2 c8 bd 5b 17 a4 bd
       -0.13664778 -0.100984 -0.098057374 -0.08012267
000120 76 23 04 be d9 0b ac bd 2b b8 e0 bd c0 cd fd bd
       -0.12904152 -0.08400697 -0.10972627 -0.12392759
000130 2e ba fb bd a4 2e df bd 9a 99 e1 bd cc 6f fe bd
       -0.1229137 -0.10897568 -0.11015625 -0.12423667
000140 04 4f 24 be 7c 49 e6 bd e7 9a 07 be 43 30 d7 bd
       -0.16045767 -0.11244485 -0.13242684 -0.10507252
000150 f8 2a ec bd 38 19 1b be 1d 9c 0d be 2b 8e 09 be
       -0.11531633 -0.15146339 -0.13829084 -0.13433139
000160 7b 8a d9 bd d8 f5 0a be 88 47 cd bd ab d5 0a be
       -0.10622116 -0.13570344 -0.10023409 -0.1355807
000170 be 3e 13 be 3e c7 e5 bd f6 9e b6 bd 14 1f 0b be
       -0.14379403 -0.11219643 -0.08917038 -0.13586074
000180 6d 80 1e 3f be 37 28 3e 38 39 c6 3e 9a 28 ab bc
       0.6191471 0.16427514 0.3871553 -0.020893384
000190 d7 1f 31 3e 34 2b 96 3e 33 96 e2 3e 92 db a5 be
       0.17297302 0.29329836 0.44255218 -0.3239408
0001a0 ed 01 5f 3e 66 53 12 3f d4 36 1f 3f ea fb b6 3e
       0.21778078 0.57158506 0.62193036 0.3573907
0001b0 14 1e 24 be e3 95 bf 3e d0 c8 b7 3d 1c 79 1c 3e
       -0.16027099 0.37419042 0.08973849 0.15280575
0001c0 4a da f8 be b2 a3 6f 3c 91 8a 25 3f 13 13 08 3e
       -0.4860404 0.01462643 0.6466456 0.13288526
0001d0 87 b9 9d 3e 1f 8f 06 be 4a f5 f3 3d 75 54 9e be
       0.3080561 -0.13140534 0.119120196 -0.3092381
0001e0 32 74 23 bf 0b 1a 13 3e 68 7c af 3e 52 2e 26 bf
       -0.63849175 0.14365403 0.34274602 -0.6491443
0001f0 35 9b 58 be 99 86 d6 3c b5 bc 88 be d6 5e 21 3e
       -0.21152957 0.026187228 -0.26706472 0.15758833
000200 90 41 aa 3e c6 78 aa 3e 1c d0 b3 3e b1 0d c9 3e
       0.33253145 0.33295268 0.35119712 0.39268258
000210 e8 5b ba 3e d2 79 a3 3e bd 41 bd 3e e7 a9 c1 3e
       0.36398244 0.3192888 0.36964217 0.37824938
000220 96 2f 93 3e 04 0e 9f 3e 8d c3 b8 3e 4d 88 b7 3e
       0.28747243 0.3106538 0.36086693 0.35846177
000230 cb bf a6 3e 63 de ae 3e 89 df ac 3e ec 45 ac 3e
       0.325682 0.34154043 0.33764294 0.33647096
000240 9e 22 ae 3e 8c 76 b4 3e bc a0 a7 3e 5c f9 c8 3e
       0.34010786 0.35246694 0.32739818 0.39252746
000250 cd a6 b0 3e 5d 43 b4 3e 41 b0 b7 3e 93 46 59 3e
       0.3450226 0.35207644 0.3587666 0.21218328
000260 ac a1 94 3e 6e 7f b9 3e e7 40 a9 3e 1a e1 b2 3e
       0.29029596 0.36230034 0.3305733 0.34937364
000270 6b d5 b7 3e 1e 8a ae 3e 8b 39 ae 3e d0 ca c1 3e
       0.35905012 0.3408975 0.34028277 0.37850046
000280 db d3 11 3e 7b c4 e1 3d 82 35 19 3e a7 28 01 3e
       0.14240973 0.11023804 0.14961818 0.12613164
000290 d5 f6 f0 3d ee e5 06 3e 66 38 07 3e f1 af 07 3e
       0.117658295 0.13173649 0.13205108 0.1325071
0002a0 5f 4d 1a 3e 0a 2e 03 3e 34 fc f7 3d 9e e3 fb 3d
       0.15068577 0.12810531 0.12108651 0.12299274
0002b0 06 40 04 3e c1 db 04 3e 93 bf f8 3d 68 30 1d 3e
       0.12915048 0.12974454 0.12145915 0.15350497
0002c0 01 0d e5 3d f5 74 0b 3e 60 8b fe 3d 3b 16 ea 3d
       0.11184121 0.13618834 0.124289274 0.114300214
0002d0 2f 40 07 3e 59 dd bc 3d 04 3c 15 3e 3e 9c 0b 3e
       0.13208078 0.09221906 0.14573675 0.1363382
0002e0 f0 17 07 3e 38 a0 16 3e 72 88 05 3e 2d d3 fc 3d
       0.13192725 0.14709556 0.13040331 0.12344966
0002f0 cb 08 08 3e 12 68 f6 3d 3b 59 ec 3d ec 72 96 3d
       0.13284604 0.120315686 0.11540457 0.07346138
000300 5e 30 2d 3f d5 a6 95 be a3 b2 cf 3e 9a 5a 8c be
       0.6765193 -0.29228845 0.40565977 -0.27412874
000310 ef 02 02 3d b9 12 18 3f 41 da 13 3f 4c f1 1b bd
       0.03174108 0.5940357 0.57754904 -0.038071916
000320 fb 88 bd 3e 8f 02 23 3f 89 45 1c 3f 8a 7a cb 3e
       0.3701857 0.6367578 0.610436 0.39741927
000330 e0 3e 26 3c 8c ff 35 be 8f 53 a8 3e f1 cf 06 3f
       0.0101468265 -0.17773265 0.3287625 0.52661043
000340 b4 59 ed 3e 8e 34 10 bf 14 e6 26 3f cf 18 0c 3f
       0.463575 -0.5633019 0.6519482 0.54725355
000350 61 3b dc 3e 30 f2 be 3e f9 1c 03 3f f3 12 9f 3e
       0.43014053 0.3729415 0.51216084 0.31069145
000360 80 c1 67 be 9a c5 15 3f bb 8b ef 3e 76 21 26 bf
       -0.22632408 0.5850464 0.46786293 -0.6489481
000370 53 2d 4a be b8 d5 2a 3f 27 00 0a 3f e6 63 93 3e
       -0.19743852 0.6673236 0.5390648 0.28787154
000380 c8 af a4 3e 3f 6a a2 3e 21 fe a3 3e 9d 71 8a 3e
       0.3216536 0.31721684 0.32029822 0.27039805
000390 81 dc a5 3e 34 18 93 3e c0 de ae 3e 8b d9 ab 3e
       0.32394794 0.28729403 0.3415432 0.3356441
0003a0 1f d6 8f 3e f7 14 b0 3e 8d 09 a5 3e 7a ee a2 3e
       0.2809305 0.34390995 0.3223385 0.31822568
0003b0 d9 6d 9f 3e dd f1 9c 3e ed 18 a0 3e f2 4f 92 3e
       0.31138495 0.30653277 0.31269017 0.28576618
0003c0 77 eb a7 3e a6 b5 93 3e 6d 39 9f 3e b6 7a 9e 3e
       0.32796833 0.28849524 0.310985 0.30952996
0003d0 6a 18 97 3e 97 a2 ab 3e 6d f8 a9 3e aa 02 bd 3e
       0.29510814 0.33522484 0.33197346 0.36916095
0003e0 5a 31 9b 3e 12 db b0 3e 4f 57 a2 3e c9 d6 9a 3e
       0.3031109 0.34542137 0.31707236 0.30241993
0003f0 17 cf aa 3e d1 2b 9f 3e 86 11 ac 3e 73 39 a3 3e
       0.33361122 0.31088117 0.3360712 0.31879768

feature_net.linear_layer_output.bias f4 [5]
000000 2d 91 9f be 26 5d a6 3e bf 8d f9 3e 8d 01 ea be
       -0.31165448 0.32492942 0.48740956 -0.45704308
000010 5a ef af be
       -0.34362298

feature_net.linear_layer_0.weight f4 [128, 18]
000000 a0 8b 0e 3e 5d b1 29 3e 67 e5 9f 3e 9e 7e 08 3f
       0.1392045 0.16571565 0.31229708 0.533182
000010 09 ab b8 be c4 ae 39 bd 8c e2 19 be d8 d9 a0 be
       -0.3606799 -0.045332685 -0.15027827 -0.31416202
000020 42 6d f7 3e fc 86 02 be f9 6e cd be 11 27 e5 3c
       0.48325545 -0.12746805 -0.40123728 0.02797273
000030 87 24 29 3e 42 77 87 3e 55 ca be bc 8f 9d 0f bc
       0.1651784 0.26458174 -0.023289839 -0.008765592
000040 a7 e7 26 3f d5 41 8e bd c6 3c d6 be 3b dd 8e 3e
       0.65197223 -0.0694615 -0.4184324 0.2790316
000050 63 96 23 be 9a 5c 80 3d 2f bb 9d 3e 20 47 7a 3d
       -0.15975337 0.06267662 0.30806872 0.061102986
000060 59 ca 83 bd 2e 6f c0 ba da c1 9f be 25 ef a8 bd
       -0.06435079 -0.0014681572 -0.31202585 -0.08248738
000070 0b c1 04 bf ad 0a 84 bd 12 fc 27 3f 01 1c e2 3e
       -0.5185706 -0.06447349 0.65619004 0.4416199
000080 71 a0 28 3e ce 97 6a bd b3 3e a7 3e c3 9c 9d 3d
       0.16467454 -0.05727368 0.32665023 0.076959155
000090 97 7a 51 bf a0 9c 6b be f3 d9 eb be 42 0a 17 be
       -0.8182768 -0.23008966 -0.4606472 -0.14750007
0000a0 50 41 bd 3e 19 b1 82 3e 75 12 82 3e 2c 4a 8d 3e
       0.36963892 0.2552574 0.25404707 0.2759565
0000b0 dc e4 e1 3e d9 67 8d 3e d0 3e fe bc 1e 02 18 bf
       0.44119918 0.27618292 -0.03103581 -0.5937823
0000c0 b1 69 a7 be b9 56 c0 be 90 ed a1 3d 70 f1 0c 3d
       -0.32697824 -0.37566164 0.079066396 0.03440994
0000d0 8a 45 04 be 92 95 e2 3e d3 37 06 3e c3 1a 3d be
       -0.12917152 0.44254738 0.13107233 -0.1846724
0000e0 42 16 3b bd 34 42 a4 3c 76 1b 0d bd 76 0b 89 bd
       -0.045675524 0.0200511 -0.034450017 -0.06691639
0000f0 9e bf 07 be 11 3a 81 bc 32 ed ca bc 21 a3 ba be
       -0.1325669 -0.015774759 -0.024771307 -0.36452582
000100 cf 94 09 3f 88 00 cd 3e 30 eb ac 3e 89 d5 91 3e
       0.5374269 0.40039468 0.33773184 0.28483227
000110 30 a1 c7 3e dc 5e 88 bd 4f 9a 0e 3c f0 52 7a bc
       0.38990164 -0.06658718 0.008703782 -0.015278563
000120 51 d3 52 be b0 cc f7 be 17 17 aa be 48 73 9f be
       -0.20588423 -0.48398352 -0.3322074 -0.3114264
000130 2f f0 d8 3d ef ea 1c 3f 5d f6 74 3c fe f2 11 3f
       0.105926864 0.6129598 0.014951316 0.570114
000140 46 df 68 bd 5b 5a 1a 3f 6e d3 8a be f4 a0 af 3e
       -0.056853555 0.6029412 -0.27114433 0.34302485
000150 95 fc 0a 3e 9a ed 89 bd d4 42 c9 3c 31 9e 84 be
       0.13572915 -0.06734772 0.024567999 -0.2590194
000160 24 30 1d be e2 29 3d 3e af 50 d1 be 97 70 bd be
       -0.15350395 0.18473008 -0.4088187 -0.36999962
000170 c3 81 d1 be f9 73 2e be 38 81 c0 3e 53 56 e1 3e
       -0.40919313 -0.17036428 0.37598586 0.44011173
000180 3b c2 2a 3e d0 dd dc 3e 41 e8 7c 3e 54 bd e7 3e
       0.16675656 0.4313798 0.24697973 0.45261633
000190 36 eb fc bd dd 53 9f 3d c0 55 82 3d 76 3f ce be
       -0.123495504 0.077796675 0.06364012 -0.40282792
0001a0 0b 91 3d 3e 35 7f 83 be cc 63 7a 3c 8b ed f5 3d
       0.18512361 -0.2568299 0.0152825825 0.12008198
0001b0 70 aa e6 bd b8 be 1f be e8 0a 13 bf 60 d4 85 3d
       -0.11262977 -0.15600097 -0.57438517 0.06534648
0001c0 bd c7 65 be 30 06 0d be 08 c3 e0 bd f2 38 14 bd
       -0.22439475 -0.13771892 -0.10974699 -0.03618712
0001d0 dc 65 0a bc 53 b1 8c 3e 4f 96 52 3c f5 d5 c9 3e
       -0.008447137 0.27479038 0.012853219 0.3942105
0001e0 bf 5c ae 3d fb 14 37 bc 5b eb 96 bd db 2d 33 be
       0.08513784 -0.011174436 -0.07369109 -0.17497961
0001f0 b1 13 9d 3d bf 3d 3a be c8 bd e2 be 86 16 cb be
       0.076697715 -0.18187617 -0.44285417 -0.39665622
000200 35 1c 91 3d ff 91 d0 bf 18 16 45 3e 4b 6c 96 be
       0.07085458 -1.6294554 0.1924671 -0.29379496
000210 1a 0c 5a 3e 0a 59 6f be e3 94 d5 3d e5 55 ce bd
       0.21293679 -0.2337381 0.104287885 -0.10074977
000220 f5 2a ec bc 23 e8 8f be 72 b3 c2 3e 88 c0 85 be
       -0.028829077 -0.28106794 0.3802753 -0.26123452
000230 1b 52 7c be a7 24 5b 3e a5 34 2a be cb 0f 73 3e
       -0.24640696 0.214007 -0.16621645 0.23736493
000240 d1 3c 04 3e b0 ca 36 bd c1 00 0e 3d d6 63 8b be
       0.12913825 -0.04462689 0.034668688 -0.27224606
000250 16 ca bd bd b6 d0 94 3d 32 ad 8e 3e 8f d0 aa 3e
       -0.092670605 0.07266371 0.27866513 0.33362243
000260 09 44 c4 bc a7 00 ca bd e6 02 5f bc ca 03 b3 3e
       -0.023958223 -0.09863406 -0.013611531 0.34963828
000270 95 9b 6d 3e d9 f5 aa be ef 1c 96 3e 81 8b 09 bf
       0.23203881 -0.33390692 0.2931895 -0.5372849
000280 f1 94 05 3e 5c 3f 6d 40 e2 90 76 3f 4d e8 a4 3e
       0.13045098 3.7069921 0.96314824 0.3220848
000290 74 0a 92 bc 0d bc 0f be 3f a0 2c 3e 7c fa f3 be
       -0.01782725 -0.1403658 0.16858004 -0.47652042
0002a0 24 a2 dd be 98 e3 d2 be fc 2f b8 bd d5 75 71 be
       -0.43287766 -0.41189265 -0.08993527 -0.23580106
0002b0 3b 83 79 be c7 5d 9a 3e 1a 7c 16 3d 6b 87 1d 3f
       -0.24366467 0.3014967 0.036739446 0.61534756
0002c0 4a 2e 02 3e 09 e8 f0 3c bd 05 9b bd 4b 4f a4 3d
       0.1271297 0.029407518 -0.07569454 0.080229364
0002d0 c2 2b 12 3c ee 1a 24 3d f2 45 8c be b0 42 08 bf
       0.0089215655 0.040064745 -0.27397114 -0.5322676
0002e0 d6 ce 7c bd 39 4d 10 3e 80 67 35 be f3 a7 35 be
       -0.06172069 0.14091958 -0.17715263 -0.17739849
0002f0 33 b9 06 3e 56 f3 de bd f5 f0 b3 3e 40 a1 bf 3e
       0.13156585 -0.108862564 0.35144773 0.3742771
000300 c7 e1 80 3d 37 d2 b8 3c 33 b2 d2 be 1c ec 88 bd
       0.062930636 0.022561176 -0.4115158 -0.06685659
000310 5b f3 d3 be 46 9f 2a 3e 71 13 ce be e8 4c b0 be
       -0.41396603 0.1666232 -0.40249208 -0.34433675
000320 38 57 8b bc 0b e0 dd be a6 f7 3a 3e e7 9a e8 3c
       -0.017009363 -0.43334994 0.18258533 0.028394176
000330 19 d2 0f 3e 1f 70 92 3d da a8 5f 3e 99 cc f5 3d
       0.1404499 0.07150292 0.21841756 0.120019145
000340 19 3e 7e be a1 f0 1e be 5a c4 da 3d 94 14 fd be
       -0.24828376 -0.1552148 0.10681982 -0.49429762
000350 7a 9d 26 3e ea 3e 13 3f 6f dc f4 3d 2a e6 03 be
       0.1627101 0.57517874 0.11956107 -0.1288077
000360 db 74 0a be 4b a9 4d be 76 5c ee 3d 20 05 ba 3d
       -0.1352114 -0.20084111 0.11638729 0.09083009
000370 85 8d a8 3d 86 c9 67 3e 02 a8 00 3e 42 46 2c 3e
       0.08230118 0.22635469 0.1256409 0.16823676
000380 99 f8 3c bb eb 08 52 bd d0 7b 62 bd 36 4c 46 3e
       -0.00288347 -0.051278036 -0.055293858 0.1936501
000390 45 1c 98 bd 06 3a 14 bc 0e e4 22 3d c5 10 95 3e
       -0.07427267 -0.009047037 0.03976827 0.29114357
0003a0 72 db 73 be f3 32 5a 3e 65 b0 95 be db c1 3e bf
       -0.2381418 0.21308498 -0.2923614 -0.7451455
0003b0 f3 50 00 be 6b d8 bf be eb ec 0e be 80 25 86 3e
       -0.1253088 -0.374698 -0.13957565 0.26200485
0003c0 e3 5e 2f be 80 b9 bc 3e 88 d9 9c be 1d 16 bd 3e
       -0.1712604 0.36860275 -0.30634713 0.36930934
0003d0 85 e0 0b be 2d 3d 96 3e bd 82 51 bd b3 3b e1 3d
       -0.13659866 0.29343548 -0.051150072 0.10997715
0003e0 3a 5f b2 3e 71 a4 4e 3e dc 2d 81 3c 02 2e d6 be
       0.34838277 0.20179917 0.015768938 -0.41831976
0003f0 be 45 d7 3e 43 40 63 3e 70 b7 6a bd bf 0d 96 3e
       0.42045397 0.22192483 -0.057303846 0.29307362

feature_net.linear_layer_0.bias f4 [128]
000000 ad 0e 9b 3e c9 4c 05 be 91 93 e4 be d8 5b 90 be
       0.30284634 -0.13017572 -0.44643834 -0.2819507
000010 9d 9e cb be 89 12 bc be 51 b6 10 bf c8 ec d5 be
       -0.3976945 -0.3673289 -0.5652819 -0.41782212
000020 15 5e f0 be d2 85 b8 3e 4e 0d ee be 37 98 b3 be
       -0.4694678 0.36039597 -0.46494526 -0.35077068
000030 d4 ab 24 bf d7 ca 40 be b5 92 75 3e c4 c2 fe be
       -0.6432469 -0.18827377 0.23981746 -0.4975797
000040 13 81 2c be 9b 1e 1c bf 5a 19 6f be c6 7a 80 bd
       -0.16846113 -0.609842 -0.23349515 -0.06273417
000050 56 f0 02 3e bb 9d 92 be 2b bf 01 bf f0 7c 2a 3f
       0.12786993 -0.28635964 -0.50682324 0.6659689
000060 ef ea d0 be a7 ef 8a be 8e c3 aa be 80 ae 08 bf
       -0.4080424 -0.27135965 -0.3335232 -0.53391266
000070 7f e1 f3 be f8 3d 27 bf 63 84 39 be 17 ee ed be
       -0.47632977 -0.6532893 -0.18116908 -0.4647071
000080 cd 7f c3 3d 5b d1 88 3e 6b 52 e1 3d d7 fd db 3d
       0.095458604 0.26722226 0.11002048 0.107417755
000090 4c 1d 16 3e c4 5b 25 3e 77 f8 af 3e b1 4a 25 3e
       0.14659613 0.16148287 0.3436925 0.16141774
0000a0 39 85 4e 3e d0 57 4c 3d 11 a4 4e 3e 76 d0 09 3e
       0.20168008 0.049888432 0.20179774 0.13458428
0000b0 27 3c 5d 3e b3 50 5c 3e bc 71 aa 3e 10 fc 67 3e
       0.21604978 0.2151516 0.33289897 0.22654748
0000c0 11 86 b2 3d 44 1f 82 3e 86 00 c7 3d 1d ab 9c 3e
       0.087169774 0.2541448 0.09716897 0.305993
0000d0 39 2c d4 3e 71 8d 48 3e ae 9c 08 3e 44 67 b6 3e
       0.4143999 0.19585206 0.13341019 0.3562566
0000e0 aa f3 20 3e fd b4 fe 3d 5d 2c 77 3e fb af ba 3e
       0.1571795 0.124368645 0.24138017 0.36462387
0000f0 97 21 ed 3d 86 14 73 3e 20 3a 95 3d a9 3b 6f 3e
       0.115786724 0.23738298 0.07286477 0.23362602
000100 2b 20 17 3e c9 39 52 3e 25 b8 45 3e 36 b6 1c 3e
       0.14758365 0.20529856 0.19308527 0.15303883
000110 1e 2a 30 3e 2f 64 89 3e c3 d8 d0 3e 23 30 68 3e
       0.17203566 0.26834247 0.40790376 0.22674613
000120 a6 39 d1 3d be 9f b7 3e 05 a7 37 3e 83 91 50 3e
       0.10216074 0.3586406 0.17934807 0.20368008
000130 1f eb 0b 3e 1f 5a 99 3e 69 31 82 3e 7c 7b 72 3e
       0.1366391 0.2995157 0.25428322 0.23679918
000140 e8 10 0b 3e 28 35 ee 3d 56 52 15 3e 78 ea b2 3e
       0.13580668 0.116312325 0.1458219 0.3494451
000150 82 31 00 3e 40 2a 25 3e ee 0c 4c 3e 69 ae 7c 3d
       0.12518886 0.16129398 0.19926807 0.061689768
000160 42 25 af 3e ae 25 8c 3e d6 df 09 3e 2f a9 34 3e
       0.34208113 0.27372497 0.13464293 0.17642663
000170 f1 ff 8d 3d 31 c9 85 3e 31 65 89 3e 1c e1 5c 3e
       0.069335826 0.2613006 0.26835015 0.21570247
000180 f4 51 02 3c 61 92 db 3d 10 f0 00 3e 9b a5 80 be
       0.007954109 0.10721279 0.12591577 -0.25126347
000190 4b 49 a7 3d 51 9e a0 3d 70 2a 80 bd 61 56 88 3d
       0.081682764 0.078426965 -0.06258094 0.066571005
0001a0 8f c8 ca 3d e7 25 5a bd b9 bf 8d 3d ad 1f 4e be
       0.09901535 -0.053258803 0.06921334 -0.20129271
0001b0 29 a3 de bd 70 3e f4 bd 82 0d fc bc 94 67 93 3d
       -0.10870964 -0.119259715 -0.03076816 0.0719749
0001c0 cd 0e 66 bd ff 4b 4c 3d f8 bf 57 be 32 95 33 bd
       -0.05616646 0.049877163 -0.21069324 -0.043843456
0001d0 b4 cb e2 3c b5 3b 55 be ff 76 22 3e a7 3a 37 be
       0.027685024 -0.20823558 0.15865706 -0.17893468
0001e0 a5 c9 3d 3e fb a7 2e be 4f c9 3b be ac f9 36 3e
       0.18533953 -0.17056267 -0.18338512 0.1786868
0001f0 af 58 b3 3d 4b ac a2 bb c3 a2 04 bd ff 9e c6 bc
       0.087571494 -0.0049643866 -0.032381784 -0.024245737

feature_net.layer_norm_0.weight f4 [128]
000000 e3 a9 64 3f 63 60 54 3f 81 72 99 3f e4 dc 4f 3f
       0.89321727 0.82959574 1.1988069 0.8119643
000010 4c 6a 80 3f 08 91 72 3f 7b fd 5f 3f 7b 95 65 3f
       1.0032439 0.9475255 0.87496156 0.89681214
000020 27 a2 70 3f f6 7d 65 3f 6d c9 72 3f 12 1b 6a 3f
       0.93997425 0.89645326 0.948386 0.91447556
000030 5a c2 5e 3f 99 08 83 3f e5 e5 72 3f d8 90 7c 3f
       0.87015307 1.0236999 0.9488204 0.98658514
000040 1a 54 80 3f a6 bf 85 3f 5d eb 7a 3f 8e b1 6c 3f
       1.0025666 1.0449111 0.98015386 0.92458427
000050 5f 8d 64 3f 47 73 66 3f 96 6c 5a 3f 72 59 8a 3f
       0.89278215 0.9001965 0.8532194 1.0808547
000060 3c 83 79 3f eb e9 72 3f d8 5f 75 3f 9a 57 5c 3f
       0.9746587 0.9488818 0.9584937 0.8607117
000070 aa 4e 6c 3f bc 92 5d 3f bf 94 74 3f ff fd 67 3f
       0.9230753 0.86552024 0.9553947 0.9062194
000080 42 5c 92 3f 39 21 9d 3f 2f 6e 92 3f 60 b2 8a 3f
       1.1434405 1.2275764 1.1439875 1.0835686
000090 48 08 95 3f ba 85 97 3f 38 dd a9 3f b4 67 97 3f
       1.1643152 1.1837685 1.3270636 1.1828523
0000a0 6f 3e 99 3f f2 10 96 3f 30 9a 95 3f 46 3b 94 3f
       1.1972178 1.1723921 1.1687679 1.1580589
0000b0 36 53 97 3f 48 e4 90 3f 84 fb 8e 3f 67 02 89 3f
       1.1822269 1.1319666 1.1170506 1.0703858
0000c0 2e 34 8e 3f 2d df 9a 3f a3 b5 8c 3f b5 70 97 3f
       1.1109674 1.2099358 1.0992931 1.183127
0000d0 7a 4a 9b 3f 48 26 98 3f 10 73 92 3f 10 8b 8e 3f
       1.2132103 1.1886683 1.1441364 1.1136189
0000e0 58 6c 8e 3f cd 01 9d 3f 07 42 95 3f f2 35 8e 3f
       1.1126814 1.2266175 1.1660775 1.1110213
0000f0 27 2e 91 3f 5f 04 8d 3f 4b 80 a0 3f 54 6b 96 3f
       1.134221 1.1016959 1.2539152 1.1751504
000100 0a b1 90 3f ac f0 94 3f 5d a4 8a 3f 92 0e 91 3f
       1.1304028 1.1635947 1.083141 1.1332572
000110 31 24 92 3f 11 ab 8f 3f d6 33 91 3f 99 17 8f 3f
       1.1417295 1.122408 1.1343944 1.1179076
000120 cc 5a 95 3f 40 59 8c 3f 3e 24 93 3f 4e 6e a2 3f
       1.1668334 1.0964737 1.1495435 1.2689912
000130 4b 5f 91 3f 72 c0 90 3f 0a c4 97 3f 1b c6 8e 3f
       1.1357206 1.130873 1.1856701 1.1154207
000140 9a 5f 8b 3f 87 be 97 3f 97 0c 8e 3f 8b f7 97 3f
       1.088855 1.1855019 1.1097592 1.1872419
000150 70 05 91 3f 70 19 a0 3f cf a6 95 3f a3 90 9e 3f
       1.1329784 1.2507763 1.1691531 1.238789
000160 78 07 90 3f 8d cb 91 3f b8 58 94 3f 67 b6 99 3f
       1.1252279 1.1390244 1.1589575 1.200879
000170 f7 8a 8a 3f 7e 69 8e 3f 65 66 92 3f 2c 0a 92 3f
       1.0823659 1.1125944 1.1437498 1.1409354
000180 88 af a7 3f 88 4b a4 3f c5 aa a7 3f 1e d4 7a 3f
       1.3100443 1.283555 1.309899 0.97979915
000190 44 59 a5 3f 82 a0 a7 3f b0 49 a0 3f 27 71 9f 3f
       1.2917867 1.3095858 1.2522488 1.2456406
0001a0 61 d3 a1 3f 2c 43 99 3f 41 bb b1 3f 2a 70 54 3f
       1.2642633 1.1973624 1.388527 0.8298365
0001b0 61 c8 8f 3f e5 05 6b 3f 88 64 9a 3f 28 c3 97 3f
       1.1233026 0.9180587 1.206193 1.1856432
0001c0 49 26 aa 3f e0 71 a0 3f 0c 4b 68 3f 3a a0 94 3f
       1.3292934 1.2534752 0.9073951 1.1611397
0001d0 8e 8e 9c 3f f5 3c 58 3f 1b 0f b2 3f 06 50 a2 3f
       1.2231004 0.84468013 1.391086 1.2680671
0001e0 89 c3 b3 3f 4d 93 7b 3f b1 04 8f 3f 7f 19 ae 3f
       1.4044048 0.9827164 1.1173307 1.3601531
0001f0 0d 4f 9f 3f 0d 95 9f 3f 9a 9b 95 3f 7c 90 ab 3f
       1.2445999 1.2467362 1.1688111 1.3403468

feature_net.layer_norm_0.bias f4 [128]
000000 d5 63 1d be 6c 2b 54 be 24 7b 95 3d db a5 59 be
       -0.15370114 -0.20719689 0.07298878 -0.21254675
000010 4d 99 a6 3c 28 fc f5 bc f2 e6 f9 bd 2d 7b 96 bd
       0.020336771 -0.030027464 -0.122022524 -0.07347713
000020 ce 7e 66 bd 33 cf 06 be 50 91 c9 bd a3 4e 76 bd
       -0.056273274 -0.13164978 -0.09842169 -0.060133588
000030 7e 56 08 be 96 a6 97 bb 75 94 0c be d0 f9 36 bd
       -0.13314244 -0.004628013 -0.13728507 -0.044671834
000040 6a ca 5b 3b d2 63 d4 3a 4d 5e 3f bd 11 d1 0d bd
       0.0033537396 0.0016204065 -0.04672079 -0.03462321
000050 3c 90 0f be fe 71 c9 bd 6f 3d fb bd 20 e3 4e 3d
       -0.14019865 -0.098361954 -0.12267577 0.050509572
000060 6e b2 49 bd ed ca de bd 3e fc 58 bd 70 de 29 be
       -0.04924243 -0.10878549 -0.052974932 -0.1658876
000070 ae e4 90 bd 10 e8 08 be d7 cf 79 bd 20 70 e1 bd
       -0.07074867 -0.13369775 -0.060989227 -0.11007714
000080 ad fb b4 3d 38 14 23 3e 2e 25 c0 3d 9e 1f c9 3d
       0.08837066 0.15925682 0.093820915 0.098204836
000090 14 3f e8 3d b6 bb 24 3e 12 0a 81 3e e7 a2 34 3e
       0.11340156 0.16087231 0.25202996 0.17640267
0000a0 95 13 f1 3d e5 3f 06 3e 3f d1 17 3e 2b 74 46 3e
       0.11771313 0.13110311 0.14825915 0.19380252
0000b0 b1 e8 43 3e 77 3c 19 3e f4 8b e0 3d 59 0f c8 3d
       0.19131733 0.14964472 0.10964194 0.09768552
0000c0 b8 fa ed 3d 14 d9 45 3e b6 0a db 3d c5 f6 21 3e
       0.116200864 0.1932109 0.10695402 0.15816791
0000d0 1c e1 24 3e bd ea f1 3d 36 f0 ad 3d 8b 48 ba 3d
       0.16101497 0.11812351 0.08493082 0.09095868
0000e0 ae 63 f9 3d 34 f1 12 3e d2 b0 1c 3e 2c 6f ee 3d
       0.121772155 0.14349824 0.15301827 0.11642298
0000f0 d6 9b 0d 3e a7 5c ad 3d 75 c2 43 3e 84 23 3a 3e
       0.13828978 0.08464938 0.19117148 0.1817761
000100 f3 f5 8e 3d f5 8f 38 3e ed 5a d4 3d 0c a3 0d 3e
       0.06980505 0.18023665 0.10368905 0.13831729
000110 a3 d5 f0 3d 77 c4 02 3e 3f a1 0e 3e a7 f3 d7 3d
       0.11759498 0.12770258 0.13928698 0.1054452
000120 c4 5f 02 3e 1b 2e dd 3d 66 51 27 3e 1d bc 47 3e
       0.12731844 0.107998095 0.16339645 0.19505353
000130 92 85 f1 3d 92 15 a5 3d 09 f0 3a 3e 93 38 f3 3d
       0.11793055 0.08060755 0.18255629 0.11876025
000140 a4 93 97 3d 63 94 f1 3d d8 09 d2 3d d2 6c 49 3e
       0.07401207 0.11795881 0.10255784 0.19670418
000150 2a 06 aa 3d f2 95 14 3e 42 51 0e 3e de 9a 29 3e
       0.08301957 0.14510325 0.13898185 0.16562983
000160 96 bf 03 3e cd ee a6 3d 20 58 12 3e 5e 59 02 3e
       0.12866053 0.081510164 0.1429143 0.12729403
000170 7b 74 f1 3c 99 33 ef 3d fd dd 13 3e e8 d7 10 3e
       0.029474488 0.11679763 0.1444015 0.14144862
000180 1e 77 5f 3e 48 f0 80 3e 91 21 9d 3e 4b 9d b2 bd
       0.21822783 0.2518332 0.30689672 -0.087214075
000190 f3 58 80 3e 24 58 2f 3e cc 68 e2 3d e1 e9 73 3e
       0.25067863 0.17123467 0.11055145 0.23819686
0001a0 39 21 94 3e 21 0a 00 3e 8a 34 88 3e ab 97 64 be
       0.28931597 0.12503864 0.26602584 -0.22323482
0001b0 5a ea 2d 3e 1a 6c c7 bd 6e dd e2 3d f6 53 1f 3e
       0.1698393 -0.097374156 0.110773906 0.15559372
0001c0 96 b6 a0 3e c1 12 28 3e a0 87 20 be c8 b0 2d 3e
       0.31389302 0.16413404 -0.15676737 0.16961968
0001d0 b6 70 71 3e 89 66 70 be e8 71 98 3e 57 8c 78 3e
       0.23578152 -0.23476614 0.29774404 0.24272285
0001e0 8d 1f 9f 3e 24 05 44 bb 18 1e 01 3e 93 85 85 3e
       0.3107876 -0.002991029 0.12609136 0.26078472
0001f0 22 39 83 3e 12 c0 3d 3e ca dc 31 3e 96 d6 83 3e
       0.25629526 0.185303 0.1736938 0.25749654
