models/MADDPG/MADDPG_trained_agent_simple_tag.pt (torch, 731538 bytes, 448 tensors)

current_noise f4 [8, 5]
00000000: a361 aabc 9ee1 0fbd 4405 ff3c 80fe 1e3d
00000010: c430 01bd 81ed 693d 34b9 8a3c 16ff ed3b
00000020: 1a87 a8bd 78d3 edbc 21ac 94bd 57b3 18bc
00000030: a9ae 803d 918a 013e 74be 88bd 27f5 3d3c
00000040: 98d6 cd3c 58c3 50bd afab b5bc 52ee 583c
00000050: 6ed5 1bbc bfc2 aabc a045 56bc 8547 233d
00000060: 9bae b7bb 54c4 73bc b443 87bd c485 06bd
00000070: ab31 8ebc 5bb5 573c c136 833d 949e c53d
00000080: 7c72 e43c f446 5cbd 2bd0 0f3c 1eb1 3e3d
00000090: b546 a6bd 5dab 12bd 4baa 97bd 8062 5a3d
-0.02079851 -0.035127275 0.03113044 0.03881693 -0.031540647 0.057111267 0.016934015 0.0072630746
-0.082288936 -0.0290315 -0.072593935 -0.009320102 0.06283314 0.12650515 -0.06676951 0.011594093
0.02512674 -0.050967544 -0.022176592 0.013240414 -0.009511335 -0.020844815 -0.013078123 0.03986313
-0.0056055314 -0.014878351 -0.0660471 -0.032842413 -0.017357668 0.013165797 0.06406928 0.09649387
0.027886622 -0.053778604 0.008777658 0.04655563 -0.08118955 -0.035807956 -0.07405528 0.053316593

current_noise f4 [8, 5]
00000000: 1cd7 6dbd 4acb 23bd 4778 16bd 8c6a 383d
00000010: de01 4bbc 966f 8fbc 7feb d6bd a9c2 fa3c
00000020: 96f7 d63c 06a7 0b3c d239 19be 6aeb 62bc
00000030: e191 cd3d 979f 91bc 3ef0 f43b c5d7 793d
00000040: 781e 9b3c d698 85bd b03e 0fbc bc32 e63c
00000050: 1c93 76bc 6a34 10bd d75b a03d a4c6 433d
00000060: 99e0 68bd 0ed9 78bb 72ba 123d 3b6c 8abd
00000070: 8876 b9ba 56b2 7cbd 6135 283d 73d3 afbd
00000080: d7ec c8bd 1488 7cbd 42a0 d9bb 066e 18bc
00000090: 0a9a 1ebd ac7e 773d 7ea2 dabc be25 1d3c
-0.058066472 -0.039988793 -0.0367358 0.045023486 -0.012390582 -0.017509263 -0.10494136 0.0306104
0.026241105 0.008523708 -0.14963463 -0.013850072 0.1003759 -0.017776294 0.007474928 0.06099679
0.018935427 -0.06523292 -0.008742973 0.028100364 -0.015049722 -0.035206236 0.07830017 0.04779686
-0.056854818 -0.0037971172 0.03582234 -0.067589246 -0.0014149705 -0.061693512 0.04106653 -0.085852526
-0.098107986 -0.06165321 -0.0066414187 -0.009303575 -0.03872112 0.060423538 -0.02668881 0.009591518

current_noise f4 [8, 5]
00000000: dd7f a5bc 1c4c 9c3c d629 133d f548 7d3c
00000010: b0e3 b93c 74f4 983c 72cb d53c 9ba8 8bbd
00000020: fdf2 463d c67b a2bd 905f 8cba c499 c0bd
00000030: ab44 293c e658 8f3d 763d a1bd cb8f 1ebd
00000040: ac64 afbd 450e 25bd 584b d9bc 64ad 03bd
00000050: 7286 323d b3bf 023d f88f af3c 3025 833a
00000060: 14f4 9b3c bcac a43d e82d 1ebd e459 b2bc
00000070: 0a79 ebbc 909b b8bd 3036 76bd 5013 633b
00000080: 769b 8f3c f47b 283c 66fe 82bd 4c2e c83c
00000090: 0c3a c5bd 8a02 5ebd 88ec 38bd 74ea 843c
-0.020202572 0.01907926 0.03592857 0.015459289 0.022691578 0.018671252 0.026097987 -0.06819268
0.048571575 -0.07933764 -0.0010709632 -0.094043285 0.010331313 0.06999378 -0.07873051 -0.03871135
-0.085641235 -0.04029681 -0.026525185 -0.03214778 0.04358525 0.0319211 0.021430954 0.001000559
0.019037284 0.08040759 -0.038618 -0.021771379 -0.02874424 -0.09014046 -0.06011027 0.0034648962
0.017530184 0.010283459 -0.06396179 0.024436139 -0.09630212 -0.05420164 -0.04514745 0.016225077

current_noise f4 [8, 5]
00000000: d4f6 89bd ebb0 38bd 0a80 853c 91a9 1cbd
00000010: 3417 dfbd c016 15bc fa4e 68bd 1235 d2bc
00000020: be11 e3bc 52fb e23b a894 9bbc 8656 6dbd
00000030: 2cd4 403c 4b39 06bc 9b3f 1b3c b8f3 91bd
00000040: c8da 60bd 44b1 e23d 7c8d 263c 4bb4 d1bc
00000050: 0049 293d be52 993b e13d 9abc e551 72bc
00000060: 87ce 28bc 508d 1c3c 4c0b 0b3d 0574 163d
00000070: 969a 333d 0008 1c3a a5bb c23c 924c cebc
00000080: 71b3 96bd c1a5 b93c 7fda b7bd f275 3dbd
00000090: 4806 4f3d b30b 573c d4e2 f13d e3c3 20bd
-0.06736532 -0.045090597 0.016296405 -0.03824765 -0.108930975 -0.009099662 -0.056715943 -0.025660072
-0.027718421 0.0069269324 -0.018991783 -0.057943843 0.011769336 -0.008192371 0.009475614 -0.07126564
-0.054896146 0.11068967 0.010165568 -0.025598666 0.041329384 0.004679053 -0.018828334 -0.014790033
-0.010303146 0.009555176 0.03394632 0.03673174 0.043848597 0.000595212 0.023771117 -0.025182996
-0.073584445 0.022662045 -0.08977222 -0.04625506 0.0505431 0.013125348 0.11810842 -0.039249312

expl_noise f4 [8, 5]
00000000: cdcc cc3d cdcc cc3d cdcc cc3d cdcc cc3d
00000010: cdcc cc3d cdcc cc3d cdcc cc3d cdcc cc3d
00000020: cdcc cc3d cdcc cc3d cdcc cc3d cdcc cc3d
00000030: cdcc cc3d cdcc cc3d cdcc cc3d cdcc cc3d
00000040: cdcc cc3d cdcc cc3d cdcc cc3d cdcc cc3d
00000050: cdcc cc3d cdcc cc3d cdcc cc3d cdcc cc3d
00000060: cdcc cc3d cdcc cc3d cdcc cc3d cdcc cc3d
00000070: cdcc cc3d cdcc cc3d cdcc cc3d cdcc cc3d
00000080: cdcc cc3d cdcc cc3d cdcc cc3d cdcc cc3d
00000090: cdcc cc3d cdcc cc3d cdcc cc3d cdcc cc3d
0.1 0.1 0.1 0.1 0.1 0.1 0.1 0.1
0.1 0.1 0.1 0.1 0.1 0.1 0.1 0.1
0.1 0.1 0.1 0.1 0.1 0.1 0.1 0.1
0.1 0.1 0.1 0.1 0.1 0.1 0.1 0.1
0.1 0.1 0.1 0.1 0.1 0.1 0.1 0.1

expl_noise f4 [8, 5]
00000000: cdcc cc3d cdcc cc3d cdcc cc3d cdcc cc3d
00000010: cdcc cc3d cdcc cc3d cdcc cc3d cdcc cc3d
00000020: cdcc cc3d cdcc cc3d cdcc cc3d cdcc cc3d
00000030: cdcc cc3d cdcc cc3d cdcc cc3d cdcc cc3d
00000040: cdcc cc3d cdcc cc3d cdcc cc3d cdcc cc3d
00000050: cdcc cc3d cdcc cc3d cdcc cc3d cdcc cc3d
00000060: cdcc cc3d cdcc cc3d cdcc cc3d cdcc cc3d
00000070: cdcc cc3d cdcc cc3d cdcc cc3d cdcc cc3d
00000080: cdcc cc3d cdcc cc3d cdcc cc3d cdcc cc3d
00000090: cdcc cc3d cdcc cc3d cdcc cc3d cdcc cc3d
0.1 0.1 0.1 0.1 0.1 0.1 0.1 0.1
0.1 0.1 0.1 0.1 0.1 0.1 0.1 0.1
0.1 0.1 0.1 0.1 0.1 0.1 0.1 0.1
0.1 0.1 0.1 0.1 0.1 0.1 0.1 0.1
0.1 0.1 0.1 0.1 0.1 0.1 0.1 0.1

expl_noise f4 [8, 5]
00000000: cdcc cc3d cdcc cc3d cdcc cc3d cdcc cc3d
00000010: cdcc cc3d cdcc cc3d cdcc cc3d cdcc cc3d
00000020: cdcc cc3d cdcc cc3d cdcc cc3d cdcc cc3d
00000030: cdcc cc3d cdcc cc3d cdcc cc3d cdcc cc3d
00000040: cdcc cc3d cdcc cc3d cdcc cc3d cdcc cc3d
00000050: cdcc cc3d cdcc cc3d cdcc cc3d cdcc cc3d
00000060: cdcc cc3d cdcc cc3d cdcc cc3d cdcc cc3d
00000070: cdcc cc3d cdcc cc3d cdcc cc3d cdcc cc3d
00000080: cdcc cc3d cdcc cc3d cdcc cc3d cdcc cc3d
00000090: cdcc cc3d cdcc cc3d cdcc cc3d cdcc cc3d
0.1 0.1 0.1 0.1 0.1 0.1 0.1 0.1
0.1 0.1 0.1 0.1 0.1 0.1 0.1 0.1
0.1 0.1 0.1 0.1 0.1 0.1 0.1 0.1
0.1 0.1 0.1 0.1 0.1 0.1 0.1 0.1
0.1 0.1 0.1 0.1 0.1 0.1 0.1 0.1

expl_noise f4 [8, 5]
00000000: cdcc cc3d cdcc cc3d cdcc cc3d cdcc cc3d
00000010: cdcc cc3d cdcc cc3d cdcc cc3d cdcc cc3d
00000020: cdcc cc3d cdcc cc3d cdcc cc3d cdcc cc3d
00000030: cdcc cc3d cdcc cc3d cdcc cc3d cdcc cc3d
00000040: cdcc cc3d cdcc cc3d cdcc cc3d cdcc cc3d
00000050: cdcc cc3d cdcc cc3d cdcc cc3d cdcc cc3d
00000060: cdcc cc3d cdcc cc3d cdcc cc3d cdcc cc3d
00000070: cdcc cc3d cdcc cc3d cdcc cc3d cdcc cc3d
00000080: cdcc cc3d cdcc cc3d cdcc cc3d cdcc cc3d
00000090: cdcc cc3d cdcc cc3d cdcc cc3d cdcc cc3d
0.1 0.1 0.1 0.1 0.1 0.1 0.1 0.1
0.1 0.1 0.1 0.1 0.1 0.1 0.1 0.1
0.1 0.1 0.1 0.1 0.1 0.1 0.1 0.1
0.1 0.1 0.1 0.1 0.1 0.1 0.1 0.1
0.1 0.1 0.1 0.1 0.1 0.1 0.1 0.1

mean_noise f4 [8, 5]
00000000: 0000 0000 0000 0000 0000 0000 0000 0000
00000010: 0000 0000 0000 0000 0000 0000 0000 0000
00000020: 0000 0000 0000 0000 0000 0000 0000 0000
00000030: 0000 0000 0000 0000 0000 0000 0000 0000
00000040: 0000 0000 0000 0000 0000 0000 0000 0000
00000050: 0000 0000 0000 0000 0000 0000 0000 0000
00000060: 0000 0000 0000 0000 0000 0000 0000 0000
00000070: 0000 0000 0000 0000 0000 0000 0000 0000
00000080: 0000 0000 0000 0000 0000 0000 0000 0000
00000090: 0000 0000 0000 0000 0000 0000 0000 0000
0.0 0.0 0.0 0.0 0.0 0.0 0.0 0.0
0.0 0.0 0.0 0.0 0.0 0.0 0.0 0.0
0.0 0.0 0.0 0.0 0.0 0.0 0.0 0.0
0.0 0.0 0.0 0.0 0.0 0.0 0.0 0.0
0.0 0.0 0.0 0.0 0.0 0.0 0.0 0.0

mean_noise f4 [8, 5]
00000000: 0000 0000 0000 0000 0000 0000 0000 0000
00000010: 0000 0000 0000 0000 0000 0000 0000 0000
00000020: 0000 0000 0000 0000 0000 0000 0000 0000
00000030: 0000 0000 0000 0000 0000 0000 0000 0000
00000040: 0000 0000 0000 0000 0000 0000 0000 0000
00000050: 0000 0000 0000 0000 0000 0000 0000 0000
00000060: 0000 0000 0000 0000 0000 0000 0000 0000
00000070: 0000 0000 0000 0000 0000 0000 0000 0000
00000080: 0000 0000 0000 0000 0000 0000 0000 0000
00000090: 0000 0000 0000 0000 0000 0000 0000 0000
0.0 0.0 0.0 0.0 0.0 0.0 0.0 0.0
0.0 0.0 0.0 0.0 0.0 0.0 0.0 0.0
0.0 0.0 0.0 0.0 0.0 0.0 0.0 0.0
0.0 0.0 0.0 0.0 0.0 0.0 0.0 0.0
0.0 0.0 0.0 0.0 0.0 0.0 0.0 0.0

mean_noise f4 [8, 5]
00000000: 0000 0000 0000 0000 0000 0000 0000 0000
00000010: 0000 0000 0000 0000 0000 0000 0000 0000
00000020: 0000 0000 0000 0000 0000 0000 0000 0000
00000030: 0000 0000 0000 0000 0000 0000 0000 0000
00000040: 0000 0000 0000 0000 0000 0000 0000 0000
00000050: 0000 0000 0000 0000 0000 0000 0000 0000
00000060: 0000 0000 0000 0000 0000 0000 0000 0000
00000070: 0000 0000 0000 0000 0000 0000 0000 0000
00000080: 0000 0000 0000 0000 0000 0000 0000 0000
00000090: 0000 0000 0000 0000 0000 0000 0000 0000
0.0 0.0 0.0 0.0 0.0 0.0 0.0 0.0
0.0 0.0 0.0 0.0 0.0 0.0 0.0 0.0
0.0 0.0 0.0 0.0 0.0 0.0 0.0 0.0
0.0 0.0 0.0 0.0 0.0 0.0 0.0 0.0
0.0 0.0 0.0 0.0 0.0 0.0 0.0 0.0

mean_noise f4 [8, 5]
00000000: 0000 0000 0000 0000 0000 0000 0000 0000
00000010: 0000 0000 0000 0000 0000 0000 0000 0000
00000020: 0000 0000 0000 0000 0000 0000 0000 0000
00000030: 0000 0000 0000 0000 0000 0000 0000 0000
00000040: 0000 0000 0000 0000 0000 0000 0000 0000
00000050: 0000 0000 0000 0000 0000 0000 0000 0000
00000060: 0000 0000 0000 0000 0000 0000 0000 0000
00000070: 0000 0000 0000 0000 0000 0000 0000 0000
00000080: 0000 0000 0000 0000 0000 0000 0000 0000
00000090: 0000 0000 0000 0000 0000 0000 0000 0000
0.0 0.0 0.0 0.0 0.0 0.0 0.0 0.0
0.0 0.0 0.0 0.0 0.0 0.0 0.0 0.0
0.0 0.0 0.0 0.0 0.0 0.0 0.0 0.0
0.0 0.0 0.0 0.0 0.0 0.0 0.0 0.0
0.0 0.0 0.0 0.0 0.0 0.0 0.0 0.0

sample_gaussian f4 [8, 5]
00000000: 857e 86bf efd8 f8bd 03d3 203f fb7f 983f
00000010: 8e0e 4bbf 5e78 b8be 03e1 6dbf 94f8 c53f
00000020: 7261 5cbf d4ef 503e 4985 88bf ed44 a2bf
00000030: ea94 28bf ef2d ab3e 45cb bebf cfdc 7dbf
00000040: 8f9f f93f 56d0 2d3f 94b2 a03c 8da3 16bf
00000050: 88e7 213f 90e4 4abe f517 293f b695 fabe
00000060: 9231 45be ea4d 0140 1d31 ffbf 4bf5 01bf
00000070: b480 cbbf 537c 323e 274a d73b d04e e03e
00000080: 534b 80be ede3 623f 1b1b dfbe c974 6bbf
00000090: 7747 13bd a524 5cbd e9fc 7ebf e40b bb3f
-1.0507361 -0.12150752 0.6282198 1.1914057 -0.79319084 -0.36029333 -0.92921466 1.5466485
-0.8608619 0.20403987 -1.0665675 -1.2677284 -0.65852225 0.33433482 -1.4905783 -0.9916505
1.9501818 0.6789602 0.019616403 -0.5884331 0.63243914 -0.19813752 0.6605218 -0.48942345
-0.19257191 2.0203805 -1.9936863 -0.5076491 -1.5898652 0.17430238 0.006570119 0.4381013
-0.25057468 0.8862904 -0.43575367 -0.91975075 -0.035956826 -0.053745884 -0.9960466 1.4613004

sample_gaussian f4 [8, 5]
00000000: a02d aabe 37ec 14c0 9b0c 663f 3fd0 a33f
00000010: bb98 053f 7768 8bbf eed3 913d f580 b73e
00000020: 3191 813f e275 3e3f 53c5 2cc0 2ec8 0ebf
00000030: 10c9 f83f be81 343f 1e63 c33f 2ae5 3f3f
00000040: ba90 063f aaba 8abf 00dd 6dbe dc6a 1140
00000050: 1222 6c3f 5038 243e 23f0 4640 5c75 c0bf
00000060: 8944 ae3d 4a42 49be 1690 2b3e 45cf 2f3f
00000070: bff5 113f 288e 483e dd38 893f 164a 13c0
00000080: 3ecf 44be ee21 bfbf fe0b 153f 4fe1 8abe
00000090: 74a1 e0bf 7f17 b2be 65f5 943e f095 f5be
-0.33237934 -2.3269174 0.89862984 1.2797927 0.52186173 -1.0891255 0.071205005 0.35840574
1.0122434 0.74398625 -2.6995437 -0.557742 1.943636 0.7051047 1.5264623 0.7495905
0.52564585 -1.0838215 -0.23228836 2.2721472 0.9223949 0.16037107 3.1084068 -1.5035815
0.08509166 -0.19654194 0.16754183 0.68675643 0.57015604 0.19585478 1.0720478 -2.3013968
-0.19219682 -1.493223 0.58221424 -0.27125022 -1.7549272 -0.3478355 0.2909347 -0.47965956

sample_gaussian f4 [8, 5]
00000000: 5f95 393d 10f7 b83d 57ea 82be 9210 3fbe
00000010: 8c55 73bf 04d0 1a3f 82fa a43e f79d c2be
00000020: 9eed 1f3f a679 f83e ad55 c83e e9f3 26bf
00000030: 3092 a6bf b471 c23f 2352 88be 4b93 473e
00000040: a8f6 5e3e 3d91 b23f 1953 b03f 43ff 8dbf
00000050: 9a6b 043e 3b09 f4bd f1a4 403f f75b debe
00000060: c71a d13e 0e82 883f f1ad 0cc0 cdbb 83be
00000070: c946 c6bf dbce 0bc0 c520 fdbe efe3 f7bf
00000080: 1fae cdbf 5643 063f 3467 a3be fe51 f13e
00000090: 4975 59be 41f9 a03f 7fcf c4be c51e 51bf
0.045308467 0.090314984 -0.25569412 -0.18658665 -0.9505241 0.60473657 0.32222372 -0.38011143
0.6247195 0.4853031 0.39127865 -0.6521593 -1.3013363 1.519095 -0.26625165 0.19489782
0.2177378 1.3950573 1.3775359 -1.1093525 0.12931672 -0.11915823 0.7525168 -0.4342954
0.40840742 1.066469 -2.1981165 -0.25729218 -1.5490352 -2.1845005 -0.49439064 -1.9366435
-1.6068763 0.52446496 -0.31914675 0.47132868 -0.21236147 1.2576066 -0.38439557 -0.81687576

sample_gaussian f4 [8, 5]
00000000: 1387 8e3d 09bb a9bf 5f42 8c3f 27e9 a3bf
00000010: aa2d c4bf 554e 1f3f 0b86 93bf efbb 41be
00000020: d5b9 cdbd 024a 763e 2cd4 97bf 9384 823e
00000030: e09f 68bf 1d83 493f cd1a 783f 05e5 b8bf
00000040: b327 b73e 683f 473f f764 fdbe 4229 07bf
00000050: 6289 a63f d6cb f73d ad2c 9dbe 0203 403e
00000060: b026 e93e bdd7 e63f a086 903e ae3a 4e3f
00000070: 9d39 84bf be09 3dc0 4743 1f3f b75a 43bf
00000080: 6b93 adbf 8610 babf 682d 59bf 6855 cebf
00000090: 3be3 6e3f 577f 24be 42b1 f13f 92fe 233f
0.06959357 -1.3260204 1.0957755 -1.2805527 -1.5326436 0.622289 -1.1525282 -0.18919347
-0.1004521 0.24051669 -1.1861625 0.2549177 -0.9086895 0.7871569 0.96915895 -1.4444891
0.35772476 0.77831125 -0.49491093 -0.5279733 1.3010676 0.120994255 -0.30698147 0.18751147
0.4553733 1.8034588 0.2822771 0.8055829 -1.0330082 -2.9537196 0.6221203 -0.76310295
-1.3560613 -1.4536293 -0.8483491 -1.6119814 0.93315476 -0.16064201 1.888222 0.6406032

feature_net.linear_layer_0.weight f4 [32, 16]
00000000: 49f6 943e 9ef1 91be a4ac b3bd 3aaf 92bd
00000010: 3453 5bbf 62e1 ef3d c5a8 673c 958f 76bc
00000020: ca98 46be 2983 ddbc 1390 803e 38c1 e4bd
00000030: e8b6 9fbe 9985 74be 0d6c 873d 1825 85bf
00000040: 0f46 903e de80 c33e ea68 f53d 333a 843d
00000050: c638 afbe 5cef 193f fda7 cd3d 7dec c33e
00000060: 660c 183f 0a90 6e3d a67b ffbe c2f2 43be
00000070: b851 1cbf 4b1c b43e 27cf e1be b67f b1bc
00000080: a29c 003d cde9 023e 6a90 c03d 364c 1c3e
00000090: ecc0 163e 6e78 4cbe 7c9c 38be 48bf 14bf
000000a0: 0859 d03e 0a73 b3be 6493 a4be 4664 67be
000000b0: ed81 6dbf 3b37 70be ee05 81be cdd2 cd3d
000000c0: ecd3 f53c 0c86 d63e efb8 2e3e 2f5c 973e
000000d0: 5a74 4e3f d7ce cc3e 64b3 35be 6228 e2be
000000e0: 962d 5fbe 53fd 73be c2c2 45bf 732b 983e
000000f0: 503e ac3b 86f6 5d3e 37a5 08be 67fd fa3e
00000100: 753a 553e f8c3 183f 3e49 0c3c 6307 cd3e
00000110: 1cc2 853e 32e5 39be 1441 c4be f84c 94be
00000120: ccc7 b7be 5ede 2cbe e932 553d 272f 813e
00000130: 4183 31bd 51ca 023f 4567 533f 1784 7cbe
00000140: c83c 343e 8c0a 863e 1fef ed3e c08c b03e
00000150: 8d55 70bc 216b ba3e 30cd 5d3d 5207 d93d
00000160: d75f 4e3f 824c 92be 1156 9ebe be37 c93e
00000170: 0f5d 07bf 5df2 2cbf a889 9fbd 3cb2 1a3f
00000180: 1be7 67be 9c5d 843c bb42 ffbe cb8c d2bd
00000190: 09dc 463f 549a 0d3f ac35 333f decc 82be
000001a0: a81e 7fbe 8c12 693d 2c8f 1cbf 85cf 68be
000001b0: 17a6 2e3d 625f d23c e36d fa3e 47ab a23d
000001c0: 72a0 013e 04f0 62be c342 773e 45a4 cfbd
000001d0: a055 e4bd 2ae7 6dbf cf51 643f fca3 d0bd
000001e0: dea2 90be 0dc6 6bbe 3433 893d da26 1fbe
000001f0: ef6b 183e 944c 9c3e a8eb c83e 1d95 7ebe
00000200: fe5d 413e 4671 ccbe a242 8ebe 3314 72be
00000210: 6595 84be e3ef 1bbe bf82 103d c382 ed3d
00000220: 444d 623e ee16 65bd ba29 3dbd 1a8e 57be
00000230: a856 53bf 02b4 433e ab7c 643e aae7 873d
00000240: 29ec 27be 7a50 9b3e 6719 d23e b0f9 30bf
00000250: 05de 4abe 5821 33bf 9ab5 8e3d eaf8 23be
00000260: 6956 0ebf 3577 46be 1349 c23c e5b7 4d3d
00000270: c911 033f 1c80 8e3c 7897 56be 0098 4bbf
00000280: cf75 1ebd edec 143d a148 1f3d 2f31 2f3f
00000290: 341f 483e bac3 f93d cb11 febd bd83 e9bd
000002a0: b560 bd3e 7b3b 173f 0a9a 7cbf b27f 22be
000002b0: a0f3 c5bd 5f44 023f 1f60 c93d 4f65 8c3e
000002c0: 88e9 ed3d c97b 723c 5fb5 f03e 3968 bd3e
000002d0: 8b89 debe 9d3e b6bd 81fa f93d 6dbe 11bf
000002e0: 1c31 15bf 760f 723e a7de 1fbf 411f 173f
000002f0: de40 44be 0d82 92be 06fe cabe efad 833e
00000300: ecaf a3be a498 a3bd add2 67be 4e38 80be
00000310: b911 e6be 06d3 293e 0003 abbd 3b29 c1bd
00000320: 599c b03e 32b4 f0bd d1fb c1be c231 723e
00000330: febc 023f 9354 9ebe 32d2 8a3e f16c 24be
00000340: e408 c63e acfa 833e dc17 423e 04cc 9abc
00000350: 4066 a43e 19c2 7bbe 539e 84bd daae 29bf
00000360: af9e 653d db9b 26be 82fa 3abf 68c5 bbbd
00000370: abec cebe 13ab 883e 0e04 3bbe 9c6c 0bbf
00000380: b526 80be 2499 bdbd 276a 47bd c63d 60bd
00000390: a5a0 333d c0b5 7cbd 458d 77bd ef41 e73d
000003a0: f0b7 f4be 75a6 933e a4ab 1d3f 7fd9 343d
000003b0: 73ea 1ebf b4a9 29bd 1595 a5be afee bebe
000003c0: a3d8 613f f11d f53c 6e82 81bd 8ed3 8f3c
000003d0: 56f8 1fbe 2ef1 013f c4ea 0d3e 6bf2 9a3e
000003e0: 847f 073f b554 82be 52f2 10bf 12e3 113f
000003f0: b388 e7bd 658b 933e 4583 273e cad1 2e3f
0.2909415 -0.28504652 -0.08773163 -0.07162328 -0.8567383 0.1171291 0.014139359 -0.015048881
-0.19394222 -0.027040081 0.2510992 -0.11169666 -0.31194234 -0.23879088 0.06612406 -1.0401945
0.2817845 0.38184255 0.119829014 0.06456413 -0.34223002 0.6013086 0.10041807 0.38266364
0.5939392 0.058242835 -0.49899024 -0.19135574 -0.6106219 0.35177836 -0.44103357 -0.021667343
0.031399377 0.127845 0.09402545 0.15263447 0.14722031 -0.19967815 -0.18028444 -0.5810437
0.40692925 -0.35048705 -0.321437 -0.22596845 -0.92776376 -0.23458569 -0.25199836 0.10049973
0.030008279 0.41899145 0.17062734 0.29562518 0.8064629 0.40001556 -0.17744213 -0.44171435
-0.21794733 -0.23827104 -0.772503 0.2972065 0.0052564517 0.21676072 -0.13344274 0.49021456
0.20823081 0.59674025 0.008562384 0.40044698 0.26124656 -0.18153837 -0.383309 -0.28964972
-0.3589462 -0.16881701 0.052050505 0.25231287 -0.043338064 0.5108996 0.8257945 -0.24659763
0.17601311 0.26179922 0.46471497 0.34482384 -0.014668834 0.36409858 0.05415076 0.10597099
0.8061499 -0.28573996 -0.30925038 0.3930034 -0.5287637 -0.67557317 -0.07789928 0.60428214
-0.22646753 0.016157918 -0.498556 -0.102807604 0.77679497 0.5531361 0.7000377 -0.25546926
-0.24914038 0.056902453 -0.6115596 -0.22735412 0.042638864 0.025680248 0.48911962 0.07942825
0.12658861 -0.22161871 0.24146561 -0.10138754 -0.11149144 -0.92930853 0.8918733 -0.101875275
-0.28249258 -0.23024769 0.06699219 -0.15542164 0.14884923 0.30527174 0.3924229 -0.2486157
0.18883511 -0.3993017 -0.27785212 -0.23640518 -0.2589523 -0.15228228 0.03528094 0.115972064
0.22099787 -0.05593007 -0.04618237 -0.21050301 -0.825541 0.19111636 0.22313182 0.06635983
-0.16398682 0.30334836 0.41035005 -0.6913099 -0.19811256 -0.69972754 0.069682315 -0.16012922
-0.556006 -0.19381411 0.023716485 0.050224204 0.51199013 0.017395072 -0.20956218 -0.7952881
-0.03868657 0.036358763 0.038887624 0.68434423 0.19543153 0.12195535 -0.124057375 -0.1140208
0.36987844 0.59075135 -0.98672545 -0.15869024 -0.096656084 0.50885576 0.09832787 0.27421042
0.11616808 0.0148000205 0.47013375 0.36993578 -0.43464312 -0.08898661 0.12205983 -0.5693119
-0.5827806 0.2363871 -0.62449116 0.59032065 -0.1916537 -0.28614846 -0.3964693 0.25718638
-0.31970155 -0.07988098 -0.2263896 -0.25042957 -0.44935396 0.16584405 -0.083501816 -0.09431692
0.34494284 -0.117531195 -0.37887433 0.23651794 0.5106963 -0.309239 0.2711349 -0.16057183
0.38678658 0.25777185 0.18954414 -0.01889611 0.3210926 -0.24585761 -0.064755104 -0.6628243
0.056059536 -0.16270392 -0.73038495 -0.09168512 -0.40414938 0.2669302 -0.18263265 -0.544626
-0.2502953 -0.09257725 -0.04868522 -0.05474641 0.043854374 -0.061696768 -0.06043746 0.11291873
-0.47796583 0.28837934 0.6159003 0.044152733 -0.6207649 -0.041421607 -0.32340303 -0.37291476
0.88221186 0.029921504 -0.063237056 0.017556932 -0.15622076 0.50758636 0.13859087 0.30263075
0.5292895 -0.2545525 -0.5661975 0.56987107 -0.1130537 0.28817287 0.16358669 0.6828886

feature_net.linear_layer_0.bias f4 [32]
00000000: ab8d e03d 940a a4be 1e91 f9bd 7dca 023f
00000010: c1cb 0b3e a3b3 22be 331a e1bc c546 813e
00000020: 631e 6cbe e285 543e 0e35 823e 0564 6b3e
00000030: e30a b8bd 5512 cc3e 9047 b33e 520d 21bd
00000040: 0f99 d4bd 48df ea3e d4e5 60be 327d 15be
00000050: a7a0 c53c 3698 853d dbd7 f6bd 1a0d e33e
00000060: 5cf9 d73e 8a54 0abd 0843 dfbe 7d68 ae3d
00000070: bac2 50be 755e c4be b3bc 073e 0ea5 c93e
0.10964521 -0.3203932 -0.12185882 0.5109022 0.13651945 -0.15888838 -0.027478313 0.25249305
-0.23058467 0.20754197 0.25431103 0.22987373 -0.089864515 0.39857736 0.35015535 -0.039319344
-0.10380756 0.45873475 -0.21962672 -0.1459854 0.024124457 0.065231726 -0.1205289 0.44345933
0.42182434 -0.03377203 -0.43605828 0.08516023 -0.20386782 -0.38353315 0.13255577 0.3938374

feature_net.layer_norm_0.weight f4 [32]
00000000: c5f4 933f 89a6 903f 7c55 7e3f 37f1 b93f
00000010: a7d8 5d3f 63af a83f 8529 843f ba87 863f
00000020: 0d0c 4b3f 3a42 6b3f 0586 ac3f 2332 a33f
00000030: 29c1 633f 5eff a43f 625b 803f aaaa 883f
00000040: e710 903f 2b6e 933f 5f58 8b3f 3267 8d3f
00000050: 5ca4 5b3f adc2 5a3f a091 503f 2999 b93f
00000060: dcff ab3f e62e 463f e00f 9f3f 64bb a83f
00000070: 3178 773f ed79 3a3f d574 9c3f 423a 8b3f
1.1559073 1.1300822 0.9934919 1.4526738 0.8665871 1.3178524 1.0325171 1.051017
0.79315263 0.9189793 1.34784 1.2749676 0.88966614 1.2890432 1.0027888 1.0677083
1.1255158 1.1517996 1.0886344 1.1047118 0.8579767 0.854533 0.81472206 1.4499866
1.3437457 0.7741531 1.242672 1.3182187 0.9666777 0.72842294 1.2223154 1.0877154

feature_net.layer_norm_0.bias f4 [32]
00000000: a4e3 d13b 0d51 fcbd 761b 65bc bd90 013f
00000010: 69b8 debc ffc0 363e 47bb 13bd 564e 0d3e
00000020: 8e61 f7bd 6713 df3c 765a c43e 11f5 a63d
00000030: b02d 0dbe 7540 823e d582 573e b8a7 153e
00000040: 44cb 273e 3a09 a73e 56bf e7bd 8c69 3d3d
00000050: 8009 4cbe 74e4 dcbd 85d7 fcbd a2a2 9a3e
00000060: 7e3f 8c3e 0461 11be decb 4dbe 1062 173e
00000070: 030c 24bc 3507 8dbe fc97 973b 4172 6a3e
0.0064053107 -0.12320147 -0.013983598 0.5061148 -0.027187543 0.1784706 -0.036067273 0.13799414
-0.12079154 0.027230931 0.38350266 0.081522115 -0.1378696 0.25439802 0.21046002 0.14614761
0.16386133 0.32624227 -0.11315791 0.046243235 -0.19925499 -0.107857615 -0.123457946 0.30202204
0.2739219 -0.14197165 -0.200973 0.14783502 -0.010012629 -0.2754456 0.0046262722 0.22895147

feature_net.linear_layer_1.weight f4 [32, 32]
00000000: 5687 9e3d c623 d7be 6d75 55be d383 c1bd
00000010: 1c41 1dbe f2a6 87bd c58b 763d 6194 06bf
00000020: b989 893e d917 81be 6e5f b23e 0d1b 0dbc
00000030: 6a01 7fbe 5896 a73d 6f66 f3bd a8dc 42be
00000040: 28a7 f7bd 680e 743e 3cbb 82bb 9f69 d4be
00000050: e67a 9abe 26c7 c0bd f7b9 fdbd 08a5 93be
00000060: bdab b6be 1ed8 22be fa1e b03d 6d54 13bd
00000070: 8880 e0bd c37f bebe da1d 18bd 580a 253e
00000080: f0be 903e 9eb2 4abe abfc 493d db41 b6be
00000090: 8b45 653e 81aa 3abf 98ff 49be 2a8f 983e
000000a0: c93c 9c3e 8304 d83e 3903 01bf 35ce c9be
000000b0: a5f4 4d3e a514 e5bd d88f a83d 0784 d8be
000000c0: 3f4e 74be ccff f1be 8ed4 913e c516 02be
000000d0: e44a 883e dcf4 513e e091 c63e 9ece 393d
000000e0: bcda 1f3e 7991 253f 9b74 ff3e 1e5c b23d
000000f0: 1bd8 f0be 0ff9 bb3d 9fd5 de3e 5d65 c5bd
00000100: 39c0 05be d450 40bd 3392 333e 8fdf c93e
00000110: 6c17 393e 98af 50be ae9c 1f3f b871 563f
00000120: fe21 4fbe b10f 343e 016b 753e e8f9 8c3e
00000130: 14a5 42be ec24 d83e 658b d3bd 0fe0 1b3e
00000140: 8cd2 823e eddb 043f 460d f1be 4fc1 1fbf
00000150: 8ac1 0dbe 084c c83e 2aa3 87be 8657 78bd
00000160: 20dc 74bc 338a d2be 7492 f8be 98b8 363e
00000170: d25f 28be 474a 00bf 0402 febc ae62 a9bc
00000180: 0be8 3a3f 4f8e d7be 73d0 793d 7913 2ebf
00000190: 681a 603e 14f5 20bf e63d 22be c0d9 853e
000001a0: 788f 863e 4ea3 963c e662 b0be 7426 c93d
000001b0: d2e9 1cbe 9652 8bbe 114a 383f 5303 dcbe
000001c0: bbc1 84bf caa2 cd3d dfb1 afbe a5eb d0be
000001d0: a58a 203f ec55 083f 5873 09be b6f2 463f
000001e0: ac43 c53e fbfd aabc c717 0c3e dcd3 993e
000001f0: 619b 14bf b06c 893d 4a05 353f 248d 523e
00000200: 7833 d23e ac24 dc3e 39af a33e fb06 9f3e
00000210: 5aaa b73e 81a5 9e3e 07f6 fd3d 8172 15bf
00000220: 7c58 90be 05f2 ffbe 1785 363f a28a c03e
00000230: b76a cabe d07b 163f 1882 ccbd 4a55 fd3e
00000240: 8c05 f43e 7393 d23e d484 af3d 0c7d cabc
00000250: 2eed 80be 4020 883e e29b 14be 1998 c0be
00000260: fbf3 aabe 220b c9be a1f0 20bf 9b4c ccbe
00000270: aa1d 39be 4797 bc3d 50a7 2abf e734 c13e
00000280: 65c8 193f c1ba 00bf 69cb 0d3f a2c6 403f
00000290: e7cb bf3e 4921 493d c514 c13e 871b 0a3f
000002a0: 41a9 94be 043e 933e c1ce 603e 80fa 1c3f
000002b0: 4d96 8fbd 3385 9d3e f26e b2be c3ea 573d
000002c0: a3ec 443e 3be6 f03e 72dd c6bd 3304 313e
000002d0: 4c9e 6f3d a41b 11bc a1d1 bf3d adbb 92be
000002e0: 1c43 9bbe 2371 4abe cb00 f2be ebea 9dbe
000002f0: 5b07 ae3d a96f 00be 1d76 863d c23b fe3e
00000300: 40de d3bd 25c6 a03e b1c2 e23e 2278 e53e
00000310: ab14 ed3e b425 6f3d 8d59 363e e060 f93c
00000320: fbfb d4be 434e e03e 2f30 003f bb60 983e
00000330: 216c e63d b538 043f 24ef 053f c06f f73e
00000340: 531d 0d3f f119 613f c190 acbe 7aec dfbc
00000350: d938 be3d 6ce4 9dbe 6d8a ac3e 0671 253e
00000360: 7782 64be 770b d7bd 494f 0e3e b7bb a3bd
00000370: 1880 b13e 382e 5b3c b014 923d 0775 4b3e
00000380: a248 35be 9bc6 d93e 972c 943d 3a16 0abf
00000390: 1362 36be 40ea 053e 325c 34be c0b7 8abe
000003a0: dca2 9f3d ef72 31be 479a ad3e e710 073e
000003b0: fe56 64be a7a7 63be 624c debe 60dd 8dbe
000003c0: 956b 5fbe 2693 7abe 34b7 743e 59ad 6e3e
000003d0: 9c13 d0be c4a5 9dbd 6b08 bfbe 4551 e5bd
000003e0: bf76 c7be b365 773e 2845 503e 9bb8 a7be
000003f0: db66 0c3e 766f d23d dfae 64be 46aa e3be
0.07740657 -0.4201948 -0.20845576 -0.094489716 -0.15356869 -0.06623639 0.06019189 -0.5257016
0.26862887 -0.25213507 0.34838432 -0.008612406 -0.24902883 0.08182973 -0.11884772 -0.19029486
-0.120924294 0.2383362 -0.0039896052 -0.41486832 -0.3017189 -0.094129845 -0.123889856 -0.28836846
-0.356779 -0.15902755 0.08599658 -0.035969187 -0.109620154 -0.3720685 -0.037137844 0.16117227
0.28270674 -0.197947 0.04931323 -0.3559712 0.2238981 -0.7291642 -0.19726408 0.29796726
0.30515125 0.42190942 -0.5039554 -0.39415136 0.20112856 -0.11185578 0.08230561 -0.4228823
-0.23857974 -0.4726547 0.2848248 -0.12703998 0.26619637 0.20503563 0.3878317 0.04536306
0.15610784 0.646751 0.4989365 0.08708976 -0.47039875 0.091783635 0.43522355 -0.09638474
-0.13061608 -0.046952084 0.1753624 0.39428374 0.18075341 -0.20379484 0.6234845 0.8376727
-0.2022781 0.17584111 0.239666 0.27534413 -0.19008285 0.4221567 -0.10329322 0.1522219
0.2555126 0.5189808 -0.4708044 -0.6240434 -0.1384336 0.39120507 -0.26491672 -0.060630344
-0.01494506 -0.41121063 -0.48549235 0.17843854 -0.16442803 -0.5011334 -0.03100682 -0.020676937
0.7301032 -0.4210076 0.06098981 -0.6799846 0.21885073 -0.6287396 -0.15843925 0.26142693
0.26281333 0.018388417 -0.34450454 0.098217875 -0.1532357 -0.27211446 0.71988016 -0.42971286
-1.0371622 0.10040815 -0.34315392 -0.40804783 0.62711555 0.53256106 -0.13422906 0.777141
0.38528192 -0.02087306 0.13680945 0.30044448 -0.5804959 0.067101836 0.70711195 0.20561653
0.41054893 0.42996728 0.31969622 0.31060013 0.35872155 0.30985644 0.124004416 -0.58377844
-0.28192508 -0.49989334 0.7129683 0.37605768 -0.39534542 0.5878267 -0.09985751 0.49479133
0.47660482 0.4112812 0.08570257 -0.02471783 -0.25180954 0.26587105 -0.1451259 -0.3761604
-0.33389267 -0.39266306 -0.6286717 -0.39902195 -0.18077722 0.09208541 -0.6666155 0.37735674
0.600714 -0.50284964 0.55388504 0.7530309 0.37460253 0.04910401 0.37711158 0.53948253
-0.2903538 0.28758252 0.2195387 0.6131973 -0.070110895 0.30765685 -0.3485027 0.05271412
0.19230895 0.47050652 -0.09710206 0.17286758 0.058500573 -0.008856688 0.093661554 -0.2865881
-0.30324638 -0.1976972 -0.4726623 -0.3084329 0.08497497 -0.12542595 0.06565497 0.49654967
-0.10345125 0.31401172 0.44289163 0.44818217 0.4630483 0.058385566 0.17807598 0.030441701
-0.41598496 0.4380971 0.5007352 0.297613 0.11251093 0.5164903 0.52318025 0.48327446
0.5512287 0.8793021 -0.33704188 -0.02733444 0.092881866 -0.30838335 0.3369936 0.16156396
-0.22315393 -0.105002336 0.13897432 -0.07994788 0.3466804 0.013377719 0.07132852 0.19868861
-0.17703488 0.42534336 0.07235067 -0.53940165 -0.1781085 0.1307764 -0.17613295 -0.27093315
0.07794735 -0.17329 0.33906767 0.13190041 -0.2229881 -0.22231923 -0.4341765 -0.27707958
-0.21818383 -0.24470195 0.23898011 0.23308314 -0.4063996 -0.07697633 -0.3731111 -0.111971416
-0.38957784 0.24159889 0.20338881 -0.3275803 0.13711111 0.10275166 -0.22332333 -0.44465846

feature_net.linear_layer_1.bias f4 [32]
00000000: 837a 013d 9aaa 403c 24ed 873c 8e0b b93d
00000010: b43e df3d 33d8 a03e 8219 063e 2a25 7abd
00000020: b26f f93d 9c90 0e3e 2707 8d3d 8a83 a43e
00000030: 1480 a2bd d8a3 7a3e 3371 df3d 3e23 32be
00000040: 8da5 c5be aaff 59be 13f0 1fbe d999 fa3d
00000050: 6817 03bd 2386 293e f7d7 913d 2088 9dbe
00000060: 9187 613e f469 1fbe e857 49be a7e8 7ebe
00000070: c525 70be 4177 9cbe 6777 b6bc 99a6 223e
0.031610977 0.011759425 0.01659257 0.09035407 0.109006315 0.31414947 0.13095668 -0.0610706
0.12179507 0.13922352 0.0688613 0.32131606 -0.07934585 0.24476564 0.10910263 -0.17396256
-0.38602868 -0.21288934 -0.15618925 0.12236375 -0.032004744 0.16555075 0.0712127 -0.30767918
0.2202437 -0.15567762 -0.1966244 -0.24893437 -0.23451908 -0.30559734 -0.022273732 0.15883864

feature_net.layer_norm_1.weight f4 [32]
00000000: 6e76 a83f 409e d63f 8db4 ad3f a2ab f03f
00000010: d316 ec3f 7021 e03f 1e71 d33f a0d0 e23f
00000020: ce88 dd3f b766 eb3f 1fd8 b93f 21eb 0040
00000030: 4fa7 9b3f a797 f03f 13cd e53f 497c 793f
00000040: 840b d43f d67c 863f 15f8 963f 6633 f63f
00000050: e70b cf3f 64ea d23f b0af 9e3f 36e4 b13f
00000060: 27c5 c53f 5eca c83f 6522 733f 94d8 9d3f
00000070: 1ae2 763f 1c03 be3f ebfc eb3f edb0 c13f
1.3161142 1.6767044 1.3570725 1.8802378 1.8444465 1.7510204 1.6518896 1.7719917
1.7307374 1.8390721 1.451908 2.0143511 1.2160434 1.8796281 1.7953209 0.9745527
1.6566014 1.0506847 1.1794459 1.9234436 1.6175507 1.647778 1.2397366 1.389777
1.5450791 1.5686758 0.94974357 1.2331719 0.96438754 1.4844699 1.843656 1.5132118

feature_net.layer_norm_1.bias f4 [32]
00000000: e0cb 393e 3bd2 003f b5eb 333f f877 093f
00000010: 8776 333f af17 363f bd39 293f 754a b23e
00000020: 1582 0e3f cf18 563f f204 ea3e 5669 243f
00000030: e5ea a83c 718d 3d3f 5593 383f ae01 e9bd
00000040: 064b ca3e 8506 793d 1413 c0bd cca0 053f
00000050: 5f9d 063f 15dd e63e 6daa 903e 7d32 893e
00000060: a4f9 683e 5533 893e bb51 f7bd cc93 c3bc
00000070: 4fd8 343d c651 433e b806 d73e d117 c73e
0.18144178 0.50320786 0.70281535 0.5369868 0.70102733 0.7112989 0.66103727 0.3482243
0.5566724 0.83631605 0.45706898 0.6422323 0.020619819 0.7404395 0.7209981 -0.113772735
0.39510363 0.060797233 -0.09378639 0.5219848 0.5258388 0.45090547 0.28255025 0.26796332
0.2275148 0.26796976 -0.12076136 -0.023874186 0.0441516 0.19074163 0.41997313 0.38885358

feature_net.linear_layer_2.weight f4 [32, 32]
00000000: ce0f 64be 8201 913e 0dc0 96be 21b5 a0be
00000010: a962 da3e 725e 61bd ef1d 2dbd fc82 16bf
00000020: 5da4 8ebe e99a 2c3e e037 b9be 1c9b a13e
00000030: ac00 bc3e ea53 e03c 378b 083f c8bd d73e
00000040: 18b5 e83c 462b 25be 0f6e 67bd d19e 42be
00000050: 0c49 df3e bd64 103e 2520 cabd 6cef 98be
00000060: 7119 2b3d 46a8 b63e 1621 553e 6bad 87be
00000070: 0680 293e 7943 70bc e7db 393e 6ebe 62bd
00000080: 6a6c 4c3e 61c6 d33e 80d8 823e f0cd 4ebc
00000090: 9973 00bf b4a9 f53c 5623 8bbe 076b 01bf
000000a0: de8e ebbc ce7a 183e 9bf6 163f 0e60 00be
000000b0: 1d1b 2bbe 81f0 e53e a575 9bbe d3a5 83be
000000c0: 7f49 1a3e 7065 4ebe 6530 83be ea4b af3d
000000d0: dc90 e1be 500b 103e abcc 46be 6300 1dbb
000000e0: 9a5e 633e ccf4 443d cf62 03be 0225 153e
000000f0: ea23 9b3e 6a5f ebbc 72b2 84bc fe71 5abe
00000100: 5803 b93e 8a33 af3c 8c6a 213e 15b8 7f3e
00000110: 7108 693d 6385 04bf 9a1c 2fbe f84e fa3c
00000120: add2 0e3d c090 1ebe b4b8 b3bd 7bc3 0e3c
00000130: d86e 043f 4a76 503e 3a02 55be 7944 eebc
00000140: 1c5f 8a3e 642d f2bb aa39 e53b 2840 fcbe
00000150: c3b0 233d 91e4 fabe 48af 16bc 025a 863e
00000160: 7bf4 8a3e 7d6c 46bd 0380 48be 8e6d 79bc
00000170: c9aa efbd 3635 95be 35cf 41be b0ba adbe
00000180: 1f84 3c3d dc87 c53e 93e3 2fbe 2f9d bf3e
00000190: ab0a a83e c4bf ca3e c59d 143f b6e9 76be
000001a0: 08c6 1e3e 7b32 a43c 02e9 ca3e fefb 223d
000001b0: dd3b edbd d73c 713e 67bc efbd 4ae8 e0bc
000001c0: d932 47be 86a4 d43e e0ff e43d f9de 97be
000001d0: 3031 a53e 7e29 2f3e a81e d03b 2043 5a3e
000001e0: 5e29 383f c5fb a5be 5532 ebbd 9f6e be3e
000001f0: 934a 9f3e a358 a33e f61a cf3d 65b3 c53e
00000200: a14a 5cbe 9a61 3fbe 404e d0bd 0040 02b9
00000210: 0431 2cbe a4aa 943e e583 133e 4107 2cbe
00000220: 2ebf 2bbe 2268 9b3e 47b4 3e3e e4cb f33e
00000230: b784 f43d 89a0 a03e 792b ca3e 78b0 b63d
00000240: d3b3 363e 9edb 753e 3f21 c03d 87a6 6dbe
00000250: 7e91 d83e 568d d53e 0696 e93e 0351 ae3d
00000260: 1fe8 a0be 8568 97be 6f59 8d3e 1dcb 1f3f
00000270: e614 95bd dc75 adbe 8327 8a3e b73e 53be
00000280: d56a d43c 7fbf 483e 9208 a43e 9ebb ba3e
00000290: 3d1b 1a3f 3d30 2c3e 07aa 183e 1096 07bf
000002a0: 0c91 dc3d 8bef 9d3e 64bd d93e a7f1 f93e
000002b0: 4715 a9bd b07f 50be 99ee 1b3e c783 333e
000002c0: 8c15 71be 1723 fcbe 75d3 d9bd 761d ea3d
000002d0: 525a 05bc e8c7 b6be 705a 0a3f 2ef3 9a3d
000002e0: cdf7 46be 6473 ffbd ac79 f5bd 7557 543e
000002f0: a3e3 95be b68c f9bc bc38 033e 2411 423e
00000300: c493 243e 01e0 ecbe a066 52be 4187 b23e
00000310: e67a d4bd ee28 c93e d4c8 07bf ff6f 1bbe
00000320: 0c1d f0bd 99b0 58be b7a3 c73c a1d5 3e3e
00000330: 716c 523e b919 4dbe e0c1 db3e 529a e93c
00000340: 7ca7 8f3e a080 5e3e 42c4 da3e 46f1 3e3e
00000350: 023d 8bbe 650e 6ebe ca63 35bd 26d9 de3d
00000360: b2ca f83d 6878 2fbe 77d3 44be f5b6 39be
00000370: 56cb 963e 2082 933e 1695 45be 11ef 27be
00000380: 7d59 8a3e bf10 823d c19a f8be cbc1 cabd
00000390: 57d8 cebe 54d1 b7be c2cc f7bd 85e9 1dbd
000003a0: 3eea 32be 9496 4ebe db4c 1ebd c76f b33c
000003b0: cbe3 9c3d 6094 28be 948e 313d 637c 0fbe
000003c0: 026d 083d c145 c9be 3f41 a83d 0523 8ebe
000003d0: 56f9 63be 77b4 843e 2198 fc3d 34f9 2e3f
000003e0: 63d1 4fbe 8a82 d83e de32 f23d d023 e1be
000003f0: e70e 0ebf 986c d33e be38 ea3c 702d d63e
-0.22271654 0.28321463 -0.29443398 -0.3138819 0.42653397 -0.05502171 -0.042264875 -0.58793616
-0.27859774 0.16855969 -0.36175442 0.31563652 0.36719263 0.027383763 0.53337425 0.4213698
0.028406665 -0.16129789 -0.056501444 -0.19005896 0.43610418 0.14100929 -0.09869412 -0.29870164
0.04177231 0.35675257 0.20813403 -0.26499495 0.16552743 -0.014664524 0.18150292 -0.05535739
0.19963232 0.4136229 0.255558 -0.0126223415 -0.5017639 0.029988147 -0.27175397 -0.50553936
-0.028754648 0.14890596 0.5897004 -0.12536642 -0.16709562 0.44910052 -0.30363193 -0.2571245
0.15067099 -0.20155883 -0.2562286 0.08559401 -0.4405583 0.14066815 -0.19414012 -0.002395653
0.22204056 0.04808502 -0.12830661 0.14564899 0.30300838 -0.02873202 -0.01619837 -0.21332547
0.36135364 0.02138688 0.157633 0.24972565 0.056892816 -0.5176603 -0.17100754 0.030555233
0.034868885 -0.15484905 -0.08775464 0.008713598 0.51731634 0.20357624 -0.2080163 -0.029085385
0.27025688 -0.007390665 0.0069953995 -0.49267697 0.039963495 -0.49002507 -0.009197064 0.26240546
0.2713965 -0.048443306 -0.19580083 -0.015223874 -0.117024966 -0.2914216 -0.189267 -0.33931494
0.046024438 0.38580215 -0.17176656 0.3742461 0.3282064 0.3959943 0.5805324 -0.24112591
0.1550523 0.020043602 0.39630896 0.0397911 -0.11583684 0.23558365 -0.11705857 -0.027454514
-0.1945299 0.4153177 0.11181617 -0.29662302 0.3226409 0.17105672 0.0063513108 0.21314669
0.7193812 -0.32418647 -0.114842094 0.37193772 0.31111583 0.31903562 0.10112564 0.3861343
-0.21512844 -0.18689576 -0.10171175 -0.00012421608 -0.16815573 0.29036438 0.14405783 -0.16799642
-0.16772148 0.30352885 0.18623458 0.47616494 0.11939376 0.3137248 0.39486292 0.089203775
0.17842035 0.24009559 0.09381341 -0.23208056 0.42298502 0.41709393 0.4562227 0.085115455
-0.31427094 -0.2957193 0.27607295 0.624193 -0.07279377 -0.33878982 0.2698327 -0.20629393
0.025929848 0.196043 0.3203779 0.36471266 0.6019781 0.16815276 0.1490861 -0.5296335
0.10769853 0.3084682 0.42527306 0.4881718 -0.082560115 -0.20361209 0.15227737 0.17530738
-0.23543376 -0.4924552 -0.10636035 0.114314005 -0.00813921 -0.3569939 0.54044247 0.07565914
-0.19430466 -0.12473181 -0.11986098 0.20736487 -0.29275236 -0.030462604 0.12814611 0.18951851
0.16071993 -0.4626465 -0.20546961 0.34868816 -0.103750035 0.3928904 -0.53040814 -0.15179442
-0.1172429 -0.21161117 0.024370058 0.1863618 0.2054918 -0.20029344 0.42921352 0.028515968
0.28057468 0.21728754 0.42727858 0.18646726 -0.27194983 -0.23247679 -0.04428462 0.108812615
0.12148036 -0.17135775 -0.19221292 -0.18136199 0.29452008 0.28810215 -0.19295153 -0.1639979
0.270214 0.0635085 -0.48555568 -0.09900244 -0.4039943 -0.35901892 -0.12099601 -0.03855278
-0.17472169 -0.20174628 -0.038647514 0.021903886 0.076606356 -0.1646285 0.043348864 -0.14012294
0.033307083 -0.3931103 0.0821557 -0.27761093 -0.22263083 0.25918934 0.12333704 0.68349004
-0.20294718 0.42287093 0.118261084 -0.43972635 -0.5549149 0.41293788 0.02859151 0.4183154

feature_net.linear_layer_2.bias f4 [32]
00000000: 92cc 993c c000 a3bc 762e 53bc c923 483e
00000010: 215e dc3d 7200 103c 439a 5abd 2940 85bd
00000020: 4673 743d 9123 0bbd e4d9 033d 0ea7 28bd
00000030: 7711 62bd e8d1 693d f623 9d3c d467 4bb9
00000040: 75f7 c23d ca66 0ebd 7fc1 3dbe 1d81 a3bd
00000050: edc7 4cbd 56d6 0d3e 3543 713e bdff 3dbc
00000060: 4352 a0bd fa93 23bd 4fbc dbbd 05b0 19be
00000070: fa86 c1bc 0ad3 6cbd 67a8 403d 3d6c d2bc
0.018774305 -0.019897819 -0.012889495 0.19544901 0.10760141 0.008789169 -0.05336977 -0.06506378
0.059680246 -0.033969466 0.03219022 -0.04117494 -0.055192437 0.057084948 0.019182187 -0.00019398268
0.09519855 -0.034765996 -0.18530844 -0.07983611 -0.04999535 0.13851294 0.23560794 -0.011596617
-0.0782819 -0.039936043 -0.107292764 -0.15008552 -0.023623932 -0.05781845 0.0470356 -0.025686378

feature_net.layer_norm_2.weight f4 [32]
00000000: f974 a53f e673 893f 08de 8c3f 71f7 a23f
00000010: 8c44 913f 84f4 8b3f becf 6b3f 4e45 823f
00000020: 4943 903f c100 653f b7b0 8a3f c224 7c3f
00000030: 41eb 703f c415 973f d743 9f3f 6b60 983f
00000040: a7ab b83f 0e96 933f 67f1 823f ebcf 6b3f
00000050: f7f5 6b3f a035 a63f bc1c b73f 8f09 963f
00000060: 981a 813f 6177 813f 109e 643f 4a39 813f
00000070: 7ee3 7d3f dc3f 983f 12a7 9a3f d10b 833f
1.2926322 1.0738494 1.1005259 1.2731763 1.1349044 1.0933995 0.92113864 1.01774
1.1270534 0.89454275 1.0835179 0.9849359 0.9410897 1.1803517 1.2442578 1.1904424
1.4427384 1.1530168 1.022992 0.9211413 0.9217219 1.2985115 1.4305644 1.1721667
1.0086241 1.0114557 0.89303684 1.0095608 0.9917525 1.1894488 1.2082236 1.0237981

feature_net.layer_norm_2.bias f4 [32]
00000000: dbe3 3c3e 6597 613d 9aa4 b0bc 2d01 643e
00000010: e17a 213e cb3f 9b3d 6461 bdbd 75f6 d8bb
00000020: 7029 db3d 70a4 e4bd a609 ac3d 2213 28bd
00000030: ecce 86bc 2df6 e63d 5a6c 263e 0772 633e
00000040: a5c1 a83e f97f 483e ac44 c33c f230 32be
00000050: 6ff6 c1bd a6b0 293e 0c9d c43e 6adf 973d
00000060: 2df3 a53c 2a2f 523c 2f4e 04be e1ea 0bbd
00000070: 251b 183d 545b 293d 8a7e 2b3e 91fc 293d
0.18446295 0.05507602 -0.021562863 0.22266074 0.15769531 0.07580527 -0.092470914 -0.006621177
0.10701263 -0.111641765 0.08400278 -0.04103387 -0.01645609 0.11277423 0.1625227 0.22211467
0.3296024 0.19580068 0.023836456 -0.17401484 -0.094708316 0.16571292 0.38401067 0.0741566
0.020257557 0.012828628 -0.1292045 -0.034159545 0.037135262 0.041346863 0.1674749 0.04150063

feature_net.linear_layer_output.weight f4 [5, 32]
00000000: f61d 1d3f af80 8d3e 01fb 1e3f a651 813f
00000010: 1e54 5c3f 5f67 b23e 2d83 193f b7e8 d2bd
00000020: a05e cb3e ffe2 1a3f 7c65 e1bc c8fc 6fbe
00000030: 0162 0ebe c8fd 463f 0668 03bf 92fa 003f
00000040: 6862 333f 86e1 62be c3aa 0f3e e3e2 363e
00000050: b808 d43d bfe7 503f 6728 cd3e d15a d93c
00000060: cc6e dd3d 06ed 03be 8b48 0b3e 2743 af3e
00000070: c8d6 863d e3ce 9abe 04fb 10bf 237b 38bd
00000080: 81cd b33e 7b4c 033e 7606 053f c75b 473f
00000090: 4929 e03e c396 0a3f 5207 f13e a4b7 e1be
000000a0: 4fb2 383f 2290 833e 306e 10be c68a 4cbd
000000b0: 60a3 693e a7c2 663f df97 d6be 18b9 023f
000000c0: e21e 373f cdbb 013d 76a3 2f3e 259d 32bd
000000d0: 3e31 e3be f371 683f 6bd9 273f 58f2 5ebe
000000e0: d643 babe 37b8 0cbf 2824 b5bd ef12 45bd
000000f0: 5fc7 3a3e 2421 0cbf ef2e 02bf f856 e73d
00000100: 0525 573e 7d63 2d3f 1409 1b3f a21f 583f
00000110: e421 273f 02e8 173f 4975 fd3e eb05 ec3e
00000120: 3cbd 533f 0c31 333f 803a 4c3f dc79 373f
00000130: 21ed 86bf d4a6 5c3f 796e 433f 6f46 923e
00000140: 93a9 203f 59e5 4e3e def5 b63e dfa2 3e3f
00000150: 17e4 073f 6841 573f 5664 673f 7958 233f
00000160: 8549 953e 081c 323f ebc9 bb3d f72b b53e
00000170: 3425 a53e eb61 133f d99e 493f f576 a83e
00000180: fae9 93be c115 693f 435c 75be 5d7c c53e
00000190: 0546 96be 8091 babe 9049 e5be e9e6 173e
000001a0: 75c2 ccbd 7d95 32be 15b1 713f 837c f3be
000001b0: 2f68 423f 471b d0bd d42c 6bbf f986 d8bd
000001c0: 55cd 13bf e094 0b3f bc3e 33be 7b71 2d3f
000001d0: 8899 f6be 4449 573f f271 86bf 0d50 913f
000001e0: c18e 8dbd a89e a73e 21c1 bcbd caa5 47be
000001f0: 7ec9 89bd 89eb 843e c4b7 17bf 7c5b 023f
00000200: c6f2 77bb c3af 2d3f ba80 373f 298c 3a3f
00000210: 129f 4d3f a458 493f f9f8 1a3f 5070 2a3f
00000220: 2c36 593f 5050 343f 7bcd 593f 801f 653f
00000230: 1005 9e3e 69ab 3b3f 6e9e 3c3f 3545 ce3d
00000240: ccaa 403f 4bc8 893e f202 833e c7c1 633f
00000250: 2dbd 193f d228 6e3f 10d4 903f be56 263f
00000260: f29e 153f bb36 363f e599 9b3e 8f9e af3e
00000270: 83a0 0a3f fc00 133f b7d4 763f ea33 cd3e
0.6137384 0.2763724 0.6210175 1.0103042 0.8606585 0.3484449 0.59965783 -0.10298293
0.3972063 0.6050262 -0.027514212 -0.23436272 -0.13904573 0.7773099 -0.513306 0.5038234
0.7007203 -0.22156343 0.14029984 0.17859988 0.103532255 0.81603616 0.40069887 0.026532562
0.108121485 -0.12883386 0.13601892 0.3423092 0.06583935 -0.30235967 -0.5663302 -0.045039307
0.35117725 0.12822144 0.51962984 0.77874416 0.43781498 0.54136294 0.47075897 -0.4408542
0.7214708 0.25695902 -0.14104533 -0.049937032 0.22816229 0.90140766 -0.41912743 0.5106368
0.715315 0.03167324 0.17152199 -0.043606896 -0.44373506 0.9079887 0.6556613 -0.21772134
-0.3637988 -0.5496859 -0.08844787 -0.04811376 0.18240117 -0.5473807 -0.50852865 0.11295885
0.21010216 0.6772993 0.6056073 0.8442327 0.6528609 0.5933839 0.49503544 0.46098265
0.82710624 0.69996715 0.79776764 0.7167032 -1.0541116 0.8619206 0.7634044 0.28569362
0.6275875 0.20204677 0.35734457 0.7446727 0.5308241 0.84084177 0.90387475 0.63806874
0.29157653 0.6957402 0.09169372 0.35385105 0.32254946 0.57571286 0.7875801 0.32903257
-0.28889447 0.9104882 -0.23960976 0.38571444 -0.29350296 -0.36439133 -0.44782686 0.14834179
-0.09998027 -0.17439838 0.9441083 -0.47555932 0.7594022 -0.10161453 -0.9186528 -0.10572619
-0.57735187 0.5452404 -0.175044 0.6775128 -0.4816401 0.8409617 -1.0503523 1.1352555
-0.06911994 0.32738233 -0.09216524 -0.19496837 -0.06727885 0.2596095 -0.5926478 0.50920844
-0.0037833913 0.67846316 0.71680796 0.7287012 0.8032085 0.7865088 0.6053615 0.66577625
0.84848285 0.7043505 0.85079163 0.8950119 0.30863237 0.73308426 0.73679245 0.10071794
0.75260615 0.26910624 0.25588185 0.88967556 0.60054284 0.93031037 1.1314716 0.6497611
0.58445656 0.7117726 0.3039085 0.34300658 0.5415117 0.5742338 0.9641833 0.4007867

feature_net.linear_layer_output.bias f4 [5]
00000000: c795 643e 33b9 c03e 4589 273f 8799 383d
00000010: f859 3d3f
0.2232276 0.37641296 0.6544383 0.04506829 0.73965406

feature_net.linear_layer_0.weight f4 [32, 16]
00000000: fb02 af3e 2cb0 04bd 8457 6a3e a15d 093f
00000010: 428d 9cbc 3428 18be 0f1b 5b3d fbca 21be
00000020: 1410 a93e 37d7 993a 32fc 853d fdae 423e
00000030: d74f 81be fbf4 b9bd 115a 5f3e 1389 53be
00000040: a295 bfbe fdff 6f3e 9153 27bd 58ff c6be
00000050: 5bf5 9dbe 2014 76be d48e a7be b943 d23e
00000060: 1055 91be 283f bcbd 9948 a43e 76e2 b4be
00000070: 7743 813f afa3 33be a073 e33e b75d c5be
00000080: 8d5d 53bc ebdd 983e ef85 32bc 1852 d73e
00000090: bc10 993e d3dd 13be 5bd7 d4be 0cbd 2dbe
000000a0: 7497 dabe 205d f1bd 3d28 403e 3be1 babd
000000b0: 1ac8 393f 9eb1 a3be 56ea 94be 2667 edbe
000000c0: 6f12 cabe 9d60 303e 822b 85bc bd9d 49be
000000d0: 4a6c ed3e ffac f2be 2fe4 1abe ace9 9dbe
000000e0: 5792 b9be c14c 33bb 79ce 9cbe d400 9b3e
000000f0: c98b b4bd 05ec e03e 2a9e 01bf b02d 02be
00000100: d70b c53e 454f 0d3f 8e13 7c3e 012c 18bf
00000110: cea2 d33e 0afe af3e cf75 c3bd ae79 d33e
00000120: a28d 8dbe ce31 083e b92b 003e c871 b53e
00000130: 575b 183f ef58 393f 275d 3fbe 6624 0cbf
00000140: cf81 d2bd 8f05 0ebf 31fe 0cbf 1e45 c83e
00000150: 308a ff3d 39d6 0d3f bef3 843c 79ed db3e
00000160: 4de0 69be 0578 8ebe f275 0a3e 20a9 8fbe
00000170: 9ede 3d3f c71c 103e 8855 a93d 727a 86bf
00000180: 5f94 453e b995 113e 9d2c 86bd 730c 3d3e
00000190: d723 45be f13c 88be 409f f3bd a2cf 7fbe
000001a0: 44c6 533f 7ad2 dfbe 5aa5 763e 69b1 ab3e
000001b0: deeb 18bf 5e08 503e e62f 04bf 4c2e ea3e
000001c0: 3a88 453d 1eff a7bd e2c5 ad3c 7a96 e3bd
000001d0: 2eac 993e 3e7a e13d fc59 443e 864c 28be
000001e0: 3ed6 15bd 7bfd 193e 905c 683e 73a8 19be
000001f0: 7ded 61bd a7fb e43e 4e60 2fbf 671a d7be
00000200: ca87 c33e c72f 00be f5f0 fb3d 715d a5be
00000210: 8f75 17be 98e2 3d3c a66b f93e 8392 74be
00000220: ed18 f33e 916e 753e 0c11 bebc d3a1 04be
00000230: 78f9 28be 7d6c 32be 2bfa 3fbe 91f9 8bbe
00000240: 9c05 38bf 8978 2abe 08d6 04bf debc aa3e
00000250: 1926 f13e 4e32 95be ad6d 373e 11f2 c33d
00000260: e591 d8bd e18f abbd abe1 8bbe 2bb4 cf3d
00000270: 6b6f 833e 433b 0a3e f200 a6be 9678 83be
00000280: 74e6 06be c397 d0bd 2a06 b53d bbfc 933e
00000290: 7fd1 b23e eeb5 003e c64c 903d c0ae 283d
000002a0: d0e0 a5be 039c 7dbe 35e9 473e b58a 383e
000002b0: 0e38 f5bd 2324 e63d 0700 09be 1f64 f4be
000002c0: 7be9 17be 7e7b 1cbe c180 dc3e 23a0 fe3d
000002d0: da1a aa3e e26a 5cbd d1e8 9f3e ab27 76bc
000002e0: e9c5 15bf cec1 51bd 27fb f0be 71cd 63be
000002f0: 3c4a d53e 621d 7d3c 2cd8 07be a850 41be
00000300: 7b70 d4be 4d7c 99bc 8890 a5be b381 10bf
00000310: d3d8 a63e f48b ca3c edad 1d3e 557d 88be
00000320: f301 e7be 1245 d53d 5d93 50bc aa59 9a3e
00000330: 9588 d9bd 09ed 9a3e fa2c 0bbe e4c9 eebe
00000340: 5726 ea3e f3a4 a53e 75ba 163d e6b0 103f
00000350: 57cf 1abf 53ae d0bd dc3a ab3d 1f82 15bf
00000360: 5fc4 423f 5dd1 cbbd bf19 853e 167b 6a3e
00000370: cf49 b8be 6e5b 1c3d 1bd2 16bf e902 98bd
00000380: ceea 223d a312 1fbe 0b4e 953a a1b6 323d
00000390: 8c7d 6dbe 4d95 3bbd d0e5 05be e58b cbbc
000003a0: 243f 91bf bf38 83be 10cd 96be a9ea 033f
000003b0: e92d cebc 8966 6d3d f328 05bf bf0f 5e3d
000003c0: 119d 013d b7e8 2ebe 570c 8dbd 6f51 393d
000003d0: cb10 d03e 1035 babe 84ab 8c3d 7539 a4bd
000003e0: 52c5 d6bd 74e3 a93e 9a3c b43e a7f3 723e
000003f0: 1af2 c4be 72e6 02bc 28da 8ebe 7195 153e
0.3418196 -0.032394573 0.22884947 0.5365849 -0.019110326 -0.14859086 0.053492602 -0.15800087
0.3302008 0.0011737113 0.06542243 0.19012065 -0.25256225 -0.090799294 0.21811701 -0.20657758
-0.37418848 0.23437496 -0.04085118 -0.38866687 -0.30851254 -0.24031115 -0.32726157 0.41067293
-0.2838521 -0.091917336 0.32086638 -0.35329026 1.0098714 -0.17542909 0.44424152 -0.3854806
-0.012900722 0.2985681 -0.01089619 0.4205482 0.2989558 -0.14440088 -0.41570553 -0.16966647
-0.42693675 -0.1178534 0.1876535 -0.091249906 0.72570956 -0.3197145 -0.29085034 -0.4636776
-0.3946719 0.17224355 -0.016256098 -0.19689079 0.4637168 -0.4739761 -0.15126108 -0.3084234
-0.3624446 -0.0027358981 -0.30626276 0.3027407 -0.088157244 0.4393007 -0.50631964 -0.12712741
0.38485596 0.5519908 0.24616835 -0.59442145 0.41335148 0.34373504 -0.095439546 0.41303772
-0.2764712 0.13300249 0.12516679 0.3543837 0.59514374 0.72401327 -0.18687879 -0.5474304
-0.10278665 -0.5547723 -0.55075365 0.39115232 0.12477529 0.55405 0.016229507 0.42954615
-0.2283947 -0.27825943 0.13521555 -0.2805872 0.7416781 0.14073478 0.08268267 -1.0506117
0.1929488 0.14217271 -0.06551478 0.1846178 -0.19251953 -0.26608995 -0.11895609 -0.2498155
0.82724404 -0.43715268 0.24086514 0.3353379 -0.59734905 0.20315692 -0.5163559 0.45738447
0.04822562 -0.082029566 0.021212522 -0.111126855 0.30014175 0.11009644 0.19174951 -0.16435441
-0.03658127 0.15038101 0.2269156 -0.15005665 -0.055158127 0.44723246 -0.68506324 -0.4201233
0.38189536 -0.12518226 0.12301818 -0.32297853 -0.14790939 0.011589669 0.48714942 -0.23884015
0.47479954 0.23967959 -0.023201488 -0.12952356 -0.16501415 -0.17424197 -0.18747775 -0.27338842
-0.7188356 -0.16647543 -0.51889086 0.3334722 0.4709938 -0.29139942 0.17912932 0.09567655
-0.10574702 -0.08377052 -0.27320608 0.10141786 0.25670943 0.13499169 -0.32422596 -0.25677937
-0.13173848 -0.10185196 0.08839066 0.28903756 0.34925458 0.125694 0.07045893 0.04118228
-0.3239808 -0.24766545 0.19522555 0.18021663 -0.11973582 0.11237361 -0.13378917 -0.47732636
-0.1483516 -0.15281484 0.4306698 0.124328874 0.3322361 -0.05381287 0.31232312 -0.015024106
-0.5850511 -0.051210217 -0.47066614 -0.22246338 0.416582 0.0154489 -0.13266057 -0.18878424
-0.41492066 -0.018736029 -0.3233683 -0.56447905 0.325873 0.024724938 0.15398379 -0.2665812
-0.45118675 0.10413565 -0.012730447 0.30146533 -0.10621754 0.30258968 -0.13591376 -0.46638405
0.45732376 0.3235241 0.036798913 0.56519926 -0.60472625 -0.101895 0.08360836 -0.58401674
0.7608089 -0.09952042 0.25996205 0.22898516 -0.3599381 0.03817313 -0.58914346 -0.0742243
0.03977471 -0.15534453 0.0011391056 0.0436312 -0.23192424 -0.04579668 -0.13075948 -0.02484698
-1.1347394 -0.2562923 -0.29453325 0.5152994 -0.025168376 0.057959113 -0.5201561 0.054214235
0.03164393 -0.17080961 -0.06887119 0.045243677 0.40637812 -0.36368608 0.068686515 -0.080187716
-0.104868546 0.33181345 0.35202485 0.23725758 -0.3846596 -0.007989513 -0.27900815 0.14607789

feature_net.linear_layer_0.bias f4 [32]
00000000: 5f5f fbbc 3092 cd3d 8d60 623a 21c6 1fbe
00000010: 6d0a ae3e a92c 4b3e fe93 cabc bede 6bbc
00000020: 6cbf 063c 949c 70bd f3ba e6bb 6ed4 c83c
00000030: 1deb 053c c4fb 863b 5685 313e 5741 20be
00000040: 5169 21bc 0c74 f4bc 8622 043f 72e9 75be
00000050: 14cd f83c 4190 c43e a3e5 18be 0a47 f23d
00000060: 7b4e 96bd e7b0 f13e 7fc7 c3bd 5c8b b33e
00000070: 9ed6 8abd 0552 5dbd 9715 983c 6636 f73d
-0.030685125 0.10037649 0.0008635603 -0.15602924 0.3399233 0.19841255 -0.024728771 -0.014396368
0.0082243495 -0.058743075 -0.007041329 0.024515357 0.008173731 0.0041193683 0.1733602 -0.15649925
-0.00985177 -0.029840492 0.5161518 -0.24014834 0.030371226 0.38391307 -0.1493135 0.11829956
-0.07339188 0.47205278 -0.09559535 0.3506726 -0.06779216 -0.054033298 0.018564982 0.120709226

feature_net.layer_norm_0.weight f4 [32]
00000000: 1a70 2d3f 5312 ab3f 264f 483f 4c92 313f
00000010: 1c18 9a3f 4fc2 873f 58b2 9e3f 3a27 273f
00000020: e822 3b3f 6f91 723f 00ba d23e c138 5a3f
00000030: 0484 563f f9ef 833f c545 873f 54a0 303f
00000040: 876d 5a3f 15be 983f 3124 993f 6e91 503f
00000050: 86ee b63e 6895 8d3f ad4f 7d3f 5292 2b3f
00000060: 3eb3 3c3f 52ca 683f 4fa2 123f 017c a03f
00000070: 3a9b 733f cab7 933f 84b4 823f 2d1d 883f
0.6774918 1.3364967 0.7824577 0.69363856 1.2038608 1.0606173 1.2398176 0.6529423
0.7310014 0.94753164 0.41157532 0.8524285 0.8379519 1.0307609 1.0568167 0.6899464
0.85323375 1.1933008 1.196417 0.8147191 0.35728854 1.106122 0.989497 0.6702014
0.73711 0.90933716 0.57278913 1.2537843 0.9515873 1.1540463 1.0211339 1.0633904
